Assets/Brain/MoveToGoal_Good.onnx (onnx, 475545 bytes, 17 tensors)

155 f4 [132, 128]
000000 d2 33 ab 3c b1 de bc bc 7f 77 ac 3c c5 f9 bf 3c
       0.020898733 -0.023055406 0.021053074 0.02343453
000010 38 88 e2 bc b8 83 45 3d 62 56 7c 3c 1d 10 82 bb
       -0.027652845 0.04822132 0.015401455 -0.003969206
000020 21 de 09 3a ef e1 d3 3c 34 51 62 bd 04 8e 0e bd
       0.0005259235 0.02586457 -0.055253223 -0.034803405
000030 9e 87 43 3d 2d b7 28 3a 3d 00 05 3d d3 76 93 3c
       0.047736757 0.0006435987 0.03247093 0.018000996
000040 b0 a1 39 3d 21 9e ac 3c d5 fc f6 3b 56 c3 af 3d
       0.045320213 0.021071495 0.007537464 0.08582179
000050 c1 97 96 bd 8f 64 64 bc 31 98 9f 3b 1a aa df 3c
       -0.073531635 -0.013939991 0.0048704376 0.02730279
000060 84 4c 68 bc af f1 d9 3c 90 a6 b1 bc 12 97 14 3b
       -0.014178399 0.026604502 -0.021685869 0.0022673053
000070 6f 5e 98 bc 8b 3b 2e bd 9d d9 e4 bc d2 d7 01 3d
       -0.018599717 -0.042537253 -0.027935797 0.031699963
000080 a7 0e 61 3b 62 aa 91 bc a1 5c ab 3d dc fa 20 3b
       0.003434101 -0.01778144 0.08367277 0.0024563586
000090 aa b0 05 3d 54 2d 52 bb 81 5f bb 3c 41 72 8d bc
       0.032639183 -0.0032070475 0.022872688 -0.017266395
0000a0 4b f2 95 3b 28 6b 09 bd 97 c2 30 3d 05 53 3c 3b
       0.0045760027 -0.033549458 0.043154325 0.0028736007
0000b0 16 86 f9 bb 9d 2a 71 bd 10 ea dc 3b fe 14 42 3d
       -0.0076148612 -0.05887853 0.0067417696 0.0473833
0000c0 c1 28 c8 bc 9f 26 16 bd 29 8d 80 bd 3d 87 95 3c
       -0.024433495 -0.036657926 -0.06276924 0.018252963
0000d0 1c f7 44 3c 36 a7 02 bd 47 42 ba 3c ac 67 91 bd
       0.012021806 -0.031897746 0.022736682 -0.07099852
0000e0 75 13 ad 3c f0 dd 7d bb 18 d4 39 3d ae 03 92 3c
       0.021127442 -0.0038737021 0.045368284 0.01782402
0000f0 2d 36 5f 3d e9 a1 47 3d bb 08 8e 3d 82 bc cf bc
       0.054495025 0.048738394 0.06935259 -0.025358442
000100 47 71 c6 3b 17 5f 4f 3c 82 62 e8 bc fe d9 63 3c
       0.006055984 0.0126569485 -0.028367285 0.013906954
000110 35 dc 04 bd a3 80 1f 3d c8 85 a6 bb d7 6c 48 3c
       -0.03243657 0.038941037 -0.005081866 0.012232981
000120 35 03 24 bd aa a8 26 3d bc 59 d2 3c 56 dc e1 bc
       -0.04004212 0.040688194 0.025677554 -0.027570885
000130 6c 25 d8 3b 6a b4 6f bc dd 78 65 3b a7 87 0f bd
       0.006596258 -0.014630416 0.0035014667 -0.035041478
000140 9a 37 28 3d ea 9a d6 3b 8a 7c 04 bb 73 35 bf bb
       0.04106865 0.006549229 -0.0020215833 -0.005835229
000150 c7 7d b2 ba f6 cc 22 3d f8 64 6a bb 4e 1e 17 3b
       -0.0013617807 0.039746247 -0.0035765748 0.0023058834
000160 cf c1 b8 3c 82 89 ea bc 48 78 80 3b 37 f9 1f 3d
       0.022553353 -0.028630022 0.0039205886 0.03905603
000170 09 7d b2 bd e7 cb 11 bd a3 e6 6c 3c c5 12 95 3d
       -0.08715255 -0.035594847 0.014459285 0.07278971
000180 29 63 d6 3c 36 ee ea 3c 80 09 a2 3c aa 71 9f bc
       0.02617033 0.028678041 0.01977992 -0.019463379
000190 3b 2f 29 3d 93 da 90 3c 84 4d 2d bd 00 ac 89 3d
       0.041304808 0.01768235 -0.042310253 0.067222595
0001a0 2d 31 41 3c 8d 32 c3 3d 71 07 6b 3b de a5 6c 3c
       0.01179151 0.09531126 0.003586259 0.014443843
0001b0 76 33 7f bd a0 5e d2 bc 55 84 22 3d ad 56 30 3d
       -0.062304936 -0.025679886 0.039676983 0.04305141
0001c0 a9 e3 bb 3c 44 a7 2d bc e6 78 35 bd 76 a5 df 3b
       0.022935705 -0.010598961 -0.04430475 0.0068251444
0001d0 81 f7 c6 bd d6 f0 3a bb 75 3d dc ba 94 02 bc 3d
       -0.097151764 -0.0028524897 -0.0016802984 0.09180179
0001e0 76 5f 34 bd 3a 7a 5c 3d 22 8c 59 3c 49 85 66 bd
       -0.04403635 0.0538275 0.013278039 -0.056279454
0001f0 53 32 1b 3c f5 f4 87 3c d5 3a 9d 3c 6c a2 f1 3a
       0.009472447 0.016596297 0.019193092 0.0018435246
000200 c0 2e ae 3b 7d 1d 8b 3c 3d c6 ea 3c 94 9c c0 bc
       0.0053156316 0.016981835 0.02865898 -0.023512162
000210 2c e9 a4 bc 15 8a 81 bd 4d 3d a4 bd 91 32 2e 3d
       -0.020130716 -0.06325165 -0.08019505 0.042528693
000220 8d 32 06 bd a4 25 a5 bc 65 a7 32 bc a9 33 2e bd
       -0.032763053 -0.02015955 -0.010904168 -0.042529736
000230 94 f9 b2 3c 2f ec d1 bc 9b f6 59 3c 18 15 ee 38
       0.021847524 -0.025625316 0.013303424 0.000113526534
000240 0a 7e 32 3d a4 ed 73 3c a0 33 0a bd e4 5d 25 3d
       0.04357723 0.014888201 -0.03374064 0.040372744
000250 7a 96 6d bd 2a 40 e0 b8 c2 78 5a bd d0 52 c6 3a
       -0.058004834 -0.00010693104 -0.05333782 0.0015130881
000260 5a 7a 66 bc 8a 00 da 3d 78 19 73 bd 0a 42 6f 3c
       -0.014067257 0.10644634 -0.05935046 0.014603147
000270 78 d3 32 bc db 16 51 bd 92 de 3b 3d 6e 92 b5 bc
       -0.010914676 -0.051047187 0.045866556 -0.02216455
000280 fd f2 0c bc b2 f9 a2 ba 58 3e 46 3c fb f4 29 3c
       -0.008602855 -0.0012434034 0.012099825 0.010373349
000290 a7 9f 7d 3c 09 97 0c 3d 3b fa 21 bd fe ae b2 3c
       0.015479959 0.034323726 -0.03954528 0.021811958
0002a0 e5 44 cf 3c dc e2 01 3d cd 75 3c 3c 99 9d 43 3d
       0.025301406 0.03171049 0.011502695 0.04775772
0002b0 f1 a4 f2 bb d0 f9 04 bc 78 6c 1b ba d2 bc 76 bc
       -0.0074049165 -0.008116201 -0.0005928944 -0.015059667
0002c0 ba 02 18 bd 57 f8 80 bc 78 14 8f bc 12 fe 97 3c
       -0.037111975 -0.015743418 -0.017465815 0.018553767
0002d0 63 90 7d bd a2 5f 9b bc 3a c9 07 bd e0 e8 2c 3d
       -0.061905276 -0.0189665 -0.03315089 0.042214274
0002e0 c4 ea c1 bc 4f 75 71 3b b6 35 a4 3c 44 03 6e 3d
       -0.023671515 0.0036843603 0.020045143 0.058108583
0002f0 c8 92 6e 3d 2c 14 85 bc d1 80 85 3c c8 70 8c bc
       0.05824545 -0.01624497 0.016296776 -0.017143622
000300 b2 54 a8 bd ce 58 71 bc 55 9a 85 3c 4d ef 2b 3d
       -0.08219279 -0.014730645 0.016308943 0.041976262
000310 39 08 8e 3c 2c 65 ee bc 86 e0 03 bd 50 9a 39 bd
       0.017337905 -0.029100977 -0.032196544 -0.04531318
000320 dc 55 0d bd 83 ae 14 bc 51 94 a1 3c da 13 1b bd
       -0.03450571 -0.00907481 0.019724043 -0.03786073
000330 05 68 95 3b 20 00 4f 3c 8d 8b 9d 3b 0f ca 15 bd
       0.0045595192 0.012634307 0.0048078955 -0.03656965
000340 81 ac 08 3c 38 99 59 3d 04 3f be bd db d7 fe 3c
       0.008341909 0.053124636 -0.09289363 0.031108787
000350 04 72 a8 3d 36 c2 ec bc 8a 95 2a 3d 12 33 9d 3c
       0.08224872 -0.0289012 0.041646518 0.019189391
000360 2e 61 0b bb 1d fd 28 3d 57 96 ad 3c 8d 4f dd 3c
       -0.002126764 0.041257013 0.021189852 0.027015472
000370 2c fa 67 bd 3e b6 d7 bc 66 e7 10 3d 51 14 88 bc
       -0.056635067 -0.026332017 0.03537693 -0.01661125
000380 04 1d 64 3c c6 ae 76 3d 73 85 d5 bc 27 a3 02 3d
       0.0139229335 0.06022527 -0.02606461 0.031893875
000390 bf 85 a6 3c ae 81 4d bd 09 8d bb 3c 6b c9 14 3d
       0.020327447 -0.0501725 0.0228944 0.0363249
0003a0 a6 e7 24 bb 58 33 bd 3c d1 fc 2a 3c 2d 7c 95 bc
       -0.0025162487 0.023095772 0.010436253 -0.018247688
0003b0 85 f7 11 3d d3 8f 86 3a 0d b1 4f ba 01 68 ce 3c
       0.035636444 0.0010266252 -0.0007922806 0.025196077
0003c0 da 35 9f 3a 30 e6 06 3d c2 22 cd bb 06 c5 46 bd
       0.0012146786 0.032934368 -0.006260247 -0.04852774
0003d0 ae 14 91 bb ee c8 85 bc e7 42 3f bc 2f e4 99 3d
       -0.004427514 -0.016331162 -0.011673666 0.07514226
0003e0 c4 34 ab 3a ea 81 da 3b 72 45 20 bd e6 dd ac bc
       0.001306199 0.006668319 -0.03912873 -0.021101903
0003f0 3c 06 32 bb f7 95 54 bd 17 6f 19 3d cd ee 8f 3c
       -0.002716436 -0.05190083 0.03745946 0.017569924

157 f4 [128, 128]
000000 96 2b a2 ba 55 1e 94 3c 84 59 e6 3b 47 d9 4a bd
       -0.0012372609 0.01808087 0.007029714 -0.049523618
000010 7a 70 3d 3d c5 57 4c bd 1e a1 d4 bd 37 06 3d bd
       0.046249844 -0.04988839 -0.10382293 -0.046148505
000020 a1 2d 2c bd b4 be 01 3c ed cc 3c bc 1c 3e 0b 3d
       -0.042035703 0.007919002 -0.0115234675 0.03399478
000030 42 03 5d 3d dd 59 d7 3d b6 64 66 3b 2f 57 f6 bb
       0.053958185 0.10515187 0.0035155243 -0.0075177173
000040 74 07 cd 3d 7d 73 22 bd 33 40 94 bc 5c 30 a4 bb
       0.10011187 -0.03966092 -0.018097019 -0.0050106477
000050 67 06 80 bc 00 e4 05 3c c8 ba 05 bd 3c 61 5d 3d
       -0.015628053 0.008172035 -0.03264883 0.054047808
000060 05 de e3 3a ec 8c f4 3c c3 29 90 bc 0a da 52 bc
       0.0017384893 0.029852353 -0.017598039 -0.012869367
000070 5c 19 68 bd 70 b2 13 3c 9d 53 8b 3d d6 ce 8c bd
       -0.05666481 0.009014711 0.06803057 -0.06875388
000080 75 ea b4 bd fc 0d ed bc 28 30 49 3d 42 5a 55 bd
       -0.08833782 -0.028937332 0.04911819 -0.05208803
000090 12 20 49 3d 05 b5 8e bb 31 59 af 3c 56 ab 65 3c
       0.04910285 -0.0043550753 0.021404834 0.0140179
0000a0 dc 94 0c bd fd fe 8c bd 54 91 9e bd 42 69 13 bd
       -0.03432165 -0.06884573 -0.07742563 -0.035989054
0000b0 2b 0c ac 3d 12 62 6b 3c b6 6e c1 bd 33 17 32 3c
       0.08400758 0.0143666435 -0.094449446 0.010869789
0000c0 83 e2 e8 3d 11 2f 5e 3d fa a5 e0 3c db 19 5a 3d
       0.11371329 0.054244105 0.027422894 0.053247314
0000d0 bc 80 98 bd 73 2f 64 bd a0 1f 74 3d 0d bb dc 3c
       -0.07446429 -0.055709314 0.059600472 0.026944662
0000e0 55 29 70 bd 16 fc 4d 3c e9 17 1a 3d d9 35 c7 3a
       -0.058633167 0.012572309 0.03762046 0.0015198543
0000f0 ac 92 ec bc 49 97 98 bd 82 5e 8b 3c fc c7 45 3d
       -0.028878532 -0.0745073 0.017012838 0.048286423
000100 61 85 b0 bd 0e d9 20 3c 2b ce c2 bb ee 06 a6 bc
       -0.0861919 0.009817375 -0.0059449873 -0.020266976
000110 a9 ae 75 3d 71 e6 fa 3c 15 1a 94 bd 67 8a 88 3c
       0.059981022 0.030627461 -0.07231537 0.016667558
000120 18 49 8c bc 46 59 94 bb b7 80 ba bc fb 16 03 3c
       -0.017124698 -0.004527244 -0.022766454 0.008001084
000130 34 c4 07 b9 ad 14 6a bd 8e bc b4 3c cd af 25 bd
       -0.00012947695 -0.057148624 0.022062566 -0.04045086
000140 26 ab 85 bd 91 29 82 bc 1f c8 52 bd c2 34 97 bb
       -0.065267846 -0.015888961 -0.05146038 -0.0046144435
000150 d6 7e 60 3d f6 26 4e bc 08 81 64 bc a1 21 0a 3d
       0.05480846 -0.012582531 -0.013946779 0.033723477
000160 b1 29 1b 3d 03 9e 82 3c e6 42 1a 3d 0a 79 02 3d
       0.037881557 0.015944486 0.037661456 0.031853713
000170 5c c5 ec bc 76 d0 fe 3c 89 84 3a bd df 23 36 bc
       -0.028902702 0.031105261 -0.04553655 -0.011116951
000180 5f f2 b2 3c 0e 46 5f bd 7b 8e 56 bc a7 44 e6 3c
       0.021844087 -0.05451017 -0.013095493 0.028108908
000190 46 7a 75 bc 86 46 11 bb da 29 69 3d a8 50 30 bc
       -0.014982766 -0.002216728 0.05692468 -0.010761417
0001a0 05 78 96 bc 47 c9 3d 3d 57 e0 55 3c 4f e9 96 ba
       -0.018367777 0.04633453 0.013053975 -0.0011513623
0001b0 c9 43 c6 3d aa f7 b6 bb d7 68 98 bc ed 4a c3 bc
       0.09680898 -0.005583723 -0.018604679 -0.023839438
0001c0 f1 9d 5a 3c 71 ba 45 3d ec b3 8a bd 82 3a c4 3c
       0.01334332 0.048273508 -0.067725986 0.02395368
0001d0 77 a2 5f 3c 4a fd 4d 3b 1f 81 55 bc 2d 21 ea 3c
       0.0136495745 0.003143149 -0.013031273 0.028580273
0001e0 99 58 64 bc da b6 8c 3d 53 99 f6 bc 5e fd 7a 3c
       -0.013937139 0.06870814 -0.030102408 0.0153191965
0001f0 2d 96 15 3c 8c d2 a0 bc 70 c2 7f 3c 80 58 30 3c
       0.009130043 -0.019631647 0.015610322 0.010763288
000200 4d a5 63 bc e1 9a 89 3c 77 a5 0c bd 7c 1d 26 bd
       -0.013894391 0.016797485 -0.034337487 -0.040555462
000210 73 30 c2 bc 4b 3f 1e bd 08 7c 2e bd c8 5e 99 bc
       -0.023704743 -0.03863458 -0.042598754 -0.018721953
000220 c9 a0 b4 bc 27 b6 4f bc 3a f8 96 3b ea f8 36 bd
       -0.022049325 -0.012677706 0.0046072276 -0.044670977
000230 38 b1 2f bc b2 d0 a2 bc a4 2c 1b bd d9 19 9b bc
       -0.010723405 -0.019874904 -0.03788437 -0.018933224
000240 1a 37 d8 bc 87 bd 6d 3d 9f b2 cd 3c 40 86 0d 3d
       -0.026393462 0.058042075 0.025109587 0.03455186
000250 08 1c da bc c0 61 67 3c 1b ca df 3c f5 a2 03 bc
       -0.026624694 0.0141224265 0.027318051 -0.008034457
000260 8f e9 4e 3d 00 49 ba 3b ed c0 95 39 b8 59 a2 bc
       0.050515708 0.005684972 0.00028563236 -0.019818172
000270 3b 58 55 3c 35 84 65 3b eb 14 bc 3c f9 cc 6c bb
       0.013021524 0.0035021428 0.022959193 -0.0036132915
000280 e3 81 ef 3c be d0 a1 3a 2c 75 64 bd b9 dc 50 3d
       0.02923674 0.0012345535 -0.055775806 0.050991748
000290 5a 03 36 bd f9 57 07 3b e1 2d a1 bc df c9 9c 3d
       -0.04443679 0.00206518 -0.019675197 0.07655691
0002a0 b2 ce 01 3d b0 be a4 3d 84 5a 5a bd 9a 27 e7 bb
       0.03169126 0.08044183 -0.05330898 -0.0070542814
0002b0 49 03 80 3c 7d 90 07 bc ef b6 49 3d 57 b2 f5 3c
       0.015626566 -0.008274195 0.049246725 0.029992266
0002c0 c3 cf 1b bd 08 c6 06 bc 8a 21 2c 3b 8c b9 9e bb
       -0.038039934 -0.008225925 0.0026265108 -0.0048438963
0002d0 cc ae 57 3c 08 4f 22 bd 4d c5 f8 3c 1f d6 22 3d
       0.013164233 -0.03962615 0.030367518 0.039754983
0002e0 9f fa c5 bc d5 23 f4 3b f3 e4 a2 3b d0 15 5f ba
       -0.024167357 0.0074505606 0.0049711405 -0.0008510025
0002f0 1b 69 67 3c e5 66 03 bd 39 d2 e9 3c 88 8a 6c bc
       0.01412418 -0.03208055 0.028542625 -0.014437325
000300 70 3a 4f 3c ab a8 98 bd 2a f5 10 bd 59 a7 0f 3c
       0.01264821 -0.07454046 -0.035390057 0.008767926
000310 09 19 c5 bc be 26 60 bc d8 42 57 3c 86 e5 06 3c
       -0.02405979 -0.013681112 0.013138495 0.008233434
000320 76 59 54 bc 3b f3 cb 3c 8a 04 4e bd e0 37 3b bc
       -0.012960782 0.024896255 -0.050297298 -0.011426896
000330 d7 5d 99 bc de 05 ab 3c 6c 79 27 bd a2 1c 7c bc
       -0.018721504 0.020876821 -0.04088728 -0.015387686
000340 63 4d 17 bd 41 25 1c 3d 0f 0b 67 3d 0c aa 3d bd
       -0.036939036 0.038121466 0.05640703 -0.046304747
000350 9c 78 f2 bb 7f 3d 07 3d f8 8d 0a bd 0f a7 cc 3b
       -0.0073996317 0.03301763 -0.0338268 0.006245501
000360 94 05 38 3d da 11 98 3c 2c bd a2 bc e9 47 cc 38
       0.044927195 0.0185632 -0.019865595 9.740872e-05
000370 7d 51 16 bd f3 6a e1 bc cb 06 3d bd 3e 8b 47 bc
       -0.036698807 -0.027516818 -0.046149056 -0.012179194
000380 6e ac 1d 3d 9e 32 18 3c 96 56 b8 bc cd df c3 3a
       0.03849452 0.009289412 -0.022502225 0.0014944017
000390 b4 6b cf bc 7d 3b d3 bc 99 d7 0c 3d b3 68 91 bd
       -0.025319912 -0.025785202 0.034385297 -0.07100048
0003a0 19 f6 85 bc 2c 72 72 3c 47 27 b7 bc 57 97 33 bd
       -0.0163527 0.0147977285 -0.022357596 -0.0438455
0003b0 a0 97 33 3d c7 a8 03 3c 0c 3b 25 bc 73 8b 0f 3d
       0.043845773 0.008035845 -0.010084879 0.0350451
0003c0 09 af 30 bd 8e b1 1f 3c 50 52 a3 3c 17 9d a4 3c
       -0.043135677 0.009746922 0.01993671 0.020094438
0003d0 09 a4 28 3c f4 5f 2f 3d c5 fa 38 bd b7 97 40 3d
       0.010293015 0.042816117 -0.045161027 0.047019687
0003e0 0c 3e af 3c 76 79 27 bd c9 3f 5e bd 08 00 3f bd
       0.021391891 -0.04088732 -0.05426005 -0.04663089
0003f0 90 8b 53 3c ef 40 9b 3b b9 a1 79 bd 9b ce ea bc
       0.012911692 0.0047379653 -0.060945246 -0.02866297

158 f4 [128, 128]
000000 ee 39 48 3c 8a 24 84 3d a7 de 39 3d 05 72 6f bc
       0.012220843 0.06452282 0.045378353 -0.014614587
000010 e7 ba 94 3c 61 e5 45 bc 90 a0 24 bd 78 4a 78 3c
       0.018155528 -0.012078614 -0.040192187 0.0151544735
000020 65 fb aa bb cb 94 f6 bb 4b ac 03 3d 89 9a f3 3b
       -0.005217957 -0.0075250617 0.032146733 0.0074341935
000030 90 5f 5a 3d 06 ab 3d bc 8b fa c8 3b 18 74 b9 bc
       0.05331379 -0.01157642 0.0061333827 -0.022638366
000040 f9 86 f1 bc cf 91 1e 3d f4 48 e0 bc 45 4f 6b bb
       -0.029483305 0.038713273 -0.027378537 -0.0035905403
000050 e7 78 23 bc 73 ea 2b 3b ac 53 6b 3c a1 04 32 bc
       -0.009977556 0.0026232272 0.014363211 -0.010865361
000060 45 fb d6 bc a2 e4 9f 3c f9 5a cb bd 03 35 1f 3c
       -0.026242862 0.0195182 -0.09929461 0.009717229
000070 b2 ad 96 3c 92 ce 25 3b b9 25 02 b9 34 a8 1e 3d
       0.018393371 0.0025300127 -0.00012411819 0.03873463
000080 14 e8 16 bd 68 5f 2d bd 4c 18 32 3c e8 50 2b bc
       -0.03684242 -0.042327315 0.010870051 -0.010456301
000090 54 fa 13 3d d5 e3 25 bb 11 79 14 bc 2b 7c f7 3c
       0.036127403 -0.00253128 -0.009062068 0.030210575
0000a0 09 7d 12 bd 2f bf dd b9 74 6f 3a 3d 6b c1 09 3a
       -0.035763774 -0.00042294848 0.045516446 0.0005254957
0000b0 b8 d7 18 3d 88 69 48 3a fd 74 16 ba 30 af 1d bd
       0.0373151 0.000764512 -0.00057394785 -0.03849715
0000c0 9f 27 97 bc b4 11 07 3d 89 2c bd 3c 75 85 06 bc
       -0.01845151 0.032975867 0.023092525 -0.00821053
0000d0 32 6a 9b 3c e0 15 7f 3c b4 89 30 3d 43 4e 9e ba
       0.018971536 0.01556918 0.043100074 -0.0012077767
0000e0 9e c8 d9 bc 84 e4 eb bc 13 fb 89 bc 2a 5c e3 bc
       -0.02658492 -0.028795488 -0.016843354 -0.027753908
0000f0 18 3d 96 3c 43 eb ad 3c 2f a8 54 3d 77 6a 0b bc
       0.018339679 0.021230346 0.051918205 -0.00850927
000100 e8 3b 12 3d 2f 61 a5 3d 3a 9f 0f 3d 1a b4 11 3d
       0.035701662 0.08075177 0.03506396 0.03557215
000110 a1 09 95 3b 14 dd 38 3d 61 6f 15 bd 82 65 c5 bc
       0.004548267 0.04513271 -0.036483172 -0.024096254
000120 10 fb 53 3d d9 f0 86 bd 5b 31 f7 bc 6d 66 1d bd
       0.051753104 -0.06588907 -0.030174902 -0.03842776
000130 9e 28 70 bb 16 2e 0f bd 1b 59 a2 3d 56 ea 01 bd
       -0.0036645303 -0.03495606 0.07927152 -0.03171762
000140 01 ec e3 3c b8 10 e7 bc ca fa aa 3c ec 9a 86 3a
       0.027822496 -0.028206214 0.020871539 0.0010269559
000150 5a 72 08 3c c6 df 9c 3b 5d 6f 86 bd e5 f4 41 3d
       0.008328045 0.004787418 -0.065642096 0.04735269
000160 81 18 89 bd f2 72 6e bc 28 ba 67 3c 6b f5 f0 3c
       -0.06694127 -0.014553772 0.014143504 0.0294139
000170 30 1b f1 bb a4 e6 87 3d 16 5f d6 bc a7 47 96 3c
       -0.0073579773 0.06635788 -0.026168387 0.018344713
000180 65 fd 4e bd 9c 16 51 3d e0 93 ad 3c 1d e1 d8 bc
       -0.050534625 0.051046953 0.021188676 -0.02647453
000190 86 48 50 bc f0 3b 19 bd 8f cd 7a bd 86 94 01 bd
       -0.012712603 -0.037410676 -0.061231192 -0.031635784
0001a0 7d 90 1d 3d 1f 5c 22 bd 97 43 40 3c fa b9 aa bc
       0.038467873 -0.039638635 0.011734865 -0.020840634
0001b0 bd b8 99 bc 6c 93 04 3d 47 79 23 bd 10 e8 6d bb
       -0.018764848 0.032367155 -0.03991058 -0.003630165
0001c0 7b 1d 57 3c 0b 34 bb bc c6 f9 9d bc a4 af dc bc
       0.013129587 -0.022851964 -0.01928414 -0.02693922
0001d0 fe 0a 18 bd 23 6e 95 bc 72 ce 2e 3b 98 3b 58 bc
       -0.037119858 -0.018240994 0.0026673344 -0.013197802
0001e0 24 06 16 bb 56 05 ae bc 6d 9a b1 3c e8 ba 9f 3c
       -0.0022891844 -0.021242779 0.021680081 0.019498304
0001f0 33 9a 91 bc 7a 05 3f bd 81 91 4e bd e3 f0 f7 3b
       -0.017773723 -0.046636082 -0.050431732 0.0075665577
000200 95 54 02 bc 23 f4 6a 3c ed 98 14 bd 46 93 6b 3c
       -0.007954736 0.014340433 -0.036278654 0.014378374
000210 0a dc 7b 3d 99 c4 05 3d b7 0f 83 bb a6 eb 50 3c
       0.061489142 0.032658193 -0.003999676 0.012751495
000220 be ca b1 ba 04 0b 17 bd f9 2f 1d 3c 9e ee 8b 3d
       -0.001356445 -0.03687574 0.009593957 0.06832622
000230 89 df 28 3c a7 a8 02 3c d9 c8 ff 3c 69 97 b8 bc
       0.010307201 0.00797478 0.031223701 -0.022533135
000240 43 83 22 3d 8c 6a f5 3a ef 5e 15 bd e4 0a 2f 3c
       0.039675962 0.001872377 -0.03646749 0.010683749
000250 38 62 a1 3c cd d7 1f 3c 80 0e b2 3a e3 fd 03 bd
       0.019700155 0.009756041 0.0013584644 -0.032224547
000260 c5 29 93 3c 2e 06 a2 3c 48 0a c3 3c 67 f6 b4 bc
       0.017964253 0.019778337 0.023808613 -0.02209015
000270 ea fa 78 bd 91 60 74 3d b5 ed 7d bc 0a 9e 67 bc
       -0.060786165 0.059662405 -0.015498568 -0.014136801
000280 e0 15 21 3d b7 c9 44 3c c3 b4 00 3d 3d 82 35 3d
       0.039327502 0.012010983 0.031422388 0.044313658
000290 34 a6 06 bd b5 55 a3 3c 2f 3b 2f bd e0 55 2b 3d
       -0.032873347 0.01993833 -0.04278105 0.041829944
0002a0 b5 b8 d4 bb b8 a9 b3 3c 83 58 2e bd 6c 25 ec 3c
       -0.0064917454 0.021931514 -0.04256488 0.028826438
0002b0 4e 68 c4 3c 74 78 37 bd ea ff ea bb a6 62 b6 3c
       0.023975518 -0.044792607 -0.0071716206 0.022263836
0002c0 95 d6 34 bc 53 c4 4d bc fc 44 ba 3c 09 2a 98 bc
       -0.0110374885 -0.012559014 0.022737972 -0.018574731
0002d0 41 2b 73 bc 05 b8 b2 bc e6 5c 34 3c 3f 33 61 3d
       -0.0148418555 -0.021816263 0.011008477 0.054980513
0002e0 08 e6 02 bd 32 7d 25 bc ac fc dc 3b a0 df f1 3b
       -0.031957656 -0.01010065 0.006743988 0.0073813945
0002f0 25 5a bb bc 1b e7 f8 bc b8 b3 a3 bc ac 01 58 3c
       -0.022870133 -0.030383637 -0.019983158 0.013183992
000300 88 7b a4 3c d2 30 5d bd 60 4f 92 bb 6d 77 d2 3c
       0.020078436 -0.054001637 -0.0044650286 0.025691712
000310 1d 16 88 bc bc 56 f9 3c 92 6c c7 3a 66 54 b7 bc
       -0.016612107 0.030436866 0.0015214852 -0.022379111
000320 d2 4c 23 bd 99 c1 63 3b 48 90 ac 3b 22 f4 c6 bc
       -0.039868183 0.0034752844 0.005266223 -0.024286333
000330 31 89 35 3d a5 79 d9 bb ca 23 1f 3d 36 5e f1 bc
       0.04432029 -0.0066368156 0.03885249 -0.029463869
000340 75 7c 1f 3d 1e ce 58 3d 54 d5 32 3b 05 10 c7 3c
       0.03893705 0.052930944 0.0027287798 0.02429963
000350 54 8f 1f bd 3d 10 c5 bc 44 9e 25 3a 86 bf 84 bc
       -0.038955048 -0.024055595 0.0006317834 -0.016204607
000360 5f 5e 78 3d 45 ed 17 3a d7 5b 8a bd 46 bc b6 3b
       0.060636874 0.0005795549 -0.06755798 0.005576643
000370 99 ce 22 3d 58 5a 3f 3c 48 7c 3e bd 93 f3 1d bc
       0.039747808 0.0116792545 -0.046505243 -0.009640592
000380 04 0a 72 bc a6 9b 76 3c 79 4b 80 3c 49 5c 01 3d
       -0.014772896 0.015051758 0.015660988 0.03158215
000390 40 27 56 bc 34 62 20 3d e1 0a 89 3c e8 5e 73 3d
       -0.013070881 0.039156154 0.01672882 0.05941668
0003a0 5c ed 64 3c 7b d0 fb 3c 81 73 49 bd 93 9e d5 3c
       0.0139726065 0.03073906 -0.04918242 0.02607659
0003b0 7f 84 bc bc 25 f2 be 3c f8 5a 12 3d fc a0 bb bc
       -0.023012398 0.023308823 0.035731286 -0.022903912
0003c0 37 99 03 bd 19 91 8c bc 01 8b f3 bc b3 2b 94 3d
       -0.03212854 -0.017159032 -0.029729368 0.072348975
0003d0 a8 3e 02 3d b9 f1 d1 bb 4f d8 91 bd 7f 49 5e bd
       0.031798035 -0.0064069894 -0.07121336 -0.05426931
0003e0 d6 9b 02 bd 61 15 07 bc 1e 91 4b bc ac 1c a3 bc
       -0.031886898 -0.008244843 -0.012424735 -0.019911133
0003f0 45 fd 19 bd 44 e6 44 3c a8 e7 08 3d 05 26 09 bd
       -0.037595052 0.01201779 0.03342405 -0.033483524

159 f4 [128, 128]
000000 64 2c 71 3d 00 83 c8 bc 6c ca a1 3d 20 07 c6 3c
       0.058880225 -0.024476528 0.07899937 0.02417332
000010 d3 05 6f 3d 51 18 56 3d a3 a6 9c 3c 7e f9 3b bd
       0.058355164 0.052269284 0.019122427 -0.04589223
000020 2f 65 d0 3c 3e 9b a8 3b 4d 0d 87 3d 37 d7 10 3d
       0.025438873 0.0051454594 0.06594334 0.035361495
000030 ef dc 02 3d 9d 9d a1 bd be 5b c2 bd 0d 53 42 3c
       0.03194898 -0.078913905 -0.09490155 0.011860621
000040 18 3c 32 bd ec 9f 69 3c c7 1e 70 3d 5e 85 a6 3b
       -0.04351434 0.01425932 0.0586231 0.0050818166
000050 72 27 0a 3d 6b 52 01 bc 53 ca 2a bd 86 89 8b 3c
       0.033729024 -0.007893185 -0.041696858 0.01703335
000060 73 a6 99 3a 5b 11 1f 3d 32 b8 3f bc 80 c4 96 3d
       0.0011722579 0.03883491 -0.01170163 0.07361698
000070 53 5d 36 3d 87 f7 a2 3a ee 5c 98 3d 04 c8 27 bd
       0.044522595 0.0012433388 0.074396 -0.040962234
000080 2e ea 38 3d 35 3b 86 bd c3 51 90 ba 07 49 10 bd
       0.045145206 -0.065542616 -0.0011010695 -0.035225894
000090 d0 2d 07 bc c2 cf 95 bc 5c c0 d7 bc 18 19 b6 bd
       -0.008250669 -0.018287543 -0.026336841 -0.08891505
0000a0 20 68 35 bd 9e 07 b8 bc 0b 93 66 bc d3 22 25 3d
       -0.044288754 -0.02246457 -0.014073144 0.040316414
0000b0 e0 ad a4 3c e2 7a 86 bd 33 4f 57 bd 67 f8 a4 3c
       0.020102441 -0.06566407 -0.052565765 0.020137979
0000c0 ea b8 67 bb 8b 41 3f 3d b6 eb b5 bd c2 b7 38 3d
       -0.003535802 0.046693366 -0.08882849 0.04509712
0000d0 9a 81 29 bd fe e7 19 bc 79 12 82 3d d5 39 fc 3b
       -0.041383363 -0.00939369 0.0635118 0.007697324
0000e0 07 b0 79 bd 32 e1 14 3d 12 6e 4b 3c 9c 61 be 3c
       -0.06095889 0.036347575 0.0124163795 0.023239903
0000f0 03 24 d7 bc 39 9a 77 bd b5 e4 9f bc 75 c5 06 39
       -0.026262289 -0.060449813 -0.019518236 0.00012852794
000100 7d 80 4f 3d cd c9 52 3d b1 4f ff 3b 93 3a 53 bc
       0.050659645 0.051461983 0.0077914824 -0.012892383
000110 cb c1 fb 3c 97 0c 87 bc 51 9d 41 bd 0b 9d d3 3b
       0.030732056 -0.016485495 -0.04726917 0.00645793
000120 1a dc 6d bd 0b 4e a3 3d bb e0 fa bc 5b 9b 80 bc
       -0.058071233 0.0797387 -0.030624738 -0.01569908
000130 dc d5 d7 bc d7 67 7e bd f4 10 54 bd 70 92 09 3d
       -0.026347093 -0.06211075 -0.05177398 0.03358692
000140 65 30 9a bb 68 2e 23 3d 2b 52 55 3d 1d da a6 3d
       -0.004705476 0.03983918 0.052080315 0.081470706
000150 c3 79 80 bd 0a 58 3b 3a f1 85 43 bd 95 f9 20 bd
       -0.06273224 0.0007146603 -0.04773516 -0.03930052
000160 18 af 5e bb db b8 91 3c 3b e8 ab 3d a4 62 1e bc
       -0.0033978876 0.017788341 0.08393904 -0.009667072
000170 54 13 59 bc 27 02 94 3d 18 18 29 bd b6 fd 00 3d
       -0.013249237 0.07226973 -0.041282743 0.031491958
000180 6e fc af 3a 2e 7a 94 3c 8a 45 d8 3b 39 a3 54 3d
       0.001342667 0.018124666 0.0066000866 0.051913474
000190 50 ce 8e bd 25 91 83 3d 33 f0 27 3b 55 6c 37 3d
       -0.06972945 0.064241685 0.0025625348 0.044781048
0001a0 43 aa e0 3b 47 2b 83 3c 2f 6b 44 3d 60 ec f7 bc
       0.0068562343 0.016011847 0.04795378 -0.03026408
0001b0 7e c1 6e bd 07 2e 34 3d 78 bc 0c 3d 30 23 8b bd
       -0.058289997 0.043989208 0.034359425 -0.06793821
0001c0 17 6c 38 3d 13 42 1b bc 84 8b a5 3d 8b 71 59 bd
       0.045024958 -0.009476203 0.08083251 -0.0530868
0001d0 6a e5 00 bd 98 3b 14 bd dd 74 f0 3c 39 47 84 bd
       -0.031468786 -0.036189646 0.0293526 -0.06458897
0001e0 28 57 71 bd 35 6a 23 bd 19 5e fa bd ff d1 45 bd
       -0.05892101 -0.03989621 -0.12224979 -0.04829597
0001f0 44 52 36 3d 22 75 43 3d 8a f6 4f 3d 1c 7b 93 3d
       0.04451205 0.04771913 0.050772227 0.072012156
000200 9e 27 d9 bc ad ac 61 3c b5 43 56 bd de b2 87 bc
       -0.026508149 0.013774079 -0.052310664 -0.016564783
000210 fb f3 52 bb 79 74 28 bd 59 9d e0 3c 56 f1 09 3d
       -0.003218888 -0.041126702 0.02741878 0.03367742
000220 66 9d 2e bb eb 10 25 ba 9a c6 40 bd 44 0c 01 3b
       -0.002664411 -0.00062967715 -0.0470644 0.0019691149
000230 65 d8 4f 3b 43 f8 99 bc e7 40 c3 bc 7d 01 f6 bc
       0.0031714675 -0.018795138 -0.023834659 -0.030030007
000240 be b5 50 3c df 9c c7 bb 86 19 d0 bb b3 5c dc b8
       0.012738643 -0.0060916985 -0.006350699 -0.00010507684
000250 64 a2 72 3b e6 fc 40 ba ae 66 04 bb c5 2f 04 bd
       0.0037023062 -0.00073619036 -0.0020202803 -0.03227212
000260 82 bb 08 bd 5e df 36 bd 3e 2c 57 bd bd 65 a7 bc
       -0.033381946 -0.044646613 -0.052532427 -0.020434255
000270 bb 19 2e bc dd 91 32 3d ed 95 3f bd 67 b9 11 bc
       -0.010626252 0.043596137 -0.04677384 -0.008894301
000280 18 ec ba bd 0c 16 1d 3c eb a3 ec bc 1b ff 20 3d
       -0.091270626 0.009587776 -0.028886756 0.039305788
000290 7d 3b ac 3a 69 c4 43 3c 70 84 bf 3c c9 d5 ea 3c
       0.0013140287 0.011948683 0.02337858 0.028666394
0002a0 0b 3b 90 3c 57 c5 54 bc 03 43 00 bd 81 33 c9 bb
       0.017606279 -0.012986503 -0.031313907 -0.006140173
0002b0 3d d5 aa bb da 8c 39 3d e8 e3 3f 3d 99 31 5f bd
       -0.0052134083 0.045300342 0.046848208 -0.05449066
0002c0 c1 b6 55 3d 86 ff a2 bc 8f c1 84 3d 46 7a a9 bc
       0.05217624 -0.019897234 0.06482231 -0.020688187
0002d0 76 c1 e7 bc bb 4a 8c bc aa 15 59 bd b4 e7 b1 bb
       -0.028290492 -0.017125478 -0.052999176 -0.0054292325
0002e0 8e 3d 7d 3d 17 c1 7d bd e9 2f d7 bc 4b f1 26 3c
       0.06182628 -0.061951723 -0.026267963 0.010189365
0002f0 9d 70 04 bc 4f 70 df 3b ec 5e 2f 3d c3 4b 28 3d
       -0.00808349 0.006818808 0.042815134 0.041087877
000300 7d 56 ad bc 89 63 f9 3c f9 bb 38 bd 23 50 01 3d
       -0.021159405 0.03044297 -0.04510114 0.031570565
000310 4e 73 07 bc 5e b5 84 3d 85 2b ce 3d 64 15 e9 bc
       -0.008267237 0.064799055 0.100668944 -0.028452583
000320 82 57 f8 3c 07 22 54 bc 69 b5 04 bc 45 ec a1 3c
       0.030315164 -0.012947566 -0.008099892 0.019765982
000330 43 e0 a7 ba 9a 4b 85 3c 14 09 2f bd 05 52 97 3c
       -0.0012807924 0.016271401 -0.042733267 0.018471727
000340 a1 37 36 39 f6 85 db bc 0f f1 ea bb 8c 07 13 3d
       0.00017377596 -0.026797276 -0.0071698497 0.03589587
000350 1a 18 80 3d 9e 54 8e 3d 9e 8d bd 3c 9b 3d 36 bd
       0.06254597 0.06949733 0.023138817 -0.044492345
000360 ed 29 47 bd 88 f2 88 bd b7 4c c8 3a c9 6c b1 bb
       -0.048623968 -0.06686884 0.0015281652 -0.0054145795
000370 57 c3 9b 3d da 0e 49 3b bc bc 68 3b c7 c3 ea 3c
       0.076056175 0.0030679018 0.0035512885 0.028657807
000380 76 85 66 bc f1 d0 90 bc d1 b2 07 bc 8d e6 58 bb
       -0.0140699055 -0.017677756 -0.008282379 -0.0033096403
000390 85 83 86 bc 8e 9c 6a bd 95 2c f8 3c 4b e2 1b bc
       -0.016420135 -0.05727821 0.030294696 -0.009514402
0003a0 19 29 be bc ed 13 2f 3d ef 95 f5 bc 6b 4c 5b 3c
       -0.023212956 0.042743612 -0.02997872 0.013384919
0003b0 25 43 78 bc 9f be 37 bc 52 09 24 3c b8 73 87 3d
       -0.015152727 -0.011214881 0.010011988 0.066138685
0003c0 37 cf 98 bb 1c f3 1a bd 70 b3 11 bc b4 0a ce 3c
       -0.004663374 -0.037829503 -0.008892879 0.025151588
0003d0 88 70 77 3b 3a 23 27 3d 4c 65 3d bc 85 e8 c2 3d
       0.0037756283 0.04080508 -0.011559796 0.09517006
0003e0 cf 29 57 3d d3 37 82 3d ff 21 d1 3b 81 aa db 3c
       0.052530106 0.06358304 0.0063822265 0.026814701
0003f0 a6 8b 12 3d 97 d7 9a 3c c8 78 04 bd 1e ef 5d bc
       0.03577771 0.01890163 -0.03234175 -0.0135457795

160 f4 [128, 128]
000000 bc ec 2c bd 06 86 8d bd 0e 3f 98 b7 48 88 1f 3b
       -0.042217955 -0.069103286 -1.8149174e-05 0.0024342705
000010 cb d7 24 bd 64 da 2e bd 81 19 12 3d ba ef 84 3d
       -0.04024486 -0.042688742 0.035668854 0.06491037
000020 62 f0 9d bc f2 1f f6 3c 75 c3 2b bc b4 a5 50 3c
       -0.019279663 0.03004453 -0.010483612 0.012734819
000030 1f d3 ac 3d 4d 61 ff bc 40 52 c9 3c 88 b3 0b 3d
       0.08438706 -0.031174326 0.024575353 0.03410676
000040 9e d6 a4 3c c6 b2 67 bd 3f 9f c8 ba a8 d4 ef 3b
       0.020121869 -0.056566976 -0.0015306248 0.007319052
000050 c2 da b9 bd 49 fb 87 bd 63 77 d2 3c e9 bb 4a bc
       -0.09074928 -0.06639726 0.025691694 -0.012373903
000060 23 34 82 3d a8 66 1e 3d 36 9c d6 3c f2 14 4f 3d
       0.063576005 0.03867212 0.026197534 0.050557084
000070 13 c0 88 3d 59 f6 0b bd 05 04 20 3c 8a bf 46 3c
       0.0667726 -0.034170482 0.009766583 0.012130627
000080 51 1d 43 3d 6c 8d 72 bd 96 40 95 3c e1 98 e5 bc
       0.04763538 -0.0592169 0.018219274 -0.028027
000090 07 ae 58 bd d7 3d 50 3d 42 9c 2f 3d 55 6f 58 3d
       -0.05290034 0.050840225 0.04287363 0.05284055
0000a0 2c bc e9 bc 82 e7 08 3d 5a 28 3c bc f1 a8 79 3a
       -0.02853211 0.033423908 -0.01148423 0.00095237704
0000b0 b0 70 b2 3c c1 e2 3b 3d 33 04 66 bc 12 e6 17 3d
       0.02178225 0.045870546 -0.014039087 0.037084647
0000c0 0c b4 2d bd 2e 27 27 3b ec 41 59 3c 06 20 4c 3c
       -0.042408034 0.002550553 0.013260346 0.012458807
0000d0 aa fe b2 bc 9f 2f 6d 3c 73 81 bd 3d 35 72 c3 3c
       -0.021849949 0.014476686 0.09253206 0.02385817
0000e0 6e 85 38 3d ec a7 e2 3c b1 b9 98 3c 32 74 f5 3c
       0.045049123 0.027667962 0.018643232 0.029962633
0000f0 f4 10 81 3c fd 4c 38 3d 4a 65 f9 3d c5 6a c6 3b
       0.015755154 0.044995297 0.121775225 0.0060552084
000100 80 94 58 3d e7 8c e7 bc ad 6a bc bc 88 b7 6f bd
       0.052875996 -0.02826543 -0.023000086 -0.05852464
000110 85 46 c2 3c 68 5a 0a 3d 1c 04 91 bc 3c 7c 3b bd
       0.023715267 0.033777624 -0.017702155 -0.045772776
000120 30 4f 48 3c 58 8e 13 bd 1b ee 37 3b 1c 19 32 bb
       0.012225911 -0.03602442 0.0028065506 -0.002717561
000130 c4 77 6e bc 64 b6 97 3d e6 47 19 bd 1a 83 ff 3c
       -0.014554922 0.07407835 -0.037422083 0.031190444
000140 05 d6 0e bd 7f f0 2e 3d 74 e5 01 be b3 d7 ba bc
       -0.034872074 0.042709824 -0.12685186 -0.022807932
000150 b2 25 30 3d 0c 62 2d bd 0b 00 c7 3c d8 65 6a 3c
       0.0430047 -0.042329833 0.024292013 0.014306508
000160 c7 d9 1d 3d a6 70 62 3c 46 f1 85 3b e9 df 60 bc
       0.038537767 0.013820803 0.0040876 -0.013725259
000170 5d fc 15 bd 0a ad dd bc 46 45 c5 3c 57 8d 40 bd
       -0.036617626 -0.02706005 0.024080884 -0.047009792
000180 db 4b 1c 3d 2f 42 1a bd 7f 65 d3 3c f2 ce ae 3d
       0.03815828 -0.037660774 0.025805233 0.085355654
000190 aa 2f 40 bd b0 a2 2d bd f3 25 5c 3d 63 59 31 bc
       -0.046920456 -0.04239148 0.05374713 -0.010824534
0001a0 3e 5b c3 bc cf 89 dc 3c 6d 27 91 3c fa ad 4a 3b
       -0.023847219 0.026921181 0.017718995 0.0030926452
0001b0 be 23 57 3d 69 91 a8 bc 70 4f 1f 3d 8e 76 df ba
       0.05252432 -0.02057715 0.038894117 -0.0017048882
0001c0 38 e4 64 bd 51 52 2d 3d 83 f7 c4 3b 92 d2 01 bd
       -0.05588171 0.04231483 0.006010951 -0.031694956
0001d0 84 5d 27 bc 8c 91 5d 3d cf ec a8 bc 08 9c f4 3b
       -0.010215167 0.054093882 -0.020620732 0.0074648894
0001e0 12 70 c9 3c 89 12 35 3d da 26 86 3c e5 bd aa 3c
       0.024589572 0.04420713 0.016375948 0.020842502
0001f0 fc 55 0b bc b0 c5 61 bc 3b bf b4 bb 0a e7 b8 bc
       -0.008504387 -0.0137800425 -0.0055159605 -0.022571106
000200 34 4f 52 bd 7f c0 fe 3a dc 22 49 3d ae b4 ed 3c
       -0.051345065 0.001943603 0.04910551 0.029016819
000210 8a a2 2e 3d 38 cb 30 3d ad bb ba bc d2 df 19 bd
       0.042635478 0.043162555 -0.022794569 -0.037566967
000220 ca ff 97 3a 08 07 cd b8 96 06 67 bd 3e 5a 35 3b
       0.0011596617 -9.7764714e-05 -0.056402765 0.0027672197
000230 a4 d5 31 bd 60 87 79 bc a1 34 b9 b9 94 fd 30 3b
       -0.043416634 -0.01523003 -0.0003532516 0.0027006613
000240 dc e4 fb bb 12 69 85 3d 70 58 85 bb 28 79 5f bc
       -0.0076871943 0.06514181 -0.0040693805 -0.013639726
000250 80 82 60 3d b7 34 c9 3c dc ed 1d bd 6f d6 f5 bc
       0.054811954 0.02456127 -0.03855692 -0.030009476
000260 d4 b2 5a 3d 19 5e 6b 3c a9 99 c7 bd 2f a1 27 3d
       0.0533932 0.014365696 -0.09746105 0.0409252
000270 e0 fd 10 3c 5b 47 83 3d e9 97 32 bd 4c 55 03 bc
       0.008849591 0.06410094 -0.043601904 -0.008015942
000280 da 3e 46 bd 4e a1 1d 3d 9e 25 c1 3a 29 aa 1b 3d
       -0.048399784 0.03848391 0.0014735942 0.038004074
000290 76 3d a9 bc 70 c9 c2 bc 09 ae b7 bb f1 6c c4 3b
       -0.02065919 -0.023777694 -0.0056054634 0.005994432
0002a0 42 e5 8e 3b 6b c1 1c bd 9e e8 a1 3c 25 b6 86 bd
       0.0043608258 -0.038270395 0.01976424 -0.0657771
0002b0 9f ca 04 bd 3a e2 c0 3c 8a f0 16 bd 34 40 1b bc
       -0.032419797 0.023545373 -0.03685049 -0.009475756
0002c0 7f 9d 83 3d 24 77 36 3c dd d7 d5 bc c2 8a 6d bd
       0.06426524 0.011136804 -0.026103908 -0.057993658
0002d0 38 9f 59 bc 35 85 ab 3a d3 00 17 bd a3 db 46 bd
       -0.01328259 0.0013085963 -0.03686602 -0.048549306
0002e0 44 e0 a7 bb ac 47 e3 3c 3d 17 6f 3d 95 2f b6 3d
       -0.00512317 0.027744137 0.05837177 0.08895794
0002f0 15 3b 13 bd 66 6d 8d 3c 35 0e c6 bc cf 74 c7 bd
       -0.035945017 0.01726408 -0.024176696 -0.09739076
000300 ed d0 bd ba 71 90 26 bc 9b 29 3c 3c 08 27 9e 3b
       -0.001448182 -0.010166273 0.011484529 0.00482643
000310 21 69 17 bd 52 14 84 bd 7d 8d bf 3c 18 52 80 3d
       -0.036965493 -0.06449188 0.023382897 0.06265658
000320 bc 64 0e bd c1 7a 84 3c 44 9f 08 bc 1a af 00 3d
       -0.034764037 0.016171815 -0.008338753 0.03141699
000330 04 8a 16 bd c9 3b d5 bc c6 b1 f1 3b ef e5 4e bd
       -0.036752716 -0.026029484 0.0073759286 -0.05051225
000340 31 c2 63 3c 0e 39 48 bb 5b f9 ca 3c 25 ba 4e 3d
       0.013901279 -0.0030551585 0.024777105 0.05047049
000350 64 00 37 bd c9 16 86 3d 00 bd b7 bb de 98 7d bd
       -0.044678107 0.06547315 -0.0056072474 -0.061913364
000360 92 23 a7 3c 2c 8a 39 3d 85 c7 23 bb 52 6f 04 bd
       0.020402703 0.045297787 -0.002499075 -0.032332726
000370 0d 05 06 bc 63 1b 6e bc 87 07 c6 3d d5 12 35 3d
       -0.008179915 -0.014532897 0.096694045 0.044207413
000380 ef a0 83 bb 89 ce 42 3d a5 aa 2b 3b 47 09 88 bd
       -0.0040169875 0.04756025 0.0026194241 -0.066423945
000390 e8 41 3c 3d 4b 44 50 3d 4e 96 53 bd 84 62 c0 bc
       0.04596129 0.05084638 -0.051657014 -0.023484476
0003a0 50 bf 3a bd 1d 2c 22 bb f6 41 85 bd 0e 65 0d bd
       -0.045592606 -0.0024745532 -0.06506722 -0.0345202
0003b0 1f c1 aa bc 8f fb 42 3d d5 6c 28 bd fd da 4e bd
       -0.02084404 0.047603186 -0.041119415 -0.050501812
0003c0 5a ca 01 3d fd 7e 8c 3b 66 e3 7b 3b 7d fe af 3d
       0.031687118 0.004287599 0.00384351 0.08593462
0003d0 1d 46 5a 3d 61 78 2d 3b 3c 0c c0 bc de 25 a8 3d
       0.05328952 0.0026469456 -0.023443334 0.082103476
0003e0 31 59 fa bc 1a 11 bb bc c0 f1 1d 3c 92 33 83 bc
       -0.030560108 -0.022835303 0.009640157 -0.016015802
0003f0 71 5c 66 bd e8 3e 3c bc 9c ca fc bc 7c a2 db 3d
       -0.056240503 -0.011489607 -0.03085833 0.10724351

action_model._continuous_distribution.mu.weight f4 [1, 128]
000000 1c b6 7f 3c 8d f7 08 3d 84 24 f7 3c a9 f1 20 3d
       0.015607383 0.033439208 0.03016878 0.039292965
000010 84 fe f6 3c 70 2e 89 3b 4e 9b f5 bc 4f 1d 61 bc
       0.03015066 0.004186444 -0.029981282 -0.013739898
000020 1d 7e d6 bb 42 c9 8c 3c 05 46 6b 3c 9d 71 dc bc
       -0.0065457956 0.017185811 0.014359956 -0.026909644
000030 ae 40 4c bd 49 69 2b bc 38 85 a6 bc c1 a8 6f bc
       -0.04986637 -0.010462114 -0.020327196 -0.014627636
000040 76 40 87 3d 0c 36 08 3c b5 eb b2 bb 16 f3 0a bc
       0.06604092 0.008313667 -0.0054602274 -0.008480808
000050 d5 20 e5 bb c9 9d e8 3a ac f4 21 3c d5 bd 57 3d
       -0.0069924393 0.0017747219 0.0098849945 0.052671272
000060 90 32 8d 3d ee d3 15 3d 96 75 0a 3d 41 10 3a bd
       0.0689441 0.036579065 0.033803545 -0.045425657
000070 91 a8 23 3d 18 75 1d 3d 12 d8 ae 3c 33 61 95 3c
       0.03995568 0.038441747 0.021343265 0.018234825
000080 c2 c2 0b 3c 83 69 04 3d 49 a2 82 bd 55 c8 3e ba
       0.008530321 0.032327186 -0.0637861 -0.00072777766
000090 3c f7 b9 3c 38 10 b7 3c 73 84 f0 bc d5 8a 14 bd
       0.022700898 0.0223466 -0.029360032 -0.036265213
0000a0 38 d7 d0 bb 6e 25 7b bc 01 96 c0 3b fe 74 91 bb
       -0.0063733123 -0.015328748 0.005877257 -0.0044389954
0000b0 81 ee 00 bd 24 f9 ab bb ff 8b 23 3d 54 d6 d4 bc
       -0.031477455 -0.0052482057 0.039928433 -0.025981106
0000c0 df 5c 0c bd ff 5c b9 bc cb 89 24 3d 45 98 e9 bc
       -0.034268256 -0.022627352 0.040170472 -0.02851499
0000d0 73 19 ff 3c ae 9f 34 bd 4b e7 80 3c 5d 94 a0 bc
       0.031140065 -0.044097595 0.01573529 -0.019601995
0000e0 32 6a dc 3c f2 22 16 bb 70 3b 1d bd 56 b6 29 3d
       0.026906107 -0.0022909013 -0.038386762 0.041433655
0000f0 0e 44 fc b9 e7 8d 15 bd 11 93 53 3c 35 3d 99 3b
       -0.0004811589 -0.03651228 0.012913481 0.004676486
000100 3c 54 0d bd 99 f9 22 bc 79 b6 fe bc b6 30 52 3c
       -0.03450416 -0.009947204 -0.03109287 0.012828996
000110 2a 48 c9 bc a5 28 28 3d a3 29 1f 3c 1b 43 b1 bc
       -0.024570543 0.041054387 0.009714517 -0.021638444
000120 a0 d3 e3 bc d5 9a 65 3c 68 a5 2e 3d 80 36 ef bc
       -0.027810872 0.014013966 0.042638212 -0.029200792
000130 0e 81 a4 bc 11 10 b2 3c 58 ea 2b 3c eb 3c ac bc
       -0.02008107 0.021736177 0.010492884 -0.021025142
000140 0d 4a 01 bd 13 0a 11 bc b4 72 cf bc 3f ac 52 3b
       -0.03156476 -0.0088525 -0.02532325 0.0032146124
000150 c7 04 91 bc ce 97 bd 3c 35 c1 ec 3c d3 d3 34 bd
       -0.017702473 0.023143675 0.028900722 -0.044147324
000160 65 19 51 bc 19 fd 0a bd 17 4f 84 bc 7e ee 9c 3c
       -0.012762402 -0.03393278 -0.016150994 0.01915669
000170 03 a5 21 bd 43 40 05 bd e1 78 23 3b 84 2d c5 bc
       -0.039464008 -0.032531988 0.0024943876 -0.024069555
000180 38 98 7f ba 34 36 78 3c 58 a8 0e bb b4 6f 67 bc
       -0.00097501604 0.015149642 -0.002176782 -0.014125753
000190 24 c2 30 3d bd 05 a1 3c f5 c3 04 3d 83 5b be bc
       0.043153897 0.019656057 0.03241344 -0.023236996
0001a0 40 bf 5d 3c e2 d9 12 3d 65 de 1f 3d a9 5b dc bc
       0.013534367 0.03585232 0.03903045 -0.026899176
0001b0 ef 92 10 3d d5 5c 9d 3b 9d 6e ab 3b f0 04 9d bc
       0.035296377 0.004802326 0.005231692 -0.019167393
0001c0 72 a4 80 3c 57 53 0d 3c 01 e8 85 bc 2b 9b 06 3b
       0.015703414 0.008625827 -0.01634598 0.0020539265
0001d0 7e f3 17 bd 81 0f 92 bc 23 e8 fc bc 48 a8 de bc
       -0.037097447 -0.017829658 -0.03087241 -0.027179852
0001e0 78 2c c4 bb 31 0a 1a bd 9e 24 a9 3c 39 ec 88 3b
       -0.0059867464 -0.037607376 0.020647343 0.0041785506
0001f0 24 d4 08 3c b4 9e b4 3c eb 50 2c bd 5a e4 1e bc
       0.0083513595 0.022048332 -0.042069357 -0.009697998

network_body._body_endoder.seq_layers.0.bias f4 [128]
000000 57 7d 50 bc 2c fd 02 bc c1 5f 25 bc 96 e1 45 3c
       -0.012725196 -0.007994931 -0.01009363 0.01207771
000010 ef 68 54 3c f8 84 88 3b 82 84 1d 3c 33 56 02 3b
       0.012964471 0.0041662417 0.009614112 0.0019887805
000020 92 bb dd bb 02 36 80 3a b9 24 e1 3b fd 8d f9 3b
       -0.006766745 0.0009781721 0.0068708328 0.0076158033
000030 ac 13 3d 3b 30 6b fd 3b 61 c2 c8 3a ce 50 9c 39
       0.0028850837 0.007733725 0.0015316718 0.00029814843
000040 42 d0 a9 3b 6e b8 14 3c e3 8b 86 3b bf 97 e2 3a
       0.005182297 0.009077175 0.0041060313 0.0017287656
000050 9d af 65 3b 8b db a6 bb b3 1d b2 bb ed de 14 bc
       0.00350473 -0.0050920895 -0.0054356693 -0.009086353
000060 80 9d c8 3b 02 1a b8 bb 2f 82 70 3b 47 f8 48 3a
       0.006122291 -0.0056183347 0.003669869 0.0007666391
000070 9f 7b 3d 3c 93 db d3 bb f8 1c d7 ba 95 7c 68 3b
       0.011565118 -0.0064653843 -0.0016411832 0.0035474647
000080 2c b5 f7 3a 82 75 f0 3b 7c e9 0b 3c 93 65 eb 3b
       0.0018898598 0.007338227 0.008539554 0.0071837394
000090 a7 01 3c bb a5 48 66 3a b8 2e 2a 3c f1 b3 25 3c
       -0.0028687508 0.00087846286 0.010387115 0.010113702
0000a0 e7 d5 28 bb 1f 64 e3 3b e3 9b 35 3c c3 ed b7 bb
       -0.0025762261 0.0069394256 0.01108453 -0.00561306
0000b0 bc a7 59 3b 87 32 44 3b fc d1 df b9 4f 78 1b 3c
       0.003321155 0.0029937343 -0.00042690325 0.009489133
0000c0 b2 16 b5 3b bd 2b c7 bb e6 48 16 3c cb 3d 04 3c
       0.005526387 -0.006078212 0.009172654 0.008071373
0000d0 50 9e 6a b9 48 6a c0 bb 66 96 3e bc 5a cf 4f bb
       -0.00022374955 -0.0058720447 -0.0116325375 -0.0031709285
0000e0 8a 53 5a 3b 6e 52 b3 bb 55 a3 9c 3b 5b b8 10 3b
       0.0033313953 -0.005472473 0.004780213 0.002208254
0000f0 33 9d 86 3c 0c b9 b9 bb 8b 9c 13 3b cd 47 7f 3b
       0.01643238 -0.0056678113 0.0022523727 0.0038952709
000100 b0 87 0f ba ed dc 0e 3c 3a 98 79 bb 1f d3 73 3b
       -0.0005475236 0.008719665 -0.003808512 0.0037204695
000110 00 ca fb ba 48 16 3e 3c c4 5a ed ba a3 ec 8a 3a
       -0.0019209981 0.011601992 -0.0018108715 0.0010599088
000120 b5 86 28 3c 08 21 d9 bb e9 b3 78 3c f3 d3 09 bb
       0.010286023 -0.006626252 0.015179613 -0.0021030873
000130 13 c8 62 bb 8f a3 df 3a f1 3d 83 3a 7d 7f 65 bc
       -0.0034604117 0.0017062294 0.0010012967 -0.014007446
000140 ce 55 6c 3a 90 fc 25 3c b3 c3 48 bc 15 6b bc 3b
       0.00090154714 0.010131016 -0.01225369 0.00575007
000150 2a 26 29 3b 61 f3 c8 3b cc fa 25 bb 5c 0f b1 3b
       0.00258101 0.0061325287 -0.0025326489 0.0054034423
000160 ce f4 ce 3c 44 42 50 3b aa 12 1e 3a 2c ab fa bb
       0.025263216 0.0031777779 0.0006030003 -0.0076498
000170 44 41 04 ba dd 37 94 ba 0f d0 ad 3c 40 8e 3d 3b
       -0.0005045126 -0.0011308152 0.021217374 0.00289239
000180 1c 23 26 3b 12 56 7b 3b bb d4 41 3b 7b 68 3c ba
       0.0025350517 0.0038350862 0.002957626 -0.00071871997
000190 58 f4 a3 3b 39 37 ab 3b 1f c5 0f 39 0d 21 97 bb
       0.0050034933 0.005225089 0.00013710976 -0.0046120943
0001a0 df 87 19 3c 89 95 35 3b a5 8b 42 3c cc 1c c2 3c
       0.009370773 0.0027707538 0.011874114 0.023695372
0001b0 ea 9e 15 bc 20 13 79 3c 96 80 f6 3b 34 19 75 3c
       -0.009132126 0.015202314 0.007522653 0.014959622
0001c0 e0 86 49 3b e3 50 1b 38 ce bc e4 ba 03 92 6f bb
       0.0030750558 3.703021e-05 -0.0017451288 -0.0036555536
0001d0 38 15 9c 3b f4 f8 d3 ba 86 be 8a ba d5 de 4e bb
       0.0047632717 -0.0016172216 -0.0010585345 -0.0031565924
0001e0 a6 60 28 3c dd b2 a6 3a d6 4f f0 3b cb 75 09 3c
       0.010276949 0.00127181 0.007333736 0.0083899
0001f0 cc 2b 91 3b 8f c2 11 3b a1 2e 57 3b 0f 7c bd 3b
       0.00443027 0.002224121 0.003283419 0.005782611

network_body._body_endoder.seq_layers.0.weight f4 [128, 131]
000000 07 a0 e2 3c 0d ae d1 3b 88 2b 40 3d 7e ab 02 bd
       0.027664198 0.0063989223 0.046916515 -0.03190183
000010 b1 e0 d1 bd a9 56 a9 3c c6 60 9a bd 07 46 ce 3d
       -0.102479346 0.020671206 -0.07537989 0.100719504
000020 f2 10 67 bd d5 b9 b5 bd fe 7d 03 3e f1 ce 0e 3d
       -0.056412645 -0.08873335 0.12841031 0.034865323
000030 c7 1a 5a 3d be 2f dc 3d 87 06 86 3c 21 dc 55 ba
       0.053248193 0.107512936 0.016360534 -0.0008158107
000040 a8 b7 8a 3d 8c 1a 87 3d 29 56 0a 3e c1 ae b0 3d
       0.06773311 0.0659686 0.1350943 0.08627082
000050 45 41 ec bd 83 85 89 3b 63 3c 7b 3c 11 8d 49 be
       -0.11535887 0.004196824 0.015334222 -0.19682719
000060 38 3d 25 bc 71 48 09 3e b4 c0 9d 3b bb 37 25 3e
       -0.0100853965 0.1340654 0.004814232 0.1613454
000070 99 3a 23 3e 7b c0 ca 3a 06 38 06 bd b6 dc e0 bd
       0.15940322 0.0015468741 -0.032768272 -0.10979597
000080 90 79 86 3d 50 e0 1d bb d8 94 e3 bd 2c e6 69 3e
       0.06566155 -0.002409 -0.11112374 0.2284171
000090 23 ab 86 bd d6 b7 8c ba 7f 39 b1 36 dc 4f 0a be
       -0.065756105 -0.001073594 5.2817045e-06 -0.13507026
0000a0 e7 b8 0c 3e 9d cd 91 3b 5a ec 66 3d 8f 73 ca 3d
       0.1374241 0.00444956 0.056377746 0.09885322
0000b0 51 69 6e be 9e d9 a9 3d 54 54 cc 3d 85 1e f4 3d
       -0.23282363 0.0829346 0.09977022 0.11919884
0000c0 ac a1 ad bd a2 6e 12 be 07 45 d3 bd 64 b6 64 bd
       -0.08478102 -0.14300016 -0.103159 -0.055838004
0000d0 9d 22 df bd 49 1e 57 bd 04 18 a2 3c e8 31 8c bd
       -0.10895274 -0.052519117 0.019786842 -0.06845456
0000e0 42 85 17 be 99 25 ca 3d dc 80 62 3e 1a e7 ff 3d
       -0.14796928 0.098704524 0.22119468 0.12495251
0000f0 f4 8f 4f 3d 76 0b a8 bc 9f f8 1d be 72 4a 8d 3d
       0.050674394 -0.020513278 -0.15426873 0.06898965
000100 af 32 f1 3d e7 98 50 3c a8 90 ac 3d b1 e0 e6 bd
       0.11777245 0.012731767 0.084260285 -0.11273325
000110 2e 5e 03 bd 28 04 93 bc fa 45 f7 bd 5e 9d 4a 3e
       -0.03207224 -0.017946318 -0.12073894 0.19786593
000120 2c f8 28 3d 3c a9 63 be 1b ba 14 3e d3 77 9f bc
       0.0412523 -0.22232527 0.14524119 -0.019466316
000130 b3 7a db bd fd 2b e7 bd f5 05 11 be 01 12 f4 bc
       -0.107167624 -0.11287687 -0.14162429 -0.029793741
000140 e9 be 8b 3d 37 8b 86 3d 9a b2 77 3d a4 5c b3 bd
       0.068235226 0.06569522 0.060473062 -0.08757904
000150 a9 ce db bd 7a 73 eb bc fc c3 21 3e 7a de 87 3d
       -0.10732777 -0.028741587 0.15797418 0.06634231
000160 db 6e 38 be 98 e0 5e 3b 86 1a ca 3c da 36 6a 3d
       -0.18011038 0.003400838 0.02467085 0.057181217
000170 c1 56 81 bd 02 b3 6c ba cf 0c bc 3d 2d 9e 8b 3d
       -0.06315375 -0.000902936 0.091821305 0.06817279
000180 70 c8 cb bd 44 48 4e 3d be 52 e6 3d f4 ca 92 3b
       -0.0995034 0.050361887 0.112462506 0.0044797603
000190 94 95 0a be 2c 50 02 3e 16 8c 29 3e cb 48 11 be
       -0.13533622 0.12725896 0.16557345 -0.14187925
0001a0 25 2a 83 bd a5 83 42 3d b2 0a 58 3c 2d 91 28 3d
       -0.06404523 0.047488827 0.013186144 0.041154075
0001b0 2b a5 e6 3d 16 85 e8 3d 08 2d 05 3e 5d 68 4d 3e
       0.11261972 0.11353509 0.1300546 0.20059343
0001c0 1c 55 e5 bd b1 c7 be bd 53 62 81 3c 66 63 a3 bc
       -0.11197874 -0.09315432 0.015793955 -0.019944858
0001d0 68 66 1d be 56 b4 ca bd 35 2b 29 be 67 4b 0a be
       -0.15371096 -0.098976776 -0.16520388 -0.13505326
0001e0 dc 85 ad 3d 3a 31 0b 3c 84 ef ea bd dc 0f 7d bd
       0.08472797 0.008495623 -0.11471465 -0.061782703
0001f0 ea dd 33 be 18 64 89 3d de 5f c6 bd 55 82 ed 3d
       -0.17565122 0.067085445 -0.09686254 0.115971245
000200 88 e1 db bd eb 46 1c bd 4f 25 13 be 70 94 40 bd
       -0.10736376 -0.03815357 -0.14369701 -0.04701656
000210 13 c9 a7 3d 11 01 0c 3d 76 36 2c 3e ad 35 93 bc
       0.08192649 0.034180705 0.1681765 -0.01796993
000220 38 81 81 bb 06 c7 32 3d 00 a3 c2 bc f4 d1 96 bd
       -0.0039521717 0.043646835 -0.023759365 -0.07364264
000230 2a 70 ec 3c e5 b2 a5 3d 74 af a1 3a 6f 64 96 3d
       0.028862078 0.08090762 0.0012335614 0.07343375
000240 42 65 25 be 7d 75 33 bd 3e 8b b4 3d 99 8d c8 3d
       -0.16151908 -0.043813217 0.08815621 0.097926326
000250 97 0a 17 bd 0e c1 f8 3c b6 38 8f 3c a2 10 ed 3b
       -0.036875334 0.030365493 0.017483097 0.007234649
000260 c5 77 0c be c5 37 3a bd 85 d0 3f 3e 06 e2 95 3c
       -0.13717563 -0.045463342 0.18731888 0.018296253
000270 c5 10 4a bc 87 83 0c 3e 89 54 9f bd 14 32 12 3c
       -0.0123331 0.13722049 -0.07779796 0.008923072
000280 b7 87 a0 3d 2c a5 08 bd 49 85 f5 3d fb 4b 8e 3d
       0.078383856 -0.033360645 0.11988313 0.06948086
000290 79 a6 c8 3d e6 21 1e 3d 2c 59 2a bd d5 e6 b1 bd
       0.09797377 0.038606547 -0.041588947 -0.08686606
0002a0 3a a6 9b 3c 46 98 33 3d a7 a3 89 3c 06 88 a2 bd
       0.019000161 0.04384639 0.016801668 -0.07936101
0002b0 12 a3 10 be 2c d4 fe 3d df 32 f7 bd 24 b1 9d bd
       -0.14124706 0.12442812 -0.1207025 -0.076998025
0002c0 a1 5a 2f bd 3a 76 bf 3d 94 c8 21 3d 1b 0a 0e 3d
       -0.04281104 0.09348722 0.039497927 0.034677606
0002d0 c0 50 6c 3d 0a 24 9b 3d e8 4f 8f bd 7a fa 97 bd
       0.057694197 0.07575233 -0.06997663 -0.074208215
0002e0 20 0c 23 3e e5 8c a0 ba cb 9d 2e bd 4f 20 0b be
       0.15922594 -0.0012249021 -0.04263095 -0.13586544
0002f0 58 40 71 bd 22 8c ae bd 8b d4 f0 bd a5 f3 d6 3d
       -0.058899254 -0.08522822 -0.11759289 0.1049569
000300 f6 15 c1 bd 4e ff d1 3d 00 bd a6 bc 95 b1 b5 bd
       -0.09428017 0.10253774 -0.020353794 -0.08871762
000310 35 f8 2e 3d b4 f5 1a bd 8b 98 b1 3d 39 ff b0 bd
       0.042717177 -0.037831977 0.086716734 -0.0864243
000320 b4 b5 0c be 57 9b 70 bc 5a 17 b6 bc e1 a6 04 3e
       -0.13741189 -0.014685473 -0.022227932 0.12954284
000330 6f 94 21 3e 90 39 e9 bc 88 df ac 3d bd 75 f1 bc
       0.15779279 -0.02846983 0.08441073 -0.029475087
000340 55 9c cc 3c ce 45 12 3e 30 49 a0 bd 1d e0 29 3c
       0.024976889 0.14284441 -0.078264594 0.010368374
000350 51 27 10 be a9 48 3b 3e 0c cc 8b 3a 00 fb 0a 3d
       -0.14077498 0.18289436 0.0010665669 0.03393078
000360 de a1 b5 bd 84 aa 52 bd 76 4c b4 3b 7f f3 51 3e
       -0.08868764 -0.051432148 0.005502279 0.20503043
000370 0b 7b 69 bc bc e7 26 3d 91 1a 79 ba 52 b6 27 3d
       -0.014250527 0.040748343 -0.0009502555 0.04094536
000380 ef 17 fa 3c f8 05 4c 3b 4a 05 4b bc f9 2e b7 3c
       0.03052899 0.0031131487 -0.012391398 0.022361265
000390 92 84 0a 3e 46 67 58 3d 01 79 b4 bd ac 8a aa bc
       0.13527134 0.052832864 -0.08812142 -0.020818077
0003a0 99 47 9a 3c 02 4f 81 3c c1 85 90 3d 5f 71 a9 3d
       0.018832969 0.015784744 0.070567615 0.08273577
0003b0 02 7c 7c bd 44 4b d7 3d 20 40 15 3d 12 c2 27 bd
       -0.0616417 0.10512403 0.036438107 -0.040956564
0003c0 96 b8 ae 3d 2c 74 5f bd 5a ed a4 bd 9b e2 40 bd
       0.08531301 -0.05455415 -0.08053084 -0.047091108
0003d0 69 73 49 bd be 6c 01 3d 75 2d 9f bd 6b 23 ad bd
       -0.04918233 0.031597845 -0.07772342 -0.08454021
0003e0 6e e6 67 bc 4e e1 fb 3c 8f d4 6e bd 04 d2 c2 bd
       -0.01415406 0.030747082 -0.05830818 -0.095127136
0003f0 0f 9c a1 3d 33 1a 0d 3e b1 29 8c bc 5b 1a 31 bd
       0.07891094 0.13779525 -0.017109724 -0.043238025
