Assets/Brain/MoveToGoal_03.onnx (onnx, 475541 bytes, 17 tensors)

155 f4 [132, 128]
0.0021629946 0.0005582283 -0.007149877 -0.007714745 -0.020520737 0.011389654 -0.06867488 -0.008143511
0.04239869 0.0033004282 -0.00936736 -0.009453541 0.016050963 -0.023096614 -0.056845456 -0.0088082785
0.021648511 -0.015311937 -0.06095161 -0.022545556 -0.03512101 -0.0028450019 -0.016207533 -0.028048212
-0.00580774 0.057230886 -0.023620956 0.0014139796 0.02098677 0.058323666 0.02007807 0.031002948
-0.0087970495 0.07028702 0.0020863924 -0.030868748 0.029933942 0.031849347 -0.03902184 -0.0066938107
0.024715714 -0.031658728 0.015382105 -0.048609532 -0.018331919 -0.07916648 0.019691799 0.020029813
-0.03859131 0.0988004 0.052121792 0.0021390344 -0.021463279 0.046190884 0.0246546 0.040247187
0.021817641 0.006090971 -0.04159019 -0.022111617 -0.039055515 0.042774066 0.038716838 -0.03806589
-0.0024204592 -0.029846346 -0.034559973 0.063273154 -0.00053451484 -0.060416266 0.072373316 0.021291964
0.01344946 0.017735796 -0.025190586 -0.017262124 0.0012820319 -0.02106684 -0.008889535 -0.02045651
-0.016905438 0.018546905 -0.09266059 0.02438902 -0.022512343 0.014218812 -0.006835314 -0.018323466
-0.05223584 -0.008479176 0.005656295 -0.021644162 0.02442459 0.026766626 0.017409937 0.033339366
-0.04544532 0.0038026934 0.069976546 -0.0077320165 0.012860721 -0.037417658 -0.06293044 0.015227102
0.034198504 0.03660908 0.029231623 0.033179864 0.04054141 -0.049795005 0.022257367 0.032156076
0.053836003 -0.09605368 0.0010174781 -0.01694015 -0.006122059 -0.042599425 0.0048104 0.014343873
-0.052306462 0.0007305046 0.010525376 -0.0050237807 -0.04643038 -0.010747231 0.021378422 0.006860102
-0.03979704 -0.03535208 -0.061655257 0.040937465 0.037212506 0.0044065067 -0.003646884 0.02000898
0.020974927 0.04109368 -0.028519308 0.016899552 -0.0955958 -0.030640798 0.030630818 -0.025028283
0.029804833 0.05826711 -0.00622247 -0.03090745 -0.027110953 0.012447744 -0.020491555 0.018305544
-0.034946445 0.0036457248 -0.026845608 -0.057352956 0.009973266 0.04244752 0.0021262967 0.0010884524
-0.03552338 -0.020310737 0.03260274 0.054212365 0.07175742 0.03194065 -0.04726518 -0.03334255
-0.07157503 0.046856858 -0.03873899 -0.03730728 0.0199328 0.0044360566 -0.06800232 -0.0048110657
-0.003987083 -0.003605858 0.024392737 -0.001183257 0.024150588 0.00069906865 -0.013302186 -0.0018190532
-0.058296494 0.008029479 0.022375455 -0.05107028 -0.04364522 0.03728076 -0.052748386 -0.032897092
-0.02616589 0.0059279553 0.019209817 0.06440249 0.0006440752 -0.04643437 0.006183469 -0.014230253
-0.0070165074 0.02856697 0.0023858573 -0.019288816 0.07116211 -0.0113675315 -0.0543743 0.034054004
-0.08113352 -0.014120606 -0.025716767 -0.019541368 -0.006236613 0.032327753 0.007087333 0.023187246
-0.039008595 -0.030363034 -0.006495121 -0.04060164 0.014825858 0.057636917 0.047647666 0.011253193
-0.0075074863 0.03853186 -0.009308162 -0.02701131 0.007229489 0.013233246 0.0031649442 -0.067613006
0.013096727 0.018489247 0.000789432 -0.043917183 0.055690143 -0.042375967 -0.015403518 -0.01364922
-0.030068662 -0.0038485068 0.017976558 -0.021701261 -0.06381879 0.039574526 0.027889289 -0.0203671
-0.05981804 0.006521625 -0.03803282 0.012677663 -0.031847496 -0.047017127 0.033074692 -0.041024998
00000000: 07c1 0d3b 1156 123a 8449 eabb f9cb fcbb
00000010: 1b1b a8bc ac9b 3a3c 6aa5 8cbd 5c6c 05bc
00000020: 40aa 2d3d ff4b 583b 8e79 19bc 06e3 1abc
00000030: 4f7d 833c 1c35 bdbc c8d6 68bd 9950 10bc
00000040: 3858 b13c ebde 7abc 65a8 79bd 75b1 b8bc
00000050: 0cdb 0fbd 3673 3abb a9c5 84bc 5dc5 e5bc
00000060: db4e bebb ef6a 6a3d bc80 c1bc 4855 b93a
00000070: 72ec ab3c cce4 6e3d c47a a43c e5f9 fd3c
00000080: 8021 10bc a4f2 8f3d dbbb 083b 75e0 fcbc
00000090: 0738 f53c 7674 023d 5dd5 1fbd c157 dbbb
000000a0: 9c78 ca3c 95ac 01bd 3905 7c3c ca1a 47bd
000000b0: d22c 96bc 0922 a2bd b250 a13c 9015 a43c
000000c0: ec11 1ebd dd57 ca3d a97d 553d 0b2f 0c3b
000000d0: c2d3 afbc a732 3d3d 72f8 c93c 3cda 243d
000000e0: e9ba b23c c596 c73b 7a5a 2abd 6c23 b5bc
000000f0: adf8 1fbd dc33 2f3d 8c95 1e3d fbea 1bbd
00000100: 91a0 1ebb 5380 f4bc c28e 0dbd 5b95 813d
00000110: af1e 0cba 0c77 77bd 7638 943d 7c6c ae3c
00000120: 205b 5c3c a94a 913c 7d5c cebc 4c69 8dbc
00000130: da09 a83a 5e94 acbc 6aa5 11bc 6994 a7bc
00000140: 467d 8abc aeef 973c d6c4 bdbd 7bcb c73c
00000150: ce6b b8bc 05f6 683c c5fa dfbb 181b 96bc
00000160: 40f5 55bd 3eec 0abc 7158 b93b 194f b1bc
00000170: 1416 c83c af45 db3c 499f 8e3c dc8e 083d
00000180: df24 3abd 9c36 793b dd4f 8f3d db5c fdbb
00000190: c6b5 523c 4243 19bd ade1 80bd 187b 793c
000001a0: bb13 0c3d 67f3 153d 2877 ef3c 9ce7 073d
000001b0: c00e 263d d9f5 4bbd 1555 b63c 17b6 033d
000001c0: 2483 5c3d cbb7 c4bd e65c 853a 12c6 8abc
000001d0: 8e9b c8bb bc7c 2ebd 8fa0 9d3b 9002 6b3c
000001e0: 4d3f 56bd 557f 3f3a a072 2c3c 879e a4bb
000001f0: c82d 3ebd 2715 30bc cd21 af3c b5ca e03b
00000200: 3902 23bd 58cd 10bd 398a 7cbd 0bae 273d
00000210: 246c 183d 7564 903b 9000 6fbb dfe9 a33c
00000220: 9cd3 ab3c d951 283d 53a1 e9bc ee70 8a3c
00000230: bbc7 c3bd 6902 fbbc 7bed fa3c 1d08 cdbc
00000240: 4429 f43c 7ea9 6e3d dde5 cbbb 9f31 fdbc
00000250: ca17 debc 9ff1 4b3c e8dd a7bc 82f5 953c
00000260: 0124 0fbd 1ded 6e3b 52eb dbbc efea 6abd
00000270: e966 233c 73dd 2d3d 5759 0b3b 67aa 8e3a
00000280: f780 11bd b462 a6bc 738a 053d c90d 5e3d
00000290: 8ef5 923d 33d4 023d 2299 41bd 3392 08bd
000002a0: ee95 92bd faec 3f3d c6ac 1ebd 85cf 18bd
000002b0: 1d4a a33c 575c 913b cd44 8bbd 25a6 9dbb
000002c0: 14a6 82bb 4250 6cbb 47d3 c73c 8417 9bba
000002d0: 74d7 c53c b441 373a 69f1 59bc 4c6d eeba
000002e0: 4ec8 6ebd 138e 033c bb4c b73c 122f 51bd
000002f0: 55c5 32bd b6b3 183d b10e 58bd 1abf 06bd
00000300: d959 d6bc 4b3f c23b e85d 9d3c 74e5 833d
00000310: 28d7 283a f731 3ebd b39e ca3b 0226 69bc
00000320: bbea e5bb 4705 ea3c 0b5c 1c3b 9403 9ebc
00000330: 71bd 913d e23e 3abc 96b7 5ebd 367c 0b3d
00000340: 5529 a6bd 1d5a 67bc f8ab d2bc 3815 a0bc
00000350: 805c ccbb 1b6a 043d dc3c e83b 2ef3 bd3c
00000360: 7ac7 1fbd e6bb f8bc 06d5 d4bb e84d 26bd
00000370: 28e8 723c b014 6c3d 332a 433d 505f 383c
00000380: 5c01 f6bb 95d3 1d3d 4381 18bc d346 ddbc
00000390: 59e5 ec3b 42d0 583c f46a 4f3b b078 8abd
000003a0: a893 563c c376 973c e2f1 4e3a 81e2 33bd
000003b0: 591b 643d 6c92 2dbd 0a5f 7cbc faa0 5fbc
000003c0: 8e52 f6bc 3b37 7cbb 9343 933c d8c6 b1bc
000003d0: 6db3 82bd e618 223d 1478 e43c e8d8 a6bc
000003e0: c303 75bd 5bb3 d53b 4dc8 1bbd f9b5 4f3c
000003f0: 8572 02bd 0895 40bd 5479 073d d409 28bd

157 f4 [128, 128]
0.03090441 -0.06910985 0.0077623655 -0.014879577 0.02116769 -0.020199005 -0.010778693 0.03621643
-0.013145437 -0.014704516 -0.014767713 0.0010803434 -0.063502334 -0.055852033 0.037691377 0.029537208
-0.0022691844 -0.029553317 -0.018835219 0.014173278 0.0043150615 -0.040974777 0.043678373 0.0062279697
0.016135545 -0.020642513 -0.0038486994 -0.042959537 -0.032221247 -0.06338673 -0.00023070113 0.07424567
-0.0182976 -0.029071368 -0.03455071 -0.021696787 0.021548966 0.0567897 -0.0013519465 -0.027803259
-0.07694807 -0.009187273 0.029559657 -0.01765211 -0.014721555 0.0022271164 -0.022536092 0.004040768
0.01629311 0.019878615 0.019046927 -0.048288867 0.022172052 -0.003209594 -0.033786442 -0.059668448
0.04019505 -0.06593693 -0.0029815272 -0.0198221 0.07289208 -0.023338668 0.018704262 -0.0029821105
-0.040646557 -0.0019863122 -0.043963198 -0.02754227 0.015614586 0.022528453 0.05767881 -0.007319827
0.03820375 0.080498844 0.013233553 -0.0054040123 -0.01136878 -0.007885959 -0.0034720185 0.019525148
0.0468133 -0.04530932 -0.018566364 -0.02906293 0.003229692 0.025240863 0.042439163 -0.01664798
0.027106237 0.034768235 0.009361044 -0.008013879 0.048138253 -0.020263422 -0.017146135 0.04850419
-0.057720557 -0.0025443328 -0.010943931 -0.06924553 -0.050565783 -0.02543691 -0.041387334 -0.01087127
-0.06868864 0.051914673 -0.030803693 0.048508435 -0.014257759 -0.097545765 -0.025806414 -0.025555503
0.015537905 0.025967296 0.024643566 0.019379202 -0.016122965 -0.02274569 -0.08963547 0.054235213
0.0016966782 -0.053054687 -0.0056874147 0.013705772 0.009920898 -0.02903666 0.041329473 0.015803847
0.053980757 -0.0036312402 0.001581626 -0.03844753 -0.0322689 0.0020929629 -0.0007643725 -0.013966472
-0.038809035 0.017062921 0.01797672 -0.034106735 0.032477994 -0.058679692 -0.021065405 0.006495764
-0.046522126 -0.007494881 0.0026722874 0.024713043 -0.0054661944 -0.009314729 -0.023957703 -0.0020597691
0.025222769 -0.002251413 0.036483865 0.015701637 0.010104141 0.020645432 0.033078287 -0.040957414
-0.017790379 0.012607285 -0.033400577 0.03053764 -0.0018214663 0.042263992 0.044100657 0.022870122
-0.027549798 -0.027290095 0.038413428 0.03156389 -0.0625328 -0.011708758 -0.020816535 0.06281933
0.004116451 0.026317 0.039450012 0.024647541 0.012154869 -0.004011026 0.05089705 -0.015905086
0.034406323 -0.012445579 -0.06885427 0.013526388 -0.043781206 -0.009098906 0.00018563798 -0.0028977222
3.7238264e-05 0.0053067557 0.009571018 0.009730125 0.04202316 0.05703127 -0.012779782 0.038708445
0.023586405 0.007632147 -0.007109662 -0.015826572 0.016913857 0.034865305 -0.057783414 0.028100166
-0.049670465 0.047565155 0.029118944 -0.042880677 -0.0131727625 0.002405885 0.054962013 -0.011914687
-0.025293162 -0.03856844 -0.014742217 -0.04471028 -0.003585631 0.03873802 0.029763414 0.007386067
-0.08426736 -0.00042242583 0.00085480075 -0.025110656 -0.042347293 0.00031246225 -0.0012564762 -0.08775482
-0.010767131 -0.003558607 0.003489375 -0.015145653 0.033602968 0.0015597226 -0.062056538 -0.012988547
-0.00090059545 0.012352804 -0.046940137 0.013456853 0.03513649 0.0027571688 -0.057884153 0.040990278
0.061160978 0.025254233 -0.020136867 0.0505254 -0.06830422 0.018761495 0.06163676 -0.013674442
00000000: 3f2b fd3c 7789 8dbd 715b fe3b 78c9 73bc
00000010: dd67 ad3c 6278 a5bc 1d99 30bc ae57 143d
00000020: f65f 57bc 36eb 70bc 47f4 71bc 4f9a 8d3a
00000030: 830d 82bd 1ac5 64bd 4662 1a3d 04f8 f13c
00000040: 99b6 14bb cc19 f2bc 514c 9abc 0937 683c
00000050: 5c65 8d3b 2bd5 27bd 18e8 323d ff13 cc3b
00000060: b12e 843c 7d1a a9bc 763a 7cbb 57f6 2fbd
00000070: 6dfa 03bd e7d0 81bd 5de8 71b9 1d0e 983d
00000080: d9e4 95bc 1427 eebc 0c85 0dbd 76bd b1bc
00000090: 7587 b03c 519c 683d cc33 b1ba a9c3 e3bc
000000a0: f396 9dbd 3786 16bc 1827 f23c 289b 90bc
000000b0: ad32 71bc d0f4 113b 9c9d b8bc 6b68 843b
000000c0: 2179 853c 7ad8 a23c 4d08 9c3c 8cca 45bd
000000d0: 2aa2 b53c 0d58 52bb a763 0abd e766 74bd
000000e0: 91a3 243d f109 87bd ba65 43bb f561 a2bc
000000f0: 7148 953d bc30 bfbc ae39 993c 836f 43bb
00000100: 017d 26bd ca2c 02bb c112 34bd 54a0 e1bc
00000110: 52d4 7f3c 978d b83c 9e40 6c3d 29db efbb
00000120: 897b 1c3d 94dc a43d 8bd1 583c 2414 b1bb
00000130: 1f44 3abc 1c34 01bc ce8a 63bb 34f3 9f3c
00000140: 4ebf 3f3d 4496 39bd 7d18 98bc 6215 eebc
00000150: 3ea9 533b edc5 ce3c b0d4 2d3d 5861 88bc
00000160: e60d de3c 2369 0e3d 105f 193c a54c 03bc
00000170: 9e2c 453d 7aff a5bc 0d76 8cbc 54ac 463d
00000180: 646c 6cbd d2be 26bb 2c4e 33bc 9ad0 8dbd
00000190: 111e 4fbd 1161 d0bc c485 29bd 691d 32bc
000001a0: a1ac 8cbd 7ba4 543d 0758 fcbc c8b0 463d
000001b0: 6099 69bc 13c6 c7bd f967 d3bc c659 d1bc
000001c0: b292 7e3c 5eb9 d43c 4ee1 c93c 22c1 9e3c
000001d0: 4f14 84bc 2b55 babc cd92 b7bd be25 5e3d
000001e0: 1363 de3a df4f 59bd 7e5d babb 2d8e 603c
000001f0: 438b 223c 4ade edbc 1849 293d 1277 813c
00000200: ed1a 5d3d 1afa 6dbb 904e cf3a 287b 1dbd
00000210: 652c 04bd 172a 093b 2c60 48ba a1d3 64bc
00000220: 39f6 1ebd 8ac7 8b3c ea43 933c 81b3 0bbd
00000230: a507 053d 1e5a 70bd 5b91 acbc 6bda d43b
00000240: fc8d 3ebd 9e97 f5bb 8b21 2f3b 0273 ca3c
00000250: c31d b3bb ce9c 18bc f242 c4bc 31fd 06bb
00000260: fb9f ce3c 718c 13bb 1b70 153d b8a0 803c
00000270: d78b 253c 9c20 a93c 197d 073d f6c2 27bd
00000280: 21bd 91bc c98e 4e3c 0bcf 08bd 132a fa3c
00000290: 44be eeba 021d 2d3d e4a2 343d 1f5a bb3c
000002a0: 1db0 e1bc 7a8f dfbc 6657 1d3d 2349 013d
000002b0: 3211 80bd 17d6 3fbc 7087 aabc 6ca7 803d
000002c0: 4be3 863b c096 d73c 5696 213d a4e9 c93c
000002d0: 3725 473c ed6e 83bb 6d79 503d 624b 82bc
000002e0: a5ed 0c3d 8be8 4bbc 7803 8dbd c99d 5d3c
000002f0: ec53 33bd 9413 15bc d1a7 4239 b6e7 3dbb
00000300: 4830 1c38 4be4 ad3b c2cf 1c3c 1a6b 1f3c
00000310: 7a20 2c3d 9f99 693d 4a62 51bc bf8c 1e3d
00000320: 4738 c13c 1717 fa3b 2bf8 e8bb baa6 81bc
00000330: ee8e 8a3c ecce 0e3d 4dae 6cbd 5232 e63c
00000340: 4273 4bbd aed3 423d da8a ee3c a6a3 2fbd
00000350: 92d2 57bc 0dac 1d3b d91f 613d d235 43bc
00000360: 9b33 cfbc f1f9 1dbd 5789 71bc 2022 37bd
00000370: e8fc 6abb c2ab 1e3d 67d2 f33c d206 f23b
00000380: 5e94 acbd 0979 ddb9 b514 603a ddb4 cdbc
00000390: 5b74 2dbd f9d1 a339 58b0 a4ba cdb8 b3bd
000003a0: 9f68 30bc 8537 69bb 00ae 643b 7925 78bc
000003b0: 44a3 093d 9b6f cc3a ff2e 7ebd eacd 54bc
000003c0: f015 6cba 6a63 4a3c 4d44 40bd 227a 5c3c
000003d0: 48eb 0f3d 9eb1 343b ef17 6dbd 6ce5 273d
000003e0: ef83 7a3d f7e1 ce3c 12f6 a4bc b9f3 4e3d
000003f0: 15e3 8bbd b5b1 993c d476 7c3d c40a 60bc

158 f4 [128, 128]
-0.037717137 0.0056032115 0.04333247 0.021075327 0.02853406 -0.027535964 -0.05318542 -0.017720057
0.014776985 -0.025990488 -0.039572816 -0.026423676 -0.030025972 0.005829292 -0.019418977 -0.035771456
0.020104865 0.00046271857 0.039806187 -0.0023930215 -0.010256568 0.0064491876 -0.008993924 0.016013002
-0.033355705 0.024141474 0.09457511 0.005458943 -0.011687728 -0.044873875 0.015848044 0.0107558705
0.0023086702 -0.020079989 -0.0028282737 -0.033873525 0.03349775 0.06463533 -0.04214344 -0.05222238
0.032251745 0.0219348 -0.028551772 0.03147821 0.031140711 -0.022818038 0.07718153 -0.049686342
-0.004061744 -0.035222437 -0.0012171153 -0.007252449 -0.020652888 0.03320199 0.002610427 -0.0017814791
0.011284855 -0.057080086 -0.010709001 -0.004164551 -0.033368073 -0.04220997 -0.0104836635 -0.011091272
-0.020874323 -0.004831497 0.015769832 0.061639376 0.012083845 -0.030851293 -0.011558387 0.0024044856
-0.027747737 -0.023944592 -0.033967998 0.015143786 -0.028570853 -0.004275967 0.0077935318 -0.044386435
0.02268327 0.0019664653 0.022742728 0.08529366 0.009641794 -0.004213497 0.066823214 0.059953205
0.0029075413 -0.07309171 -0.023400888 0.001252231 -0.008098098 -0.013320122 -0.022246223 -0.03419445
-0.009497918 -0.05063323 -0.009557531 0.032907505 0.022804664 0.010419474 -0.04104571 -0.037057478
-0.03944999 -0.095145345 0.044205464 -0.0059308526 -0.029440565 0.033305038 0.024439575 0.008788321
0.08137795 0.022591492 0.021209957 0.016965253 0.019640941 -0.03142728 0.051393073 0.0090177255
0.008836041 0.010630232 0.018219544 -0.04107688 0.059480194 0.0609054 0.041152757 -0.006188455
-0.034315336 -0.03889741 -0.04106479 0.060117584 -0.0039754235 0.023747183 -0.003025758 0.021236049
-0.020025538 -0.03191643 -0.0032733933 0.023109043 0.011774703 -0.012600031 0.03254864 0.017039161
0.03955391 -0.0780173 -0.04859125 0.01404667 0.005278697 -0.068349995 0.000641203 -0.032533634
0.0614734 0.01864689 0.06265331 0.025401816 -0.043222032 -0.05133349 -0.023618253 0.010599582
-0.04475711 0.013823743 -0.020433579 0.020431029 0.01900713 -0.009669895 0.008965799 0.009998946
0.025777673 -0.012838316 0.0005604732 0.003949422 -0.042898864 0.014006406 -0.02927125 0.06717088
-0.029778663 -0.0031447962 -0.008266186 0.041583426 -0.037945274 -0.002575602 -0.028365469 -0.008852496
-0.0037105444 -0.05219032 0.03762387 0.049414802 0.0395646 0.06297877 -0.04803559 -0.02857882
0.044987556 -0.026905663 0.025838045 0.015167056 -0.041966673 -0.01749805 0.03157663 0.03097701
-0.00239991 -0.038560856 -0.009606323 0.01207656 0.029784964 -0.010584212 0.0048080254 -0.007530043
0.02203494 -0.01825723 -0.03939866 0.0050382344 0.026439607 -0.09060366 0.003408143 0.03271029
-0.05351298 -0.008341188 0.004083368 -0.059243366 -0.029057033 -0.03664741 -0.021335289 -0.03663019
0.014991542 0.03236922 -0.033805065 0.005613081 -0.014128531 -0.046737358 -0.044210333 -0.051802818
0.02341807 0.0056561492 -0.004301716 -0.028832449 -0.022897879 0.025940955 -0.029459374 0.019142758
-0.01691175 -0.008983164 0.018464107 -0.0003349596 0.0078081773 -0.0141202295 0.020225458 0.027562888
-0.024915343 0.04446675 0.02957459 -0.045877747 0.026195928 0.047166687 -0.0036163686 -0.02674875
00000000: 497d 1abd 259b b73b 637d 313d 2aa6 ac3c
00000010: 43c0 e93c 1a93 e1bc f4d8 59bd a729 91bc
00000020: 2b1b 723c 01ea d4bc 1b17 22bd 7776 d8bc
00000030: 07f9 f5bc a503 bf3b 8c14 9fbc 1785 12bd
00000040: f5b2 a43c 0999 f239 d00b 233d 3dd4 1cbb
00000050: 2a0b 28bc b553 d33b 405b 13bc b32d 833c
00000060: fe9f 08bd 57c4 c53c 98b0 c13d efe0 b23b
00000070: e27d 3fbc abcd 37bd c2d3 813c 6439 303c
00000080: 0f4d 173b ca7e a4bc 8f5a 39bb f7be 0abd
00000090: f034 093d 875f 843d 9a9e 2cbd 22e7 55bd
000000a0: 681a 043d 9cb0 b33c 68e5 e9bc 4cef 003d
000000b0: ce1a ff3c e5ec babc 5a11 9e3d e883 4bbd
000000c0: 6118 85bb 6745 10bd 9d87 9fba f4a5 edbb
000000d0: 3f30 a9bc cffe 073d b313 2b3b 8580 e9ba
000000e0: 1de4 383c cfcc 69bd ce74 2fbc c976 88bb
000000f0: f6ac 08bd 5de4 2cbd acc3 2bbc 2bb8 35bc
00000100: a100 abbc 8951 9ebb bc2f 813c 9279 7c3d
00000110: 52fb 453c dabb fcbc 645f 3dbc 9394 1d3b
00000120: 394f e3bc 7327 c4bc 0722 0bbd a41d 783c
00000130: 6c0d eabc 691d 8cbb e260 ff3b 8dce 35bd
00000140: 44d2 b93c d0df 003b f54e ba3c 71ae ae3d
00000150: 9df8 1d3c 6011 8abb 9cda 883d 7e91 753d
00000160: 738c 3e3b 1bb1 95bd 38b3 bfbc e621 a43a
00000170: e3ad 04bc a43c 5abc b63d b6bc 7b0f 0cbd
00000180: 289d 1bbc ca64 4fbd 3197 1cbc 05ca 063d
00000190: d9d0 ba3c 71b6 2a3c 8c1f 28bd 95c9 17bd
000001a0: 5096 21bd 90db c2bd ca10 353d 9957 c2bb
000001b0: 572d f1bc dd6a 083d 8135 c83c e4fc 0f3c
000001c0: 7ca9 a63d cb11 b93c 81c0 ad3c b7fa 8a3c
000001d0: 0ae6 a03c e4b9 00bd 8b81 523d 15bf 133c
000001e0: 0bc5 103c 6d2a 2e3c 2741 953c 3b40 28bd
000001f0: 81a1 733d f177 793d cb8f 283d 86c8 cabb
00000200: 3d8e 0cbd e452 1fbd 8e33 28bd db3d 763d
00000210: 4544 82bb 7489 c23c cc4b 46bb 39f7 ad3c
00000220: 990c a4bc cdba 02bd 6d86 56bb 2d4f bd3c
00000230: afea 403c 5c70 4ebc b951 053d b695 8b3c
00000240: 4803 223d 89c7 9fbd 9e07 47bd 0124 663c
00000250: ebf8 ac3b 15fb 8bbd 6816 283a fd41 05bd
00000260: 88cb 7b3d 5dc1 983c 6150 803d 7817 d03c
00000270: 9609 31bd 1143 52bd 117b c1bc dfa9 2d3c
00000280: 3b53 37bd fb7c 623c 5264 a7bc f95e a73c
00000290: d7b4 9b3c 7b6e 1ebc 49e5 123c 9fd2 233c
000002a0: b32b d33c cd57 52bc b8ec 123a 276a 813b
000002b0: b8b6 2fbd 207b 653c 43ca efbc e390 893d
000002c0: 62f2 f3bc ed18 4ebb e66e 07bc 6253 2a3d
000002d0: 816c 1bbd 6ecb 28bb b35e e8bc 0f0a 11bc
000002e0: 9b2c 73bb 84c5 55bd 7d1b 1a3d 2d67 4a3d
000002f0: 7d0e 223d 03fb 803d f8c0 44bd 211e eabc
00000300: df44 383d 4469 dcbc 4faa d33c 3e7f 783c
00000310: 3fe5 2bbd 1258 8fbc 7f56 013d 80c3 fd3c
00000320: cf47 1dbb fdf1 1dbd d763 1dbc c4dc 453c
00000330: 99ff f33c 6769 2dbc a48c 9d3b 94be f6bb
00000340: 9e82 b43c 3090 95bc 7d60 21bd c617 a53b
00000350: e097 d83c 698e b9bd 275b 5f3b 3afb 053d
00000360: 6d30 5bbd 7aa9 08bc c6cd 853b 2ca9 72bd
00000370: 0409 eebc 981b 16bd 58c7 aebc 8a09 16bd
00000380: 169f 753c 9695 043d 2e77 0abd f0ed b73b
00000390: 5b7b 67bc ac6f 3fbd e515 35bd 312f 54bd
000003a0: 41d7 bf3c 3857 b93b 69f5 8cbb 0732 ecbc
000003b0: 5594 bbbc 2082 d43c c954 f1bc 46d1 9c3c
000003c0: 838a 8abc 1f2e 13bc 0a42 973c 849d afb9
000003d0: bddb ff3b 8958 67bc dcaf a53c 91cb e13c
000003e0: 431b ccbc c422 363d 6946 f23c 4eea 3bbd
000003f0: d898 d63c db31 413d 9900 6dbb 3220 dbbc

159 f4 [128, 128]
0.0031611277 0.0039506997 -0.0012346512 0.009272678 0.05493043 0.027203746 -0.012397959 -0.034548018
-0.07139665 -0.047565524 0.057515338 -0.037819766 0.077484906 -0.048282485 0.022904394 -0.013347916
-0.011752523 -0.057469383 -0.025572216 0.0319322 -0.017374843 0.017233776 -0.0751968 -0.044632718
-0.08797518 0.05106065 -0.033290807 0.0017143228 0.01867321 0.014455448 0.0047783623 0.028019615
-0.01973008 -0.0107863275 0.032993123 0.029918125 0.0064344937 0.013735046 0.09280799 0.040399056
0.027587019 -0.0539434 -0.033631045 0.05037582 -0.011157116 0.0006161878 0.019509993 -0.018860174
0.01765094 0.00022928529 -0.019685712 -0.0073582125 -0.015910463 0.027785158 -0.045595735 0.006425238
0.01281279 0.015643122 0.02370673 0.019223262 0.015792346 -0.0059128175 -0.01997128 0.035176642
0.010468488 0.007349102 0.0028854993 0.022422679 0.048192494 0.048702165 0.0069553163 0.00178765
0.008207361 0.03875931 -0.047552582 -0.0134317735 -0.032831747 -0.026131598 -0.030616 -0.032415044
0.022575006 0.054562047 0.013923819 0.030258227 0.016691057 0.0059299897 -0.057343837 -0.048678014
-0.023382718 -0.013652003 0.0068829143 0.019679267 -0.018041981 -0.03803489 0.021237364 -0.0019272574
-0.025643382 0.013022827 0.07127896 -0.0011785318 -0.024652474 0.007125578 0.061556656 0.032466434
-0.025119763 -0.013906713 -0.06666016 0.03108438 0.03563868 0.05273525 -0.014670291 0.00041450615
-0.015100667 0.04362918 0.0055908733 0.014907753 0.025659837 -0.023392925 -0.036338232 0.062411226
-0.008073118 -0.03086363 0.02494623 -0.032526217 0.0017877625 0.025716908 0.028042803 -0.017439831
0.005024939 -0.017674891 0.0305785 -0.016205296 0.04342471 -0.044227708 0.040856197 -0.033609126
0.048023853 0.035479825 0.014542894 0.01780301 0.055475917 -0.071685836 0.0075810226 0.01498127
0.002309051 0.028507205 0.013204664 -0.013858483 0.006559512 0.002100938 0.033081576 0.021603053
-0.059914753 -0.0193025 0.0083980765 0.018894002 0.07414443 0.062203012 -0.009281109 -0.05794386
-0.011357292 -0.039951462 -0.014192844 0.013229442 -0.01207715 -0.06593059 0.010367186 -0.036030445
0.034319486 0.00038640655 -0.008478471 0.016726453 -0.03220639 0.029722143 0.02501451 -0.021286597
0.01589908 0.00037963083 -0.013958233 -0.028518032 0.029213304 -0.035298947 0.028491292 0.06674674
-0.004981766 0.030612838 0.04558605 0.016904699 0.04551974 0.015828962 -0.056231145 -0.0019128261
0.035442293 0.038552675 -0.025429046 -0.05289762 -0.038309038 -0.022214005 0.005027141 0.023142835
-0.017125482 0.0155463535 0.019983355 0.059943847 -0.016841717 -0.004480897 -0.01721507 -0.008807253
-0.041563928 0.037887983 0.028847879 -0.04007362 0.012330597 -0.003217414 0.016370758 0.003023946
-0.011155655 -0.002537942 -0.00197145 -0.018381832 -0.037835628 0.0112538785 -0.015238665 -0.03861523
-0.028383944 -0.021222256 0.030760191 -0.0031217872 0.02600233 0.0052545583 0.0021166145 0.014414906
-8.727232e-05 -0.01459434 0.03941763 0.013714444 0.03955337 0.06461898 0.06316338 0.0041464088
0.04281687 0.011536853 0.051587068 0.03185322 -0.041880786 0.0367665 -0.0034184665 -0.02877315
0.06392169 -0.04764741 -0.010746651 0.0038358152 -0.08154003 -0.047716532 0.020026684 -0.009787771
00000000: ec2a 4f3b df74 813b 05d4 a1ba 6eec 173c
00000010: bbfe 603d 64da de3c cf20 4bbc 3982 0dbd
00000020: 6838 92bd 11d4 42bd 3495 6b3d e6e8 1abd
00000030: 68b0 9e3d dbc3 45bd ffa1 bb3c 38b1 5abc
00000040: a78d 40bc 0465 6bbd d37c d1bc 57cb 023d
00000050: b055 8ebc d92d 8d3c c800 9abd ccd0 36bd
00000060: 552c b4bd f924 513d f15b 08bd 21b3 e03a
00000070: 8ff8 983c 8bd6 6c3c cf93 9c3b 6489 e53c
00000080: faa0 a1bc 23b9 30bc cc23 073d db16 f53c
00000090: 72d8 d23b f508 613c 1e12 be3d 7b79 253d
000000a0: 2cfe e13c c1f3 5cbd b5c0 09bd e056 4e3d
000000b0: 56cc 36bc aa87 213a 6cd3 9f3c a780 9abc
000000c0: b498 903c 4d6c 7039 ee43 a1bc 291d f1bb
000000d0: a956 82bc b39d e33c 98c2 3abd ce8a d23b
000000e0: bdec 513c 0126 803c 9e34 c23c 1a7a 9d3c
000000f0: f35e 813c 4fc0 c1bb cf9a a3bc 6215 103d
00000100: 0584 2b3c bcd0 f03b a51a 3d3b c4af b73c
00000110: 7e65 453d ec7b 473d 6ce9 e33b 954f ea3a
00000120: 2b78 063c 15c2 1e3d 7fc6 42bd f110 5cbc
00000130: 957a 06bd ef11 d6bc 68ce fabc a3c5 04bd
00000140: 38ef b83c 747c 5f3d bb20 643c 1ae0 f73c
00000150: afbb 883c 5c50 c23b 5fe1 6abd 9962 47bd
00000160: 1d8d bfbc a7ac 5fbc 128a e13b 6a36 a13c
00000170: c7cc 93bc 79ca 1bbd fbf9 ad3c 079c fcba
00000180: 1212 d2bc b25d 553c b4fa 913d f778 9aba
00000190: fcf3 c9bc ae7d e93b d522 7c3d 86fb 043d
000001a0: f6c7 cdbc fbd8 63bc 1f85 88bd aba4 fe3c
000001b0: ddf9 113d eb00 583d a95b 70bc 1352 d939
000001c0: ca68 77bc 83b4 323d a533 b73b a63f 743c
000001d0: 9434 d23c 85a2 bfbc 66d7 14bd eaa2 7f3d
000001e0: 1c45 04bc b9d5 fcbc 095c cc3c 363a 05bd
000001f0: 5b53 ea3a 44ac d23c 05ba e53c fadd 8ebc
00000200: 3ea8 a43b efca 90bc c37f fa3c f8c0 84bc
00000210: 1cde 313d 1d28 35bd d458 273d b9a9 09bd
00000220: a9b4 443d 4b53 113d 5245 6e3c 9ed7 913c
00000230: b73a 633d 06d0 92bd 3a6a f83b 0074 753c
00000240: 7353 173b f187 e93c 6058 583c b10e 63bc
00000250: 2df1 d63b e4af 093b 8c80 073d e3f8 b03c
00000260: 2c69 75bd 4720 9ebc 1698 093c 98c7 9a3c
00000270: 09d9 973d 96c8 7e3d cb0f 18bc 8a56 6dbd
00000280: ef13 3abc 25a4 23bd 1a89 68bc 4dc0 583c
00000290: 3ddf 45bc 9e06 87bd 21db 293c a994 13bd
000002a0: 9792 0c3d 9c96 ca39 49e9 0abc ea05 893c
000002b0: d9ea 03bd da7b f33c 3beb cc3c 3b61 aebc
000002c0: ca3e 823c 3009 c739 13b1 64bc a69e e9bc
000002d0: bd50 ef3c a195 10bd 9266 e93c 84b2 883d
000002e0: 153e a3bb c6c7 fa3c 70b8 3a3d b97b 8a3c
000002f0: e872 3a3d bdab 813c a152 66bd cbb7 faba
00000300: f02b 113d 69e9 1d3d 9350 d0bc 2dab 58bd
00000310: f0e9 1cbd 25fa b5bc b7ba a43b 0b96 bd3c
00000320: bd4a 8cbc 22b6 7e3c 22b4 a33c ae87 753d
00000330: a4f7 89bc 7dd4 92bb 9e06 8dbc 4c4c 10bc
00000340: f03e 2abd 6e30 1b3d 6352 ec3c 3c24 24bd
00000350: 4606 4a3c 40db 52bb f81b 863c 652d 463b
00000360: 35c6 36bc 9a53 26bb 7133 01bb 7f95 96bc
00000370: 88f9 1abd 3062 383c 98ab 79bc 012b 1ebd
00000380: 7285 e8bc 4cda adbc ccfc fb3c e696 4cbb
00000390: d702 d53c 6e2e ac3b e6b6 0a3b 7f2c 6c3c
000003a0: f805 b7b8 191d 6fbc 6174 213d 8cb2 603c
000003b0: b702 223d f556 843d cd5b 813d 99de 873b
000003c0: be60 2f3d 1205 3d3c f64c 533d 8678 023d
000003d0: 308b 2bbd 7898 163d 5a08 60bb abb5 ebbc
000003e0: 60e9 823d ee29 43bd b912 30bc 4d62 7b3b
000003f0: 76fe a6bd 6972 43bd 000f a43c e35c 20bc

160 f4 [128, 128]
0.0033969039 0.01903795 0.021592483 0.03622153 -0.03523087 -0.0012274977 0.006411833 0.0067371274
0.0484071 0.0038668765 -0.030259952 -0.02962404 0.04362287 -0.024172029 -0.052139495 0.012794834
-0.028986488 0.014200273 0.013693651 0.030121861 0.07427297 0.028485814 9.8594974e-05 -0.0435919
0.07897089 0.004334027 0.02188782 -0.020309487 0.04234864 0.047167473 0.063370824 0.033728316
0.03430378 -0.008183276 -0.012234975 0.012316309 -0.003921162 0.040074434 -0.008619237 -0.0030913355
-0.0331839 -0.014657314 -0.001542179 0.09536759 -0.019636575 -8.6855514e-05 -0.006100627 -0.014778164
0.033730794 -0.046435256 -0.01880452 -0.033951327 -0.011180621 0.019373387 -0.004229105 0.0422375
0.012832762 0.055613916 0.010500983 -0.011600315 -0.025727272 -0.019219676 0.011596584 -0.060644172
0.034907337 0.024561338 0.027790574 -0.054802362 0.0121537205 0.028028458 -0.02681167 -0.035489224
0.026727878 0.05215346 -0.02998798 0.0040823338 0.0075572957 -0.034190662 0.010275218 -0.013019194
0.020814303 0.008062643 0.04052875 0.042152427 0.010059925 0.05333722 0.009387626 -0.050779156
0.047541503 0.0071880324 0.039014325 -0.0019191527 0.004299115 -0.004044027 0.028086722 0.020454684
0.019173179 0.07435785 0.047014885 -0.018048804 -0.003826917 -0.006623654 0.03236178 -0.0075521534
-0.039268315 -0.008410315 -0.050041087 -0.0056499788 0.005059718 -0.009353061 -0.041059226 0.043066215
-0.070068404 -0.05987965 -0.012956389 0.05750141 0.01675222 0.003262828 0.03364535 0.03527784
-0.027188579 -0.0042003808 -0.033905074 0.030894183 -0.06989195 -0.006073123 0.039900087 -0.014159096
0.022972465 -0.016540479 -0.011501226 -0.025464324 0.0058187353 0.020793553 -0.026722826 -0.0011194575
-0.0040464257 -0.0136559745 -0.014569319 0.049711417 -0.022880211 0.06087637 -0.020020075 0.03346318
-0.035148773 -0.065907806 0.0050609205 0.017343644 -0.027024651 -0.018015822 -0.00058845297 0.02718457
0.016252998 0.0362713 0.008270843 -0.008996949 0.06732797 -0.020921316 0.009739484 0.022276714
0.0031147383 -0.045458756 0.04159653 -0.015065597 0.045875553 -0.025092106 -0.029169641 0.021514991
0.040527917 -0.0065561673 0.04835665 -0.013865465 0.01892321 -0.003667444 -0.03391049 0.0029833736
-0.087156035 0.02558915 -0.02334856 -0.024121534 -0.04619566 -0.019254899 -0.0050045103 -0.052107666
-0.02884683 -0.03679448 0.025110899 -0.019006167 -0.029406853 0.010091191 -0.041234292 -0.00597268
-0.00984759 -0.054130748 -0.03836019 -0.0042447653 0.04337019 0.027326459 -0.057365835 -0.010902714
0.034612488 -0.042808533 -0.0075228554 -0.013341361 4.5748757e-06 0.02052491 -0.03216192 0.026850313
-0.006061616 -0.00072945445 -0.0054866793 0.0047392626 0.03678951 0.0109466575 0.030786475 -0.017291268
-0.022527583 -0.06383867 0.008614906 -0.0125945555 0.09366206 0.0014567146 -0.028837394 0.011727634
0.038642276 -0.0018868046 -0.016897159 0.014726828 -0.07923423 -0.039439064 -0.017050862 0.0023660639
0.031077474 0.00016915883 0.019434564 0.017702982 -0.010302716 -0.054934993 0.08356874 0.032086406
-0.046389334 -0.03117821 -0.036128983 0.00843498 0.06572457 0.017942697 -0.018545624 -0.011928096
-0.046842597 -0.041164223 -0.042153604 0.037102703 -0.0493582 -0.031146957 -0.0072094006 -0.020816216
00000000: 979e 5e3b 7af5 9b3c b8e2 b03c 075d 143d
00000010: 3f4e 10bd fde3 a0ba 5b1a d23b 1fc3 dc3b
00000020: 8646 463d 6c6b 7d3b b8e3 f7bc 1dae f2bc
00000030: e5ad 323d 6b04 c6bc 3990 55bd 6ca1 513c
00000040: 1275 edbc 43a8 683c 565b 603c 1fc2 f63c
00000050: 6d1c 983d 155b e93c c6c4 ce38 6c8d 32bd
00000060: 7dbb a13d 7404 8e3b 164e b33c 1560 a6bc
00000070: c475 2d3d ae32 413d 90c8 813d b426 0a3d
00000080: 1f82 0c3d 2613 06bc 3475 48bc 58ca 493c
00000090: 177d 80bb 1725 243d b337 0dbc 0198 4abb
000000a0: d7eb 07bd 3b25 70bc f122 caba 1550 c33d
000000b0: e2dc a0bc 3326 b6b8 c5e7 c7bb 1d20 72bc
000000c0: 4d29 0a3d e532 3ebd f00b 9abc 8c10 0bbd
000000d0: ec2e 37bc f0b4 9e3c 4e94 8abb 3b01 2d3d
000000e0: 8140 523c 6bcb 633d 510c 2c3c 3f0f 3ebc
000000f0: 00c2 d2bc 9572 9dbc 99ff 3d3c 0666 78bd
00000100: fffa 0e3d dc34 c93c 0fa9 e33c 7178 60bd
00000110: 6620 473c f09b e53c 26a4 dbbc 265d 11bd
00000120: 6cf4 da3c de9e 553d 5aa9 f5bc 19c5 853b
00000130: 31a3 f73b 820b 0cbd 6359 283c 754e 55bc
00000140: c282 aa3c 2d19 043c 7901 263d 06a8 2c3d
00000150: 62d2 243c 2178 5a3d 8fce 193c cefd 4fbd
00000160: e1ba 423d 9689 eb3b 7ccd 1f3d 148c fbba
00000170: 97df 8c3b c283 84bb 2016 e63c 9590 a73c
00000180: 1211 9d3c ee48 983d ae92 403d 16db 93bc
00000190: 03cd 7abb 3d0b d9bb c98d 043d 0e78 f7bb
000001a0: d0d7 20bd 6bcb 09bc e2f7 4cbd 7523 b9bb
000001b0: fecb a53b 953d 19bc b82d 28bd 3366 303d
000001c0: 0680 8fbd 5d44 75bd 0947 54bc 9986 6b3d
000001d0: f43b 893c 2cd5 553b b5cf 093d 7f7f 103d
000001e0: 95ba debc 59a3 89bb 0ce0 0abd cc15 fd3c
000001f0: 8323 8fbd 0c01 c7bb 466e 233d 8efb 67bc
00000200: c030 bc3c e67f 87bc a36f 3cbc 8f9a d0bc
00000210: 17ab be3b 3e57 aa3c d4e9 dabc c3ba 92ba
00000220: e197 84bb 4fbd 5fbc 27b4 6ebc 339e 4b3d
00000230: 486f bbbc 8059 793d 2401 a4bc b010 093d
00000240: 29f8 0fbd acfa 86bd 14d6 a53b 4214 8e3c
00000250: cd62 ddbc eb95 93bc 6942 1aba 2db2 de3c
00000260: 0225 853c 3791 143d 6e82 073c f067 13bc
00000270: 3fe3 893d 2e63 abbc 5b92 1f3c a87d b63c
00000280: a320 4c3b f632 3abd 1f61 2a3d b2d5 76bc
00000290: 01e8 3b3d f68d cdbc 2cf5 eebc 3540 b03c
000002a0: 9a00 263d 1ed5 d6bb 9f11 463d fa2b 63bc
000002b0: d904 9b3c 8059 70bb bae5 0abd b484 433b
000002c0: dd7e b2bd 56a0 d13c 7b45 bfbc 869a c5bc
000002d0: a937 3dbd 73bc 9dbc e0fc a3bb d96e 55bd
000002e0: 3050 ecbc cfb5 16bd 5fb5 cd3c d2b2 9bbc
000002f0: a4e6 f0bc 8655 253c 4ae5 28bd 79b6 c3bb
00000300: c957 21bc 34b8 5dbd 931f 1dbd ac17 8bbb
00000310: f1a4 313d bddb df3c 70f8 6abd 4ca1 32bc
00000320: d3c5 0d3d 0058 2fbd 4982 f6bb b995 5abc
00000330: e281 9936 db23 a83c 38bc 03bd 30f5 db3c
00000340: 85a0 c6bb dc38 3fba 9ac9 b3bb d14b 9b3b
00000350: 99b0 163d 9c59 333c eb33 fc3c 6ba6 8dbc
00000360: c48b b8bc d9bd 82bd 8925 0d3c 6559 4ebc
00000370: e5d1 bf3d 3bef be3a 663c ecbc 4325 403c
00000380: 5d47 1e3d a84e f7ba e96b 8abc cb48 713c
00000390: 8e45 a2bd db8a 21bd 40ae 8bbc f70f 1b3b
000003a0: 3096 fe3c 3a60 3139 3c35 9f3c d805 913c
000003b0: b9cc 28bc 8403 61bd 1626 ab3d 096d 033d
000003c0: be02 3ebd 7269 ffbc fcfb 13bd df32 0a3c
000003d0: 9a9a 863d 90fc 923c feec 97bc 106e 43bc
000003e0: 06de 3fbd d19b 28bd 42a9 2cbd 01f9 173d
000003f0: d32b 4abd e727 ffbc d63c ecbb c586 aabc

action_model._continuous_distribution.mu.weight f4 [1, 128]
0.019730605 -0.06404966 0.00786669 0.036407363 -0.00856003 -0.02458146 -0.005868304 0.017238585
-0.0075167376 -0.049244933 -0.03172979 -0.0041772844 -0.021093015 0.028534656 -0.05821331 -0.038054094
0.014564601 0.04671085 0.01164441 -0.0374082 0.05749515 -0.011524825 0.021919258 -0.051307403
0.045258723 -0.010560192 -0.031778403 0.020026986 -0.0074128504 0.028976712 0.016823199 0.016508207
-0.021776874 -0.0129153645 0.0142809125 -0.012280867 -0.015744088 0.017528113 -0.024525087 -0.037852764
-0.067192845 0.008574631 -0.0027850785 -0.03204016 -0.025299607 0.02439317 0.00826279 0.010568323
-0.03384413 0.007003769 0.04068781 0.010426888 0.003871324 0.006180348 0.016505068 0.009638204
0.0012527583 -0.013442681 -0.020660449 -0.018942649 -0.0056639225 -0.0070740134 -0.031357873 -0.0098873675
-0.015958847 0.010689706 -0.02673549 -0.05034359 -0.011612916 0.033275492 0.014733806 -0.02143649
0.029810246 0.014241838 0.046391424 0.007129621 0.021766383 0.008137476 -0.035818316 -0.04360574
-0.05422542 0.018336913 0.009909915 0.05511749 0.034916278 0.006245949 -0.046591535 0.0045277444
0.043280207 0.021937069 0.021216052 -0.03855155 0.023566347 -0.040622994 -0.019059991 -0.030633021
-0.00027538667 -0.05924607 -0.0029077649 0.025899783 0.0005419384 -0.030312292 -0.03559092 0.008184021
0.013910498 0.01944537 0.044009548 0.008389751 0.06259163 0.03687773 -0.03938624 0.018609608
-0.020742772 0.033774942 -0.0071784323 -0.03629558 -0.013300492 -0.011472963 0.033699274 -0.02735442
0.051843062 -0.01637042 -0.026368858 -0.02716211 -0.011666271 -0.027075449 0.013101386 -0.03510739
00000000: 14a2 a13c 782c 83bd 4ae3 003c e31f 153d
00000010: 5e3f 0cbc 0f5f c9bc e74a c0bb ef37 8d3c
00000020: f74e f6bb 0eb5 49bd 19f7 01bd 9ae1 88bb
00000030: 42cb acbc 83c1 e93c 1471 6ebd 9cde 1bbd
00000040: 5da0 6e3c e053 3f3d 32c8 3e3c 5739 19bd
00000050: 0980 6b3d 9fd2 3cbc 0490 b33c b627 52bd
00000060: 3661 393d a804 2dbc 122a 02bd a20f a43c
00000070: 7fe7 f2bb 9260 ed3c ced0 893c 383c 873c
00000080: 6a65 b2bc f79a 53bc 7dfa 693c b135 49bc
00000090: bff9 80bc 1e97 8f3c d6e8 c8bc 800b 1bbd
000000a0: 679c 89bd 9c7c 0c3c dd85 36bb 8b3c 03bd
000000b0: 1f41 cfbc 2fd4 c73c a760 073c c226 2d3c
000000c0: 24a0 0abd df7f e53b 43a8 263d 8ad5 2a3c
000000d0: 0ab6 7d3b 8484 ca3b a335 873c 8fe9 1d3c
000000e0: 9833 a43a b13e 5cbc 1a40 a9bc 9d2d 9bbc
000000f0: 6d98 b9bb 20cd e7bb 1d71 00bd a0fe 21bc
00000100: 21bc 82bc e023 2f3c 6304 dbbc 1535 4ebd
00000110: 1a44 3ebc e24b 083d 1066 713c 949b afbc
00000120: 9e34 f43c 9956 693c ef04 3e3d 999f e93b
00000130: 6a4f b23c 0c53 053c 3ab6 12bd ef9b 32bd
00000140: 791b 5ebd 4b37 963c 325d 223c e1c2 613d
00000150: 5f04 0f3d d1aa cc3b c4d6 3ebd 795d 943b
00000160: 9646 313d 5eb5 b33c 49cd ad3c 3be8 1dbd
00000170: 360e c13c 4c64 26bd b323 9cbc 1af2 fabc
00000180: c661 90b9 02ac 72bd 3390 3ebb c82b d43c
00000190: df10 0e3a 7c51 f8bc c9c7 11bd 4616 063c
000001a0: dbe8 633c e64b 9f3c 5b43 343d 2b75 093c
000001b0: 0a30 803d 1a0d 173d 7753 21bd 2d73 983c
000001c0: bfec a9bc 9857 0a3d 0e39 ebbb adaa 14bd
000001d0: 4fea 59bc 18f9 3bbc 4008 0a3d 6016 e0bc
000001e0: 6459 543d 421b 86bc 8103 d8bc 1383 debc
000001f0: e323 3fbc 55cd ddbc 32a7 563c c4cc 0fbd

network_body._body_endoder.seq_layers.0.bias f4 [128]
0.029914092 0.0064906497 0.010342302 -0.018050257 -0.0025093572 -0.01259994 0.0093246605 0.001444048
0.0027240536 0.01338324 0.010026675 0.010282924 0.015217606 -0.01874335 0.013523657 -0.0024115965
0.0014884857 -0.0076623713 0.029810403 -0.026278608 0.008665288 0.00797406 0.009814114 -0.003803445
0.014765067 0.0008736639 0.0049343132 -0.0089627355 0.0054422976 -0.017353602 0.020503508 -0.0077362927
-0.014526931 -0.018407373 0.009826518 -0.018550484 0.019154899 -0.007320672 0.00039396723 0.005038385
0.045499217 0.025221536 0.001400227 -0.015583531 -0.00379801 0.021312406 -0.012621815 -0.0041985703
-0.011947843 0.0036218164 -0.0006142567 -0.009456639 0.007793424 0.008750421 0.01344999 -0.039998822
-0.02057884 0.005977609 -0.0004269255 0.02007299 0.026161272 -0.010300863 0.012879188 -0.013152014
0.004527335 -0.023316458 -0.008651644 0.021212673 -0.0052772877 -0.0008113738 -0.008920733 0.020075181
0.0002972933 0.002886062 -0.0008904049 0.028040968 0.021322561 0.004624231 -0.016122142 -0.011488351
0.012211718 -0.04140038 0.012649622 0.00012905139 0.02632202 -0.018752314 -0.015748847 0.0022479112
-0.0063723847 0.0059021255 0.01185394 -0.0074486593 -0.008748555 -0.011801143 -0.00014592936 0.009904314
-0.011514305 -0.0048704515 -0.03188338 -0.00410224 0.023120057 0.028102122 -0.005078893 0.0077522956
0.022504017 -0.03645468 0.009641245 -0.009174665 -0.03979224 0.0051208213 -0.02240659 -0.005644466
-0.030233176 0.018595798 -0.022823967 0.01494485 0.009208478 -0.0045524025 0.013463455 -0.007764108
-0.016177434 0.033090163 -0.008796952 0.0017867148 -0.029088495 0.012261962 -0.00846363 0.01685159
00000000: 660e f53c 84af d43b c272 293c 22de 93bc
00000010: 0774 24bb fb6f 4ebc 76c6 183c 3646 bd3a
00000020: 0986 323b 6145 5b3c ec46 243c b679 283c
00000030: 4453 793c a78b 99bc 5492 5d3c e00b 1ebb
00000040: 4b19 c33a a114 fbbb f234 f43c 3c46 d7bc
00000050: daf8 0d3c a2a5 023c 61cb 203c 3843 79bb
00000060: 2ee9 713c 9806 653a 05b0 a13b 70d8 12bc
00000070: 4d55 b23b 2429 8ebc f9f6 a73c ba80 fdbb
00000080: 5d02 6ebc 0fcb 96bc 67ff 203c 2ff7 97bc
00000090: bcea 9c3c 3fe2 efbb 638d ce39 0919 a53b
000000a0: 635d 3a3d 659d ce3c d287 b73a 1152 7fbc
000000b0: 09e8 78bb 5b97 ae3c bbcb 4ebc 2994 89bb
000000c0: e3c0 43bc ff5b 6d3b 1206 21ba 05f0 1abc
000000d0: fb5f ff3b ed5d 0f3c 595d 5c3c ced5 23bd
000000e0: f594 a8bc d2df c33b f8d4 dfb9 1c70 a43c
000000f0: 2a50 d63c f3c4 28bc 3b03 533c 8c7b 57bc
00000100: 0a5a 943b 2802 bfbc a0bf 0dbc 33c6 ad3c
00000110: 19ed acbb 60b2 54ba 4428 12bc b574 a43c
00000120: 08de 9b39 1624 3d3b 106a 69ba 2cb6 e53c
00000130: a7ac ae3c dc86 973b 9512 84bc a339 3cbc
00000140: a813 483c 7293 29bd 5c40 4f3c f851 0739
00000150: 47a1 d73c 749e 99bc ba03 81bc b151 133b
00000160: 70cf d0bb 9e66 c13b 0737 423c e213 f4bb
00000170: 1956 0fbc 9559 41bc 9d04 19b9 b445 223c
00000180: 7fa6 3cbc 4f98 9fbb 2698 02bd 156c 86bb
00000190: 4666 bd3c 6c36 e63c d86c a6bb f806 fe3b
000001a0: 585a b83c 8151 15bd 50f6 1d3c 5651 16bc
000001b0: 30fd 22bd 90cc a73b 068e b7bc 36f5 b8bb
000001c0: 91ab f7bc 3756 983c 54f9 babc 3edb 743c
000001d0: 28df 163c 522c 95bb d395 5c3c 0f6a febb
000001e0: 8a86 84bc 8d89 073d 1721 10bc 3330 ea3a
000001f0: ff4a eebc 65e6 483c 0aab 0abc 580c 8a3c

network_body._body_endoder.seq_layers.0.weight f4 [128, 131]
0.10656102 -0.028497001 -0.08466491 0.026414752 0.03778766 0.16932909 -0.029180583 0.009545391
0.181838 0.008042317 0.041635472 -0.052611485 0.04123252 0.026140295 0.011942823 0.11500112
0.14797884 0.02061356 -0.004697317 0.16876972 -0.053493407 -0.09722768 0.008435677 -0.06268989
0.004533058 -0.019859832 0.06258691 -0.020697791 -0.03281866 0.056871023 0.097960055 0.06469293
0.03232868 -0.03239571 -0.05270781 -0.06836511 0.061797027 -0.066807896 -0.024502382 0.09085717
-0.094831124 -0.007182156 0.10161043 -0.026158417 0.04675112 0.07355139 0.01876891 0.027028777
-0.038945515 0.010154308 0.085455015 -0.008283948 -0.024076458 0.059118792 0.019437844 0.061723206
-0.0051684543 -0.08815324 0.2119975 0.00503417 -0.08560891 0.1762872 0.058334764 -0.11620576
-0.1231221 0.14790305 0.1300049 -0.06006127 0.06938292 0.05903926 0.11468046 -0.07866386
-0.07409607 -0.04707929 -0.07338165 -0.12663558 0.010438214 -0.024933258 -0.08059427 -0.102509454
-0.07405846 0.14470235 -0.0044162776 0.099537 -0.020652728 0.025105897 -0.104538284 0.120999806
0.009196947 -0.08888854 -0.059768517 -0.123805106 0.06781527 0.014425383 0.05343829 -0.021253137
-0.0039512725 -0.07405413 -0.05483834 0.057462204 -0.2056868 0.024754476 -0.04359382 -0.006906553
-0.01217777 -0.11390994 -0.05206633 0.06166083 0.038235348 0.06893668 -0.043488953 -0.02756316
-0.009440983 0.0776609 0.055644397 0.016182628 0.09052827 0.14163277 -0.027015159 0.036805402
-0.055282924 -0.33489493 0.10284233 0.011525117 0.07487529 -0.1218805 -0.014255747 -0.0577335
0.065337524 -0.12011004 -0.06255245 0.16010472 -0.11882922 0.052462824 0.11874602 -0.081502296
-0.010170955 -0.08868703 -0.11184678 -0.077412605 0.089242406 0.027655818 0.0057866117 -0.2486699
0.04991864 0.027915845 -0.036960945 -0.08319711 0.015930166 -0.0086799115 0.07068409 -0.13804619
-0.024865232 -0.04506608 0.055699814 -0.006522887 0.13882394 0.04656932 0.12172203 -0.020265505
-0.016291572 0.026766645 0.10883956 -0.053185564 0.079218715 -0.027717836 0.011637122 0.044803765
0.099769756 0.14621495 -0.09488643 -0.053951994 0.06923918 -0.176657 0.09908812 -0.039387118
0.013522033 0.014722284 -0.24385135 -0.0013958621 -0.039374627 -0.01078494 0.12541017 -0.04416778
0.089184254 -0.024884688 -0.2290876 -0.021443488 -0.043761767 0.012059103 0.15492567 -0.12726754
0.080477774 -0.13921548 -0.052663855 0.014006451 -0.032767594 0.061907288 0.06207009 0.08980148
-0.093906045 -0.054833077 0.0047125993 -0.09980933 0.009983786 0.015146147 0.1503747 0.1803116
-0.011313718 -0.01408761 -0.05978574 0.038719676 0.021521054 0.16535513 0.030736288 0.07478976
-0.07426507 0.04997156 -0.09966621 0.040634915 0.08250042 0.064981036 0.097657904 -0.107936345
0.103237234 0.019311028 0.03387487 -0.00767525 0.09743018 -0.09027725 0.02258426 0.022634508
0.022446249 0.04542679 0.03157174 -0.03022308 0.08458697 0.12781061 -0.10485915 0.04234575
0.04670027 -0.112393394 0.13232058 -0.020641696 -0.024877908 0.07816427 0.012609542 0.14465176
-0.0041124728 -0.05250547 -0.09394779 -0.01583841 -0.1009501 0.085795194 0.01752397 0.10173953
00000000: aa3c da3d 8b72 e9bc cc64 adbd c063 d83c
00000010: 3cc7 1a3d 9b64 2d3e 1e0c efbc 4664 1c3c
00000020: be33 3a3e ecc3 033c f589 2a3d 247f 57bd
00000030: 6ee3 283d 2c24 d63c d5ab 433c b585 eb3d
00000040: c487 173e c5dd a83c f3eb 99bb f8d1 2c3e
00000050: e71b 5bbd 4e1f c7bd cb35 0a3c 8f63 80bd
00000060: 0c8a 943b 16b1 a2bc 912d 803d 6a8e a9bc
00000070: dc6c 06bd 97f1 683d 489f c83d ba7d 843d
00000080: 146b 043d 5db1 04bd 25e4 57bd 0203 8cbd
00000090: e11e 7d3d 94d2 88bd 38b9 c8bc 5313 ba3d
000000a0: d236 c2bd 4b58 ebbb 2119 d03d 2d4a d6bc
000000b0: 1a7e 3f3d 1ca2 963d 42c1 993c 746b dd3c
000000c0: 5585 1fbd 415e 263c 0a03 af3d 65b9 07bc
000000d0: fe3b c5bc 8c26 723d 1d3c 9f3c 79d1 7c3d
000000e0: 235c a9bb b089 b4bd df15 593e aef5 a43b
000000f0: b953 afbd a284 343e 6ff0 6e3d 49fd edbd
00000100: 7127 fcbd e673 173e 0120 053e ce02 76bd
00000110: a218 8e3d 27d3 713d 97dd ea3d 851a a1bd
00000120: aebf 97bd 37d6 40bd 1e49 96bd c2ac 01be
00000130: 0b05 2b3c d540 ccbc 9c0e a5bd 7af0 d1bd
00000140: f6ab 97bd da2c 143e 6cb6 90bb 0eda cb3d
00000150: e92f a9bc e2aa cd3c 2b18 d6bd bfce f73d
00000160: cbae 163c 320b b6bd d5cf 74bd 888d fdbd
00000170: bbe2 8a3d 7158 6c3c 1ce2 5a3d 0f1b aebc
00000180: ad79 81bb b1a9 97bd 2b9e 60bd 7d5d 6b3d
00000190: 8f9f 52be e6c9 ca3c 6f8f 32bd 5e50 e2bb
000001a0: 4585 47bc 9d49 e9bd 8143 55bd 1190 7c3d
000001b0: ab9c 1c3d ad2e 8d3d 7921 32bd 23cc e1bc
000001c0: 5aae 1abc ae0c 9f3d 61eb 633d 6e91 843c
000001d0: e366 b93d 2e08 113e e54e ddbc 43c1 163d
000001e0: 5970 62bd 5977 abbe 009f d23d d8d3 3c3c
000001f0: 3758 993d 7c9c f9bd f090 69bc f679 6cbd
00000200: aecf 853d 41fc f5bd 801b 80bd 7ef2 233e
00000210: bc5c f3bd 42e3 563d 1d31 f33d adea a6bd
00000220: 14a4 26bc 8ca1 b5bd ed0f e5bd 808a 9ebd
00000230: b9c4 b63d 748e e23c 9e9d bd3b 52a3 7ebe
00000240: 7d77 4c3d c5af e43c 5c64 17bd 3f63 aabd
00000250: fb7f 823c 3036 0ebc d2c2 903d fb5b 0dbe
00000260: 2cb2 cbbc 3697 38bd 7d25 643d f1bd d5bb
00000270: dd27 0e3e 79bf 3e3d 6649 f93d d803 a6bc
00000280: e775 85bc b945 db3c 46e7 de3d 1bd9 59bd
00000290: 6c3d a23d 8410 e3bc a1a9 3e3c 2784 373d
000002a0: 1654 cc3d 5fb9 153e d153 c2bd c4fc 5cbd
000002b0: 45cd 8d3d 93e5 34be b6ee ca3d 6354 21bd
000002c0: 848b 5d3c bc35 713c 2bb4 79be 5cf5 b6ba
000002d0: 4a47 21bd 51b3 30bc 866b 003e 46e9 34bd
000002e0: 3ca6 b63d f9da cbbc f195 6abe 41aa afbc
000002f0: 8a3f 33bd 8b93 453c d6a4 1e3e 6c52 02be
00000300: 88d1 a43d 818e 0ebe 0eb6 57bd 507b 653c
00000310: 5037 06bd 7f92 7d3d 353d 7e3d d7e9 b73d
00000320: d051 c0bd a698 60bd 266c 9a3b d668 ccbd
00000330: 0993 233c 8c27 783c d3fb 193e 9ba3 383e
00000340: 2c5d 39bc b8cf 66bc e4e1 74bd 8698 1e3d
00000350: ec4c b03c db52 293e abca fb3c 602b 993d
00000360: 4918 98bd faae 4c3d cc1d ccbd cc70 263d
00000370: fbf5 a83d c714 853d de00 c83d bb0d ddbd
00000380: 0b6e d33d 2932 9e3c 60c0 0a3d aa80 fbbb
00000390: 7989 c73d 47e3 b8bd a002 b93c 016c b93c
000003a0: 32e1 b73c 7111 3a3d 5e51 013d 6596 f7bc
000003b0: ef3b ad3d c9e0 023e 65c0 d6bd bd72 2d3d
000003c0: c848 3f3d 822e e6bd 0c7f 073e c618 a9bc
000003d0: c1cc cbbc 9714 a03d 4198 4e3c 971f 143e
000003e0: ecc1 86bb fa0f 57bd b367 c0bd 8ebf 81bc
000003f0: edbe cebd 64b5 af3d 6e8e 8f3c d15c d03d

network_body._body_endoder.seq_layers.2.bias f4 [128]
0.022251466 -0.007945058 0.008657775 0.026813326 -0.042810146 -0.013687624 -0.022050997 0.0104784705
-0.047515947 -0.009450288 -0.010521786 0.0027506081 -0.03393377 0.017509365 -0.010889371 -0.0062807733
0.021500314 0.016484953 0.02473809 -0.009691033 0.019607682 0.0013434734 0.0150429765 -0.007879244
0.018034166 -0.030390255 -0.013658435 0.017387807 -0.01975938 0.013210507 0.022010434 0.024113577
-0.020294724 -0.013015471 0.012380735 -0.01507908 -0.03432577 0.0022360117 -0.01861134 -0.0105292555
-0.010509934 0.025740014 -0.0019150486 -0.027372178 -0.0118836 0.021039927 0.020950768 0.029322552
-0.01003935 0.013726758 0.020954534 0.019490516 0.0034979563 0.019684361 0.014294047 0.02484834
-0.011276216 -0.04148741 -0.03566741 -0.012993177 -0.017471652 -0.015475476 -0.008249565 -0.026991827
0.00020386813 0.020751443 -0.011451132 -0.014611909 -0.01622075 0.009897359 0.011660652 -0.017996356
0.0118537955 0.016728576 0.019190364 0.027007202 0.023189642 -0.0036567384 -0.018115168 -0.010747162
-0.016976228 0.017951883 0.0061211064 0.021191793 0.013646563 0.0031275412 -0.02212057 0.019727476
0.016883839 0.016430695 0.018877728 -0.010536212 0.017490648 -0.013674677 -0.036293533 -0.0093080215
0.005417995 -0.010810314 0.009126764 0.03333678 0.008962014 -0.015733507 -0.030699233 0.0072445497
0.008788651 0.013719035 0.026035257 0.00957001 0.019678133 0.023398258 -0.010608973 0.0145782055
-0.029934004 0.017025085 -0.0012875255 -0.012113871 -0.0128719285 -0.022659495 0.013488318 -0.010533923
0.022099659 -0.011624088 -0.022104794 -0.041476753 -0.014107583 -0.012563988 0.012263461 -0.011005308
00000000: b548 b63c fd2b 02bc 57d9 0d3c 9fa7 db3c
00000010: b159 2fbd 0e42 60bc 4ba4 b4bc e4ad 2b3c
00000020: 15a0 42bd 61d5 1abc 9263 2cbc 8c43 343b
00000030: 23fe 0abd cd6f 8f3c 5569 32bc f2ce cdbb
00000040: 6d21 b03c 740b 873c 89a7 ca3c 23c7 1ebc
00000050: 4aa0 a03c 7d17 b03a d176 763c f217 01bc
00000060: 63bc 933c fcf4 f8bc a1c7 5fbc e070 8e3c
00000070: 6cde a1bc e270 583c 3a4f b43c d689 c53c
00000080: 1f41 a6bc d83e 55bc 91d8 4a3c 3f0e 77bc
00000090: 2e99 0cbd 0d8a 123b cf76 98bc e682 2cbc
000000a0: dc31 2cbc b9dc d23c 5e02 fbba 9e3b e0bc
000000b0: 6eb3 42bc ed5b ac3c f2a0 ab3c d935 f03c
000000c0: 167c 24bc 32e6 603c d8a8 ab3c 93aa 9f3c
000000d0: f83d 653b 1941 a13c 9431 6a3c bf8e cb3c
000000e0: e1bf 38bc b4ee 29bd fd17 12bd 56e1 54bc
000000f0: b620 8fbc da8c 7dbc 2f29 07bc f71d ddbc
00000100: 6fc5 5539 eefe a93c 879d 3bbc ca66 6fbc
00000110: 61e1 84bc 8828 223c 520c 3f3c 186d 93bc
00000120: 6c36 423c 5e0a 893c 1c35 9d3c 353e dd3c
00000130: 34f8 bd3c e4a5 6fbb 4366 94bc dd14 30bc
00000140: bb11 8bbc d40f 933c 9093 c83b 699a ad3c
00000150: d595 5f3c 6ff7 4c3b 3336 b5bc 849b a13c
00000160: fa4f 8a3c aa99 863c 77a5 9a3c 13a0 2cbc
00000170: 8c48 8f3c c10b 60bc 87a8 14bd ac80 18bc
00000180: 7089 b13b be1d 31bc 6c88 153c 268c 083d
00000190: 69d5 123c 8ee3 80bc f57c fbbc b063 ed3b
000001a0: 46fe 0f3c cec5 603c e447 d53c 88cb 1c3c
000001b0: 0934 a13c b4ad bf3c 42d1 2dbc 6dd9 6e3c
000001c0: 2838 f5bc 3178 8b3c 30c2 a8ba 4279 46bc
000001d0: c8e4 52bc 68a0 b9bc 1bfe 5c3c 7a96 2cbc
000001e0: 580a b53c f572 3ebc 1d15 b5bc 87e3 29bd
000001f0: 7e23 67bc 2fd9 4dbc afec 483c 9b4f 34bc
