Assets/Brain/MoveToGoal_01.onnx (onnx, 478629 bytes, 17 tensors)

155 f4 [132, 128]
0	0x3c80a45f	0.015703378
1	0x3c30f634	0.010800887
2	0xbd01de0a	-0.031705894
3	0xbd33d2ff	-0.043902393
4	0xbd06e66f	-0.032934602
5	0xbd790fae	-0.06080597
6	0x3c074509	0.008256205
7	0xbd47158d	-0.048604537
8	0xbd9f0702	-0.077650085
9	0x3c3f5567	0.011678076
10	0x3ccb6d5c	0.02483242
11	0x3ca6d809	0.020366685
12	0x3bf4857b	0.007462201
13	0xbc99ccdd	-0.018774444
14	0xbcd05809	-0.025432603
15	0xbd3e3711	-0.046439234
16	0xbd5c122a	-0.05372826
17	0xbbfb1982	-0.007662953
18	0x3c6d92ad	0.014500302
19	0x3c7c14a6	0.015385782
20	0xbd18c292	-0.03729493
21	0xbcac245f	-0.021013437
22	0xbca2b545	-0.019861827
23	0xbcffbf5b	-0.031219175
24	0x3d054bdf	0.03254306
25	0xbc36528f	-0.011128082
26	0xbc82e45b	-0.015978029
27	0x3db1ad23	0.08675601
28	0x3a9e0cbb	0.0012058237
29	0xbbbb0eb9	-0.005708542
30	0x3ac48315	0.0014992679
31	0x3c2e507f	0.010639309
32	0x3c605d34	0.013694096
33	0xbc82a387	-0.015947117
34	0x3bfa48ee	0.0076380884
35	0xbc866448	-0.01640524
36	0xbc96a116	-0.018387359
37	0x3773ac7b	1.4524087e-05
38	0x3b1cd5ad	0.0023931072
39	0xbca81386	-0.020517122
40	0xbd136570	-0.03598541
41	0x3c884ab0	0.016637176
42	0x3ca55749	0.020183222
43	0x3bd80de8	0.0065934546
44	0x3cc945cf	0.02456942
45	0x3d4f9081	0.05067492
46	0x3c170041	0.009216369
47	0x3d17885e	0.036995284
48	0xbb22e818	-0.0024857577
49	0xbc96a211	-0.018387826
50	0x3cb58aad	0.022160852
51	0x3cf64957	0.030064268
52	0x3caef218	0.021355674
53	0x3d786eaa	0.060652412
54	0x3cb3e38d	0.02195909
55	0xbcfb6d92	-0.030691896
56	0x3cab8b2e	0.02094039
57	0xbb0e9d2d	-0.0021761165
58	0xbd3012d3	-0.042986702
59	0x3bd8b0e4	0.006612884
60	0xbd3fc992	-0.04682309
61	0xbd318351	-0.043338124
62	0x3d967891	0.07347215
63	0x3d3d2926	0.04618182
64	0x3c8bc1b9	0.017060148
65	0x3d39c7c5	0.04535653
66	0xbcfb37fd	-0.030666346
67	0x3c051fba	0.00812524
68	0xbc163759	-0.009168469
69	0xbd3065c1	-0.04306579
70	0x3d58b5a1	0.05290759
71	0x3d14d3ba	0.03633473
72	0x3bcc1643	0.0062282397
73	0xbcc2158f	-0.02369192
74	0x3d0c73b5	0.034290034
75	0x3ccf4846	0.025303017
76	0xbd49a4d5	-0.04922946
77	0x3d0662c0	0.03280902
78	0x3d1add57	0.037808742
79	0x3cfd585d	0.030925924
80	0x3c9549d1	0.018223675
81	0x3b6e7e2d	0.0036391125
82	0x3ba88144	0.005142363
83	0x3ba8406f	0.005134634
84	0xbd2aa499	-0.04166088
85	0xbd03cfb2	-0.032180496
86	0x3b9f3fd2	0.004859903
87	0x3c76498c	0.015032183
88	0x3c338abb	0.010958369
89	0x3c85209a	0.016250897
90	0xbb03e875	-0.002012757
91	0x3ceabd1b	0.028654626
92	0xbcd6c653	-0.026217615
93	0xbbc96989	-0.006146614
94	0xbcb580d3	-0.022156155
95	0x3d2eb117	0.042649355
96	0xbcd4f56f	-0.025995938
97	0x3c9ff712	0.019526992
98	0xbc2ba39e	-0.010476021
99	0x3bc9cdf3	0.0061585843
100	0xbc511cdf	-0.012763231
101	0xbc8e281c	-0.01735311
102	0xbd4bbfa9	-0.04974333
103	0xbd3902ab	-0.04516856
104	0xbd0d582d	-0.03450792
105	0x3c63c497	0.013901851
106	0x3c8acd57	0.016943617
107	0xbcb580f0	-0.022156209
108	0x3cafbd5b	0.021452596
109	0xbd2c7dfa	-0.042112328
110	0x3c2f157d	0.010686276
111	0xbc92bfcc	-0.017913722
112	0x3d1dc609	0.03851894
113	0xbc67fa93	-0.014158863
114	0x3d4befd2	0.049789257
115	0x3cca186e	0.024669852
116	0x3994939e	0.00028338743
117	0x3cddc432	0.027071092
118	0x3d3bc814	0.045845106
119	0x3aa624fb	0.0012675816
120	0x3c27030d	0.010193598
121	0xbb9c7990	-0.0047752336
122	0xbb3b847a	-0.0028612898
123	0xbb40368b	-0.0029329385
124	0x3bf3655f	0.007427856
125	0x3c4eb17b	0.012615557
126	0xbba43bbc	-0.0050120037
127	0xbb8d94c4	-0.0043207128
128	0xbd084a0d	-0.033273745
129	0x3c3b8215	0.011444588
130	0xbc104485	-0.008805399
131	0xbc2c5807	-0.010519034
132	0xbca474fb	-0.020075312
133	0x3d7a8a7a	0.061167218
134	0xbc4a75cd	-0.012357187
135	0x3cdcff1c	0.026977114
136	0xbc769b0b	-0.015051614
137	0xbd767e8f	-0.06017929
138	0x3cf98b5d	0.030461961
139	0x3cccd566	0.0250041
140	0x3c48d01d	0.012256649
141	0x3c537c50	0.012908056
142	0xbcaec5cb	-0.02133455
143	0xbd2a96d1	-0.041647736
144	0x3d6efa78	0.058344334
145	0xbce7621f	-0.02824503
146	0x3bddc089	0.0067673367
147	0x3d4728ff	0.04862308
148	0xbd2847e8	-0.0410842
149	0x3be75e0a	0.007060771
150	0x3cff45e4	0.031161256
151	0xbd6b4e89	-0.057447944
152	0xbc6a8fec	-0.01431654
153	0x3c529d1c	0.012854841
154	0xbc1bf2b1	-0.009518311
155	0x3d52b3db	0.051441055
156	0x3bc948b2	0.006142699
157	0x3d1de4c5	0.03854825
158	0xbca7accd	-0.02046814
159	0x3d0efc0f	0.03490835
160	0x3d62abf6	0.055339776
161	0xbd062ef8	-0.032759637
162	0x3d0ba969	0.03409711
163	0xbbec8c7d	-0.007218896
164	0xbc33b11f	-0.010967522
165	0x3d16e722	0.03684152
166	0x3cb1c3a7	0.02169974
167	0xbd5a2004	-0.05325319
168	0x3cc918d5	0.024547974
169	0x3d205c40	0.039150476
170	0xbcfc9d41	-0.030836703
171	0xbd312030	-0.043243587
172	0xbb8cce9b	-0.00429709
173	0x3cbba293	0.02290467
174	0x3cbb7973	0.02288506
175	0xbd8ad5a7	-0.06779032
176	0x3d026cfd	0.03184222
177	0xbcfb03c1	-0.030641438
178	0xbc097805	-0.008390431
179	0x3d3f288c	0.046669528
180	0x3d7ab465	0.061207194
181	0xbcf772ab	-0.030206045
182	0x3d1238f1	0.035698835
183	0xbcbfeea3	-0.02342922
184	0x3c87aeb7	0.016562803
185	0x3c82782c	0.015926443
186	0x3c494387	0.012284166
187	0xbd8ae73b	-0.06782385
188	0x3d245b16	0.04012593
189	0x3ba6c0fb	0.005088923
190	0x3d8c5c53	0.06853547
191	0x3cefdf76	0.02928136
192	0xbd0c6c06	-0.034282707
193	0xbd268cf1	-0.040661756
194	0x3baa090c	0.0051890668
195	0xbbcaff67	-0.006194997
196	0xbc83d00b	-0.016090414
197	0xbd093cc2	-0.03350521
198	0x3ce6c7a7	0.028171374
199	0xbb8a0397	-0.0042118537
200	0xba3b5367	-0.0007145912
201	0xbc01363f	-0.007886468
202	0xbcbe18df	-0.023205219
203	0x3c4e95e9	0.012608984
204	0xbce5bb6c	-0.028043471
205	0xbcfe02fa	-0.031007279
206	0xbb1d6abe	-0.0024019922
207	0x3cb0e0e7	0.021591617
208	0xbd699ae3	-0.057032477
209	0xbd16497b	-0.03669117
210	0x3d560a2a	0.052255787
211	0xbb0788a4	-0.002068081
212	0x3c848812	0.016178165
213	0x3cafc58c	0.021456502
214	0xbd25c7df	-0.040473815
215	0xbb6b69e2	-0.0035921265
216	0x3a529414	0.00080329296
217	0x3a419b8f	0.0007385546
218	0xbbdc4eb6	-0.0067232503
219	0xbca445f9	-0.020052897
220	0xbcfb7e76	-0.03069995
221	0x3d366469	0.044529352
222	0x3ccb0753	0.024783766
223	0xbcd4771e	-0.025935706
224	0xbc6db16c	-0.014507633
225	0xbc468f82	-0.012119176
226	0x3d85b43a	0.06528516
227	0x3c7df6f3	0.015500772
228	0x3bf1719e	0.0073682806
229	0x3d43783e	0.047722094
230	0xbcd87bbc	-0.026426189
231	0xbcb8c4f4	-0.022554852
232	0xbd5f367e	-0.054495327
233	0x3c4af852	0.012388306
234	0xbcbd5d4e	-0.02311578
235	0xbb41c9e1	-0.0029569792
236	0x3cb84a41	0.022496345
237	0xbc2103ad	-0.0098275365
238	0xbc9af594	-0.018915929
239	0xbc93a537	-0.018023117
240	0x3cd3499f	0.025791941
241	0x3c8bf1f5	0.017083148
242	0xbd25c4b1	-0.040470783
243	0x3c2520bb	0.010078604
244	0xbc6af286	-0.014340049
245	0x3c8bcb9e	0.017064866
246	0x3d238e92	0.039930888
247	0x3c4fabce	0.012675239
248	0xbc0fb503	-0.008771184
249	0xbd087104	-0.033310905
250	0x3c490b09	0.012270697
251	0xbc9a4250	-0.018830448
252	0xb95efab5	-0.00021264965
253	0xbd5df1f3	-0.05418582
254	0x3bda6e9c	0.0066660177
255	0x3cc6ed0c	0.024282955

157 f4 [128, 128]
0	0xbce63e56	-0.028105896
1	0xbc27b205	-0.010235314
2	0x3c75e9bc	0.01500934
3	0xbcdebdb7	-0.027190072
4	0xbd41eed9	-0.047346924
5	0x3d86d54a	0.065836504
6	0x3d0d4658	0.034490913
7	0xba613c58	-0.0008592061
8	0x3d420208	0.04736522
9	0x3d18eba7	0.03733411
10	0xbbf94fcd	-0.00760839
11	0xbd1c8526	-0.038212918
12	0xbb6ccaa8	-0.0036131535
13	0xbbc5b99d	-0.0060340897
14	0x3cd81156	0.026375454
15	0x3d251363	0.04030169
16	0xbbfcda51	-0.007716455
17	0x3ce3d04b	0.027809283
18	0xbd68b25c	-0.05681072
19	0xbd5c8410	-0.053836882
20	0x3c824477	0.015901787
21	0x3d0f826b	0.035036486
22	0xbd0f9c65	-0.03506126
23	0x3b60eb74	0.0034320028
24	0xbd81b32d	-0.06333003
25	0x3da22126	0.07916479
26	0x3c52c13e	0.012863455
27	0x3cc4fe42	0.02404702
28	0xbc8ce0c9	-0.01719703
29	0x3d3cdc2e	0.046108417
30	0xba3f8d42	-0.0007307121
31	0xbc800125	-0.015625546
32	0x3b8ca394	0.004291961
33	0xbccc185f	-0.024913965
34	0xbca585f9	-0.020205485
35	0xbc92971a	-0.017894316
36	0x3d09aeb8	0.03361389
37	0x3c030f1f	0.007999211
38	0x3d4bbb71	0.049739305
39	0x3c12ac87	0.008952267
40	0xbd414200	-0.047182083
41	0xbcbb043d	-0.02282917
42	0x3d1097fc	0.035301194
43	0x3c785591	0.015157119
44	0x3d4059ab	0.046960514
45	0x3d0b9341	0.03407598
46	0xbd4549ce	-0.04816609
47	0xbc58af26	-0.013225352
48	0x3cb97aee	0.022641625
49	0xbcf0fe47	-0.029418124
50	0xbcbf74b3	-0.023371076
51	0xbc641232	-0.013920354
52	0xbd720633	-0.059087943
53	0x3c6c3634	0.01441722
54	0xbb344cbc	-0.0027511558
55	0x3d81b4bc	0.063333005
56	0xbcec2a20	-0.02882868
57	0xbcaaa00b	-0.020828268
58	0xbd5280d4	-0.05139239
59	0x3cc81898	0.02442579
60	0x3d35bd20	0.044369817
61	0xbcbed4ba	-0.023294795
62	0x3b6cfc49	0.0036161116
63	0xbc4b39c8	-0.012403913
64	0x3cea5e18	0.02860932
65	0x3c6164d3	0.0137569485
66	0xbd87b354	-0.06626001
67	0x3d0d657a	0.034520604
68	0x3bac67f8	0.0052614175
69	0xbd456b01	-0.04819775
70	0x3c93ee10	0.018057853
71	0x3c483d9b	0.012221719
72	0x3b6cc15f	0.0036126
73	0xbc4e8efd	-0.012607333
74	0xbad4a7d2	-0.0016224331
75	0x3d695743	0.056967985
76	0x3c8376da	0.016047884
77	0x3ca04f47	0.019569052
78	0x3db48826	0.08815031
79	0xbb7deddf	-0.0038746519
80	0xbb2d4d25	-0.0026443687
81	0x3c7017ea	0.014654139
82	0xbaaed43d	-0.0013338398
83	0x3cb07a16	0.02154259
84	0x3c2d5fc1	0.010581912
85	0xbc08625b	-0.008324231
86	0x3d9e2ff6	0.077239916
87	0x3cd2a325	0.025712559
88	0x3ac915b0	0.0015341546
89	0x3c3486ec	0.011018496
90	0xbcb1c9df	-0.021702705
91	0x3aaa4a68	0.0012992145
92	0xbc0a8e87	-0.008456833
93	0x3c31d1de	0.010853259
94	0xbbb3fee3	-0.0054930313
95	0xbcb0c280	-0.02157712
96	0x3bc51e33	0.006015563
97	0x3b53b9f5	0.0032306884
98	0x3d9a6c77	0.07540219
99	0xbd520b62	-0.051280387
100	0x3d528445	0.051395673
101	0x3c19ab2b	0.0093791885
102	0xbcbce129	-0.023056583
103	0xbd245eb7	-0.04012939
104	0x3c511e36	0.0127635505
105	0x3bf2fd9b	0.007415486
106	0xbd645975	-0.055749375
107	0xbdcdf8a3	-0.10057189
108	0x3d0f67f1	0.035011236
109	0x3d57ff19	0.052733514
110	0x3c398848	0.011323996
111	0x3d76e978	0.060281247
112	0x3d2cfda0	0.042234063
113	0x3c2ee835	0.01067548
114	0xbbefd97b	-0.007319627
115	0xbc7930b0	-0.015209362
116	0x3d1342de	0.03595244
117	0xbcd9fbb8	-0.026609287
118	0xbd6400ad	-0.055664707
119	0xbccbe3b2	-0.024888847
120	0xbc9755c9	-0.018473523
121	0x3a28eebf	0.00064442673
122	0x38c7940f	9.5166375e-05
123	0x3bd8efd1	0.006620385
124	0x3cdf5ad9	0.027265
125	0xbcb0c66d	-0.021578992
126	0xbc48135d	-0.012211648
127	0xbc8ffeda	-0.017577577
128	0x3c9e97b3	0.019359445
129	0xbce5c865	-0.028049657
130	0x3c1a2581	0.009408356
131	0x3d0449b9	0.03229687
132	0xbd0b4871	-0.034004632
133	0xbd9ad2f5	-0.07559768
134	0xbc718167	-0.014740325
135	0xbcf6047d	-0.030031437
136	0x3d58a6ae	0.052893333
137	0x3cf50f6c	0.02991458
138	0x3bac8b69	0.0052656424
139	0x3d40f546	0.04710891
140	0x3cc180ee	0.023621049
141	0xbc413517	-0.011792443
142	0x3ac065fe	0.0014678834
143	0xbc5df8ff	-0.013548135
144	0xbcea6d64	-0.028616615
145	0x3dbcf0ef	0.09225642
146	0xbc03804f	-0.008026197
147	0xbc921e19	-0.017836617
148	0x3ca4828b	0.020081779
149	0xbc9bb32a	-0.01900633
150	0xbcd3a742	-0.02583659
151	0xbc35c236	-0.011093667
152	0xbcd9019a	-0.026490021
153	0xbbb5a1ab	-0.005542954
154	0xbcb6ee43	-0.022330409
155	0x3c0559d4	0.0081390925
156	0x3cd8b190	0.026451856
157	0xbc192b14	-0.0093486495
158	0x3b1b2af4	0.0023676725
159	0x3ce94422	0.028474871
160	0xbd7c133e	-0.06154179
161	0x3d2253a6	0.039630555
162	0xbcd17d78	-0.025572523
163	0x3ce82a5d	0.028340513
164	0x3d132346	0.03592231
165	0x3cd1c953	0.025608694
166	0x3bc2fbf4	0.0059504453
167	0x3d0ec1a3	0.034852635
168	0x3c1cccfb	0.0095703555
169	0x3ce3a820	0.02779013
170	0x3d0cafdd	0.034347404
171	0xbbe376ac	-0.006941637
172	0x3cf38ccc	0.029730223
173	0xbca4692b	-0.02006968
174	0xbc7421d6	-0.014900645
175	0x3cac0b0d	0.021001363
176	0x3c0880d6	0.008331498
177	0x3d5bd39b	0.0536686
178	0x3afc0761	0.0019228273
179	0x3c2cf839	0.010557228
180	0xbd1242ab	-0.03570811
181	0x3c57b5e4	0.013165925
182	0xbca57e7f	-0.02020192
183	0x3be81e9a	0.007083726
184	0xbd07db2c	-0.033168003
185	0x3c7d219f	0.01544991
186	0xbcc93388	-0.024560705
187	0x3c2d673d	0.010583696
188	0x3ce5c852	0.028049622
189	0x3b972406	0.0046124486
190	0x3c6b32e0	0.014355391
191	0xbd49a423	-0.0492288
192	0x3d14e54a	0.03635148
193	0x3a4d985e	0.0007842834
194	0xbd293b0e	-0.041316085
195	0x3db9d063	0.0907295
196	0xbbbc0983	-0.0057384386
197	0xbcf4dc6f	-0.029890267
198	0x3c66d902	0.014089825
199	0x3d1b9453	0.03798325
200	0x3cb3811f	0.021912156
201	0x3c9bb286	0.019006025
202	0x3d04d73b	0.032431822
203	0xbca5ef4d	-0.020255709
204	0x3d42f00c	0.047592208
205	0xbcd2662d	-0.025683487
206	0xbc0db241	-0.008648456
207	0x3d2e633e	0.042575113
208	0x3bc0be9b	0.005882097
209	0xbd6f8aca	-0.05848197
210	0xbd19b54f	-0.037526425
211	0x3ae3f759	0.0017392441
212	0x3d2c6ad0	0.04209405
213	0xbccd2bfe	-0.025045391
214	0x3d5d9854	0.05410035
215	0x3b7b29ac	0.00383244
216	0x3cb74d9a	0.02237587
217	0xbc67f945	-0.014158552
218	0xbd53757d	-0.051625717
219	0xbb0ac36c	-0.002117361
220	0x3d01e044	0.031708017
221	0x3d77e3c4	0.06051995
222	0xbcf12a15	-0.029439012
223	0x3d32b4e3	0.04362954
224	0x3cc878ab	0.024471601
225	0xbc78a2e1	-0.015175552
226	0xbbdbbe14	-0.0067060087
227	0xbc3ef058	-0.011653982
228	0xba070766	-0.0005150944
229	0xbbf4138e	-0.00744862
230	0xbdaaf16c	-0.08346829
231	0xbc56cca0	-0.01311031
232	0x3cd57152	0.026055012
233	0x3c2babd2	0.010477977
234	0xbc92eaea	-0.017934281
235	0x3c22a804	0.009927753
236	0x3d39159f	0.045186635
237	0x3c9df54b	0.019282004
238	0x3c657e70	0.014007196
239	0xbca1e24d	-0.019761229
240	0x3d4cac70	0.049969137
241	0xbc943c61	-0.018095197
242	0x3c20adaa	0.00980703
243	0xbca0960c	-0.019602798
244	0xbcb89e17	-0.02253632
245	0xbca02173	-0.0195472
246	0x3d1788ce	0.0369957
247	0x3d201b3d	0.039088476
248	0xbd141a3c	-0.03615783
249	0xbc58e817	-0.013238928
250	0xbc78cba7	-0.015185273
251	0xbd647495	-0.055775244
252	0x3d50f771	0.05101723
253	0x3c86ee76	0.016471129
254	0x3d6a99b9	0.057275508
255	0xbc84db99	-0.016217994

158 f4 [128, 128]
0	0x3d565fc1	0.05233741
1	0x3cb5b754	0.022182144
2	0x3d0630c0	0.032761335
3	0xbc8e1d80	-0.017348051
4	0x3cda1477	0.026621087
5	0xbcc9f5ee	-0.024653401
6	0x3bdd2ea7	0.006749946
7	0xbce80074	-0.028320529
8	0x3cacec15	0.021108666
9	0xbccf2ce3	-0.025289958
10	0x3d0480b2	0.032349296
11	0x3c0ff656	0.008786758
12	0x3b2b3356	0.0026123128
13	0xbd5d6d03	-0.05405904
14	0xbc64c6bd	-0.0139633985
15	0x3d199bec	0.037502214
16	0xbd2488e5	-0.040169615
17	0xbca73921	-0.020412983
18	0x3b4e4f2f	0.0031480303
19	0x3c8ad6fd	0.016948218
20	0x3c82de14	0.015975036
21	0xbca61c63	-0.020277208
22	0x3c9f37b2	0.019435737
23	0x3cd65148	0.026161805
24	0xbd0d810a	-0.03454689
25	0x3886c08e	6.425484e-05
26	0x3b9f1310	0.0048545673
27	0x3d0484e1	0.032353286
28	0xbd1cf7c8	-0.03832224
29	0x3d03c8fe	0.032174103
30	0xbd23f7d4	-0.04003127
31	0xbb85c4ce	-0.004082299
32	0xbc9ec4fa	-0.019381035
33	0xbd43caf5	-0.047800977
34	0xbc9d527e	-0.019204374
35	0x3c901321	0.017587246
36	0x3d77a1b9	0.060456965
37	0xbc96df43	-0.018417006
38	0xbb96c363	-0.0046009286
39	0x3ce13d83	0.027495151
40	0x3cd1808f	0.025573997
41	0xbb9f40ef	-0.0048600356
42	0x3d36d785	0.04463913
43	0xbcbc91bd	-0.023018712
44	0xbd06c944	-0.032906786
45	0xbb3bb308	-0.0028640646
46	0x3cfc4762	0.030795757
47	0x3d7102c8	0.058840543
48	0x3b6a4dc7	0.0035751925
49	0xbd9d713a	-0.07687612
50	0x3cab484c	0.020908497
51	0xbc14c5b5	-0.00908034
52	0xbbb1af10	-0.0054224804
53	0x3c75470c	0.014970552
54	0x3d067787	0.032828834
55	0xbcc862de	-0.024461206
56	0xbd65c302	-0.056094177
57	0xbce73755	-0.028224627
58	0x3c1b62b2	0.00948398
59	0xbd7d8670	-0.061895788
60	0x3cff206a	0.031143386
61	0x3d08ea91	0.033426825
62	0xbce88644	-0.028384335
63	0x3ca93a7c	0.02065777
64	0xbc67eb2e	-0.014155192
65	0xbbd2df2f	-0.006435297
66	0x3ca7e84c	0.02049651
67	0x3da1dd04	0.079034835
68	0x3d304fbb	0.043044787
69	0x3dadbf1a	0.08483715
70	0xbd69c296	-0.057070337
71	0x3adc8626	0.0016824647
72	0xbcf7f263	-0.030266946
73	0x3cba4275	0.022736767
74	0xbc21540e	-0.0098467
75	0x3b32091c	0.0027166074
76	0x3d836215	0.06415192
77	0xbc6593a3	-0.01401225
78	0x3c17584a	0.009237358
79	0xbd4eeb0d	-0.05051713
80	0x3c611ee9	0.01374028
81	0xbd2f75cd	-0.042836953
82	0xbcfd693c	-0.030933969
83	0x3c1edb98	0.00969591
84	0xbce79678	-0.028269991
85	0x3d1f1e48	0.038847238
86	0xbc1a1d86	-0.009406453
87	0xbd29e04e	-0.04147368
88	0x3c9300f3	0.017944789
89	0xbd0682b9	-0.03283951
90	0xbcd455e7	-0.025919868
91	0xbc17a1ca	-0.009254882
92	0x3d9bd829	0.07609589
93	0x3bfceb5d	0.007718487
94	0x3d65dd31	0.056119148
95	0x3c16e145	0.009208982
96	0x3cf509b0	0.029911846
97	0x3c54aed0	0.012981132
98	0x3c548d21	0.012973101
99	0x3d8515e2	0.064983144
100	0x3b078208	0.002067687
101	0xbc592873	-0.013254273
102	0xbc4e03d0	-0.012574151
103	0xbcf601c5	-0.03003014
104	0x3b3ec182	0.002910704
105	0x3b9c5767	0.0047711614
106	0xbd818e2f	-0.063259475
107	0xbc4351ee	-0.011921389
108	0x3b46a15a	0.0030308575
109	0x3d2ac71c	0.04169379
110	0x3c8caef1	0.017173262
111	0xbce8c07c	-0.028412096
112	0x3b4f896d	0.0031667606
113	0xbd68c4c0	-0.05682826
114	0x3cd1f976	0.025631648
115	0xbcbb176c	-0.022838317
116	0x3cfc8659	0.03082578
117	0x3cdd3bc7	0.027006043
118	0x3aa09bd4	0.0012253472
119	0xbca0b631	-0.019618126
120	0xbd8dc15f	-0.06921648
121	0xbd4c03b3	-0.049808215
122	0xb83771ea	-4.373669e-05
123	0x3c97704c	0.018486165
124	0x3b9261e3	0.0044672354
125	0x3c7b2b6f	0.01533018
126	0xbc5100c5	-0.012756531
127	0xbd1af339	-0.03782961
128	0x3b91f7a2	0.004454569
129	0xbd237e49	-0.039915357
130	0x3d097e8a	0.033567943
131	0xbbfbac69	-0.007680465
132	0x3bcdf753	0.006285587
133	0xbc2e85f1	-0.010652051
134	0x3cb68759	0.022281336
135	0x3bf70bf1	0.0075392653
136	0xbc8301fb	-0.015992155
137	0x3d72b13b	0.05925105
138	0xbb59973d	-0.0033201717
139	0x3cf4306c	0.029808246
140	0xbca778e6	-0.020443391
141	0x3cec8957	0.028874082
142	0xbcedd37d	-0.02903151
143	0x3b9dd93a	0.004817155
144	0x3c5c311a	0.013439441
145	0x3a6495de	0.0008719842
146	0x3c0c7df0	0.008574948
147	0xbbf03b4b	-0.007331287
148	0xbb576ed6	-0.003287246
149	0xbafcab4e	-0.0019277127
150	0xbb11eb2d	-0.002226542
151	0xbd3446f7	-0.04401299
152	0xbdc85489	-0.09781749
153	0x3c937054	0.017997898
154	0xbc7bd532	-0.015370654
155	0x3d11ea62	0.035623915
156	0x3dbdb5ef	0.09263217
157	0x3cd55ccf	0.026045231
158	0xbc088479	-0.008332365
159	0xbcd9008c	-0.026489519
160	0xbd2b8028	-0.041870266
161	0xbd04bcbe	-0.03240656
162	0x3d90cace	0.07069932
163	0xbc6cfd17	-0.014464638
164	0x3ccb63a4	0.024827786
165	0xbb36bc68	-0.0027883295
166	0xbccf2b17	-0.025289102
167	0x3ca4896f	0.020085065
168	0x3d047921	0.03234208
169	0xbd4b75e1	-0.049672965
170	0x3b29e814	0.0025925683
171	0xbcbd8f98	-0.02313976
172	0xb96d2b09	-0.00022618113
173	0x3ca5c7a7	0.020236803
174	0xbcb1ac6b	-0.02168866
175	0xbd4122d7	-0.047152366
176	0x3c5a83eb	0.013337116
177	0xbcf61805	-0.03004075
178	0xbbb38e2b	-0.005479594
179	0xb9860661	-0.00025563224
180	0x3d710135	0.05883904
181	0xbd53eb8e	-0.051738314
182	0xbcd24931	-0.025669666
183	0x39359022	0.00017315199
184	0xbc9fbb7a	-0.019498575
185	0xbc2b8187	-0.010467893
186	0xbb36e8a8	-0.002790967
187	0xbc16a8fc	-0.009195562
188	0x3cfae9f0	0.030629128
189	0xbcc11b74	-0.023572661
190	0x3d5a9150	0.053361237
191	0x3b0273f0	0.001990553
192	0xbd05a203	-0.03262521
193	0x3d988234	0.07446709
194	0x3cc9cc96	0.024633687
195	0xbc733381	-0.014843822
196	0xbd8c4571	-0.068491824
197	0x3bb43e29	0.005500574
198	0x3c5ef8b4	0.0136091
199	0x3d151b1d	0.03640281
200	0x3a159182	0.0005705581
201	0x3cf5f21b	0.030022671
202	0x3d31fb0f	0.04345232
203	0x3c011130	0.007877633
204	0x3d69ceee	0.05708211
205	0xbd6e1eab	-0.058134716
206	0x3da29080	0.079377174
207	0xbbe3cbd2	-0.0069517875
208	0xbcf6320d	-0.030053163
209	0x3daa9ce4	0.08330706
210	0x3c4d786b	0.012540917
211	0x3d4aae4b	0.049482625
212	0xbdae8e81	-0.08523274
213	0xbd81ddd1	-0.06341136
214	0x39a2f5d1	0.00031082195
215	0x3d7096ec	0.05873768
216	0xbbd95887	-0.0066328677
217	0x3b8f30c1	0.0043698256
218	0x3cd1f2d9	0.025628494
219	0x3d6ede7d	0.05831765
220	0xbd4eb313	-0.050463747
221	0x3d22f0c9	0.039780412
222	0xbc40ae87	-0.011760361
223	0x3be79b82	0.0070680985
224	0x3cc411de	0.023934301
225	0x3d0d6e82	0.034529217
226	0x3c7b0a50	0.015322283
227	0xbca41828	-0.02003105
228	0x3cbd089f	0.0230754
229	0xbd193821	-0.037407044
230	0xbd681d16	-0.056668364
231	0xbbd96301	-0.0066341166
232	0xbc2aa0d7	-0.010414324
233	0xbc35a0b6	-0.01108568
234	0xbcb5375b	-0.022121122
235	0xbb9f1567	-0.0048548463
236	0xbb6964d1	-0.003561307
237	0x3bfe4662	0.007759855
238	0x3cc04d3b	0.023474326
239	0xbd42a544	-0.04752089
240	0x3d9d3e10	0.07677853
241	0x3cbd9c5a	0.023145843
242	0x3cc92c83	0.024557358
243	0x3d273398	0.040820688
244	0x3c79cf11	0.015247122
245	0x3d4617c2	0.0483625
246	0x3c50944c	0.012730669
247	0x3cd7d1de	0.02634519
248	0x3bdac89f	0.006676748
249	0x3d6ea11d	0.05825912
250	0xbba44b08	-0.0050138272
251	0xbc234251	-0.0099645415
252	0x3cb93e16	0.022612613
253	0xbb612406	-0.0034353747
254	0xbca2e83e	-0.019886132
255	0x3c864508	0.016390339

159 f4 [128, 128]
0	0x3cd88cca	0.026434321
1	0xbda377a9	-0.07981808
2	0x3cc475e0	0.023981988
3	0xbd825048	-0.06362969
4	0xbc559065	-0.013034915
5	0x3cf4a1e6	0.029862355
6	0x3c95f009	0.018302934
7	0x3c1932f2	0.009350525
8	0xbbad0316	-0.005279909
9	0x3d25b633	0.04045696
10	0x3a90d8e0	0.0011050962
11	0xbbfdc04f	-0.0077438722
12	0xbbaaff5e	-0.0052184304
13	0xbca1873b	-0.019717803
14	0xbb921a65	-0.004458713
15	0x3c93afce	0.018028166
16	0xbbaf8938	-0.005356934
17	0x3d1648a6	0.036690377
18	0xbd3c9d11	-0.046048228
19	0xbbcfdbb6	-0.0063433303
20	0xbbd15db1	-0.0063893427
21	0x3ccaf464	0.024774738
22	0x3bb42972	0.0054981047
23	0xbc42580f	-0.011861815
24	0x3cde98be	0.027172443
25	0xbbfafe47	-0.0076597068
26	0x3ce042ba	0.027375568
27	0xbb22f13a	-0.002486302
28	0x3d362370	0.04446739
29	0x3bb61c57	0.0055575776
30	0xbc347a08	-0.011015423
31	0xbd3d71de	-0.04625117
32	0x3d3b7415	0.045765
33	0x3d0d7c1c	0.034542188
34	0x3ceb8e7d	0.028754467
35	0xbd405a55	-0.046961147
36	0x3cf75859	0.030193495
37	0xbd00f229	-0.031480942
38	0x3ce80e46	0.028327119
39	0x3d0af26f	0.03392261
40	0x3bb9e804	0.0056734104
41	0xbc467e01	-0.012115003
42	0xbbdbbbf9	-0.0067057577
43	0x3ce70ddd	0.028204853
44	0x3d093a98	0.033503145
45	0x3bde171e	0.006777658
46	0x3c54f1d4	0.012997109
47	0x3d42c632	0.047552295
48	0xbd04a1d4	-0.032380894
49	0x3cb8e839	0.02257167
50	0x3c65f996	0.014036557
51	0xbd688c85	-0.056774635
52	0x3cb0115e	0.021492656
53	0x3b4751f7	0.0030413845
54	0xbd2de55e	-0.04245507
55	0xbd827acc	-0.06371078
56	0x3c8b3580	0.016993284
57	0x3b1126b3	0.002214831
58	0x3c51ce03	0.012805465
59	0x3ba14e9e	0.004922702
60	0x3cb41123	0.021980828
61	0x3cede75d	0.029040987
62	0x3a96f8b3	0.001151821
63	0x3d821c1c	0.06353018
64	0x3bbf2496	0.005833219
65	0x3bd193e6	0.0063958047
66	0xbc019f37	-0.007911495
67	0xbcd9213f	-0.02650511
68	0xbc9165ec	-0.017748795
69	0x3b4403d4	0.0029909508
70	0xbc1959eb	-0.009359817
71	0xbce2020a	-0.027588863
72	0x3d028a77	0.03187033
73	0x3a8ce374	0.0010748939
74	0xbb8a41ee	-0.004219285
75	0x3c56e1bf	0.0131153455
76	0x3a365d6f	0.0006956672
77	0x3db35aec	0.08757576
78	0x3cbd552f	0.023111908
79	0xbbd8cdb6	-0.0066163195
80	0xbd3ad194	-0.045610026
81	0xbcc34e63	-0.023841089
82	0xbcba61f1	-0.02275178
83	0xbcc2bd71	-0.023771973
84	0xbba13f03	-0.0049208417
85	0x3ca7f11d	0.020500714
86	0xbc23e29c	-0.010002758
87	0x3c7d04c1	0.015443028
88	0xbba16f5f	-0.0049266065
89	0x3c8307ea	0.015994985
90	0xbcb47c4e	-0.02203193
91	0x3d74d5c9	0.059774194
92	0x3bf00684	0.0073249955
93	0x396d59ca	0.0002263553
94	0xbd0d5063	-0.03450049
95	0xbc039bed	-0.008032781
96	0xbc306738	-0.010766797
97	0xbd4a0a2e	-0.049326114
98	0x3babc327	0.00524177
99	0x3c7d627b	0.015465374
100	0xbcc510cc	-0.024055861
101	0x3d80e6da	0.062940314
102	0xbd0fab45	-0.035075445
103	0x3c1f02cb	0.009705256
104	0xbd2d1205	-0.042253513
105	0x3b88afd2	0.00417135
106	0x3da526f9	0.08064074
107	0xbb916e8b	-0.0044382266
108	0x3d166ff4	0.03672786
109	0x3d0d4abf	0.03449511
110	0xbc588a41	-0.013216556
111	0x3c5b8c0d	0.01340009
112	0x3d359a0b	0.04433636
113	0xbb61ce22	-0.003445514
114	0xbc863f60	-0.016387641
115	0x3bb2069f	0.005432918
116	0xbbb6112f	-0.0055562477
117	0xbb93401e	-0.0044937273
118	0xbd26cb58	-0.040721267
119	0xbc6d8aea	-0.014498452
120	0xbbfc3919	-0.0076972363
121	0xbc79eb0d	-0.015253794
122	0xbc14ada2	-0.0090746
123	0x3b9e66fe	0.004834055
124	0xbcab8e7e	-0.020941969
125	0x3d19b456	0.037525497
126	0xbc58d700	-0.013234854
127	0xbd30f7b3	-0.043204974
128	0xbd321109	-0.043473277
129	0x3c39c69a	0.011338854
130	0x3c3e19b3	0.011602807
131	0xbcbc4f12	-0.022986922
132	0x3c9b6692	0.018969808
133	0xbd149e62	-0.036283858
134	0xbd29acdf	-0.04142463
135	0xbcad924b	-0.021187922
136	0x3c1413a1	0.009037883
137	0x3ccc9e5c	0.024977855
138	0xbc8293d0	-0.015939623
139	0xbb03a8ed	-0.0020089701
140	0x3b710d5d	0.0036781647
141	0xbd8442d9	-0.06458063
142	0xbca79c09	-0.020460146
143	0x3bab20f9	0.0052224365
144	0x3cd46137	0.025925262
145	0xbbb23d0c	-0.0054394063
146	0x3c8ed444	0.0174352
147	0x3c93fc26	0.01806457
148	0x3c4473b1	0.011990474
149	0xbd2015a6	-0.039083146
150	0x3c9c023d	0.019044036
151	0x3d1dfcd9	0.038571212
152	0x3cb459bf	0.02201545
153	0x3d84b9b8	0.064807355
154	0x3d68bbac	0.056819603
155	0x3d2eb009	0.04264835
156	0x3d818113	0.06323447
157	0x3c3dd1df	0.011585682
158	0x3d20c532	0.03925056
159	0xbc1a30b8	-0.0094110295
160	0x3cc7e4b9	0.024401056
161	0xbbdb0711	-0.006684192
162	0xbc91eebd	-0.017814035
163	0xbd0a6927	-0.033791687
164	0x3d0721d9	0.032991264
165	0xbb9e012c	-0.004821917
166	0xbc2ddb2d	-0.010611338
167	0x3d1c3061	0.038132075
168	0x3dd22335	0.102606215
169	0xbc33da4a	-0.010977337
170	0xbc415cd5	-0.011801918
171	0xbd232186	-0.039826892
172	0xbd0162ac	-0.03158824
173	0xbcba461d	-0.02273851
174	0xbd154dfe	-0.036451332
175	0xbcbaa713	-0.022784745
176	0xba3521ce	-0.00069096393
177	0x3cd69adf	0.026196895
178	0x3d0652a9	0.032793675
179	0x3d3696c5	0.04457738
180	0x3d72421a	0.05914507
181	0x3d070164	0.03296031
182	0x3b413626	0.0029481738
183	0x3b3976a7	0.0028299482
184	0x3b390585	0.002823205
185	0x3d03be36	0.03216382
186	0x3c80cf52	0.015723858
187	0xbcf2bd00	-0.029631138
188	0xbcc59cf8	-0.0241227
189	0x3cacc1b1	0.021088453
190	0xbd18ed3d	-0.037335623
191	0xbc95051d	-0.018190915
192	0xba02b1d3	-0.00049856043
193	0xbd5e2c02	-0.054241188
194	0x3c9648e3	0.018345302
195	0xbb8db771	-0.0043248464
196	0xbd0af5d2	-0.03392584
197	0xbd32deff	-0.043669697
198	0x3b27ae00	0.002558589
199	0x3b81d234	0.0039618257
200	0xbd80de18	-0.06292361
201	0xbd388e08	-0.045057327
202	0x3c52c5c0	0.01286453
203	0x3c4acdfa	0.01237821
204	0x3c84a3d7	0.016191406
205	0xbd1a91e6	-0.037736796
206	0xbd90ff72	-0.07079972
207	0xbc987810	-0.018611938
208	0x3a8a31b2	0.0010543375
209	0x3d0f79c7	0.035028245
210	0x3c8a6d1c	0.01689773
211	0x3c80c4e2	0.015718881
212	0x3d0382ea	0.03210727
213	0x3b022f12	0.0019864482
214	0xbcc329a3	-0.023823565
215	0xbd212e4c	-0.039350793
216	0xbd4cf5e2	-0.05003918
217	0x3d912528	0.07087165
218	0x3cdd022a	0.026978571
219	0x3b065283	0.0020495958
220	0xbd163cc6	-0.03667905
221	0xbd0f732e	-0.035021953
222	0xbcb715ce	-0.022349264
223	0xbd363287	-0.04448178
224	0x3c690000	0.014221191
225	0xbc07ec9f	-0.008296161
226	0xbc11c609	-0.008897313
227	0xbb6146de	-0.0034374516
228	0x3d0aacd4	0.033856228
229	0x3c3bb952	0.011457758
230	0x3d4f0622	0.050542958
231	0x3c5b07b9	0.01336854
232	0x3cf57f1c	0.029967837
233	0xbc342e26	-0.010997331
234	0x3d3ae8ae	0.045632057
235	0xbccc3d04	-0.024931438
236	0xbd78ecb9	-0.06077263
237	0xbd2e26e9	-0.042517576
238	0x3ccf735a	0.025323559
239	0x3d08c746	0.033393167
240	0xbcac9aaa	-0.021069843
241	0x3cab0290	0.020875245
242	0xbaea1de1	-0.0017861688
243	0xbc2517ae	-0.010076446
244	0x3d5eb06c	0.054367468
245	0x3d453488	0.0481458
246	0xbc464702	-0.0121018905
247	0xbb720e87	-0.0036934929
248	0xbc9c2888	-0.019062296
249	0xbc384b7c	-0.011248466
250	0x3c016133	0.007896709
251	0x3c30ff4a	0.010803053
252	0x3d12acfc	0.035809502
253	0x3c9e9037	0.019355876
254	0x3c49ec94	0.012324471
255	0xbced602f	-0.028976528

160 f4 [128, 128]
0	0x3d2568ce	0.040383153
1	0xbd19af81	-0.03752089
2	0xbd1b8500	-0.037968636
3	0xba9e89fb	-0.0012095565
4	0x3d609a12	0.054834433
5	0x391db465	0.00015039889
6	0xbce391f3	-0.027779555
7	0xbd062907	-0.03275397
8	0x3d36a556	0.04459127
9	0xbd28dfeb	-0.04122917
10	0xbd7c346b	-0.061573427
11	0x3cae4fff	0.02127838
12	0xbc61283c	-0.013742503
13	0x3cdf8f9b	0.027290156
14	0xbd2e80a9	-0.04260317
15	0xbc100ea4	-0.008792553
16	0xbc36fe09	-0.011168965
17	0x3c649b99	0.013953113
18	0xbbfa320c	-0.0076353606
19	0xbcd25a53	-0.025677836
20	0x3aa6ab13	0.0012715779
21	0x3c34dfbb	0.01103967
22	0xbc863248	-0.016381398
23	0x3b5f1495	0.0034039367
24	0xbd7b0771	-0.061286394
25	0xbca4923c	-0.020089261
26	0x3cb37969	0.021908479
27	0x3d076af3	0.03306098
28	0x39f1037d	0.000459697
29	0xbd61fb73	-0.05517144
30	0xbca99130	-0.020699114
31	0xbd216303	-0.039401066
32	0xbc869ba3	-0.016431635
33	0x3c76e4ba	0.015069181
34	0x3b2f5a18	0.002675658
35	0x3d271e1c	0.0408002
36	0xbcce7b3c	-0.025205247
37	0x3cd9d777	0.026592
38	0x3ca22466	0.019792747
39	0xbcc37e5e	-0.023863968
40	0xbc952c3c	-0.01820957
41	0xbccfbaa2	-0.025357548
42	0x3d64bbc8	0.055843145
43	0xbb26e719	-0.0025467335
44	0x3a5ec23f	0.0008497573
45	0xbcec919a	-0.028878022
46	0x3d097e88	0.033567935
47	0x3ce5429d	0.027985865
48	0xbccaef7a	-0.024772394
49	0x3ce1e796	0.02757625
50	0xbd89e3f2	-0.0673293
51	0xbd801fc2	-0.06256057
52	0xbc26b68e	-0.01017536
53	0x3c86d3f7	0.016458495
54	0xbd1301b4	-0.035890296
55	0xbaa2abe4	-0.0012410847
56	0x3b6e8e88	0.0036400873
57	0xbc3b31da	-0.01142546
58	0xbceaab72	-0.028646205
59	0xbd047ace	-0.03234368
60	0x3d3541d9	0.04425225
61	0x3cc5e452	0.024156723
62	0x3c1b6e53	0.009486753
63	0xbd829ea4	-0.063779145
64	0xbd4a3196	-0.049363695
65	0xbc546313	-0.012963074
66	0xbca3d31e	-0.01999813
67	0x3cfc8cda	0.030828882
68	0x3d28d041	0.04121423
69	0xbd013ed4	-0.03155406
70	0x3cc158b0	0.02360186
71	0x3d56020c	0.052248046
72	0xbc25126a	-0.010075191
73	0x3ad416a9	0.001618107
74	0x3c464d0d	0.012103331
75	0x3c12e84f	0.0089665195
76	0x3cd07d78	0.025450453
77	0x3c4cd6e1	0.012502403
78	0xbcd2bdda	-0.025725294
79	0xbb81685b	-0.0039492077
80	0x3d588335	0.052859504
81	0xbcc69b70	-0.02424404
82	0xbc7cd1ff	-0.015430926
83	0xbd5cfba3	-0.053950917
84	0x3ca0cef5	0.019629935
85	0x3b8ff005	0.004392626
86	0x3c1e171f	0.009649067
87	0x3b7cef85	0.0038594913
88	0xbc54e554	-0.012994129
89	0x3c8bb51b	0.017054131
90	0x3cd7c899	0.02634077
91	0x3cdd2ea6	0.026999783
92	0xbca00be5	-0.019536922
93	0x3ccfa9d2	0.025349531
94	0xbd11becb	-0.035582345
95	0xbd6ac4e2	-0.05731667
96	0x3cfca287	0.030839218
97	0xbc139e48	-0.009009905
98	0xbcdd118a	-0.026985902
99	0x3c0c83b5	0.008576323
100	0xbcbbd0ce	-0.022926714
101	0xbc8b53f0	-0.017007798
102	0xbc4222db	-0.0118491305
103	0x3c850174	0.016236044
104	0xbc68fd39	-0.014220529
105	0x3c8e796f	0.017391888
106	0xbc297cde	-0.010344712
107	0x3d7bf01a	0.061508276
108	0x3cfa3e2c	0.030547224
109	0x3c1850d9	0.009296619
110	0xbb36372f	-0.0027803888
111	0x3afb2653	0.0019161202
112	0x3c478884	0.012178544
113	0x3bd0c44d	0.006371057
114	0x3c157b27	0.0091236
115	0xbb110119	-0.0022125898
116	0xbce07607	-0.02740003
117	0x3d9300cd	0.07177887
118	0xbb3f2e3f	-0.0029171852
119	0x3c7766ed	0.015100223
120	0xbd748577	-0.059697594
121	0x3d601619	0.054708574
122	0x3d4938a7	0.049126294
123	0xbc11c347	-0.008896655
124	0xb78dfb87	-1.6925636e-05
125	0x3cd3ad70	0.025839537
126	0xbc4d3b44	-0.012526337
127	0xbc0310ad	-0.007999581
128	0x3d4f4333	0.050601196
129	0xbbe055c0	-0.0068461597
130	0x3d33d24c	0.043901727
131	0x3c4a0916	0.012331268
132	0xbd8ca120	-0.0686667
133	0x3c6c8350	0.014435604
134	0xbbc1f311	-0.0059188684
135	0x3c84a223	0.016190594
136	0xbc6be912	-0.01439883
137	0xbd640c5e	-0.055675857
138	0x3b92b0bf	0.004476636
139	0x3b5c7d2c	0.0033643944
140	0xbc406447	-0.011742658
141	0xbd533ad6	-0.051569782
142	0x3d25ec77	0.040508714
143	0x3b974c3f	0.0046172435
144	0xbcc877a9	-0.02447112
145	0x3d282a1b	0.04105578
146	0x3cd0969f	0.025462447
147	0x3c1d4644	0.009599272
148	0xbc767bec	-0.015044194
149	0x3d0e1b3a	0.034693934
150	0x3cb37e78	0.021910891
151	0x3c203b16	0.009779712
152	0xbce1e1d0	-0.027573496
153	0x3cad4bb2	0.021154258
154	0xbcb6b288	-0.022301927
155	0xbb61f434	-0.0034477832
156	0x39456ea3	0.000188286
157	0xbcfaef3a	-0.03063165
158	0x3ce93d08	0.028471485
159	0x3bd638a7	0.006537515
160	0x3cebf065	0.028801152
161	0xbc90e80e	-0.017688777
162	0x3c21a274	0.009865392
163	0xbda19da2	-0.07891394
164	0xbcf5e14c	-0.030014656
165	0xbdafd9bb	-0.08586451
166	0xbb3dcd74	-0.002896157
167	0xbcea0975	-0.028568963
168	0x3d48b6eb	0.04900257
169	0xbc7e90c3	-0.015537444
170	0xbb4d2c09	-0.0031306765
171	0xbc36dc9c	-0.011160996
172	0xbd3459c7	-0.04403093
173	0x3c66277a	0.014047498
174	0xbd157ff2	-0.03649897
175	0xba83b9bc	-0.001004986
176	0x3ab33733	0.0013673067
177	0x3c0f6310	0.008751646
178	0x3c8e18ba	0.017345775
179	0x3d119c74	0.035549596
180	0xbb904a15	-0.0044033625
181	0xbc2c23b0	-0.010506555
182	0x3d43df05	0.04782011
183	0x3d61aac2	0.055094488
184	0xbc7fe0ec	-0.01561759
185	0x3d422d55	0.047406513
186	0xbc9b7058	-0.018974468
187	0xbbc48acd	-0.0059979917
188	0x3c201554	0.00977071
189	0xbc453f67	-0.012039042
190	0xbb9043c4	-0.0044026095
191	0x3d1bf7c8	0.0380781
192	0xbc35cb95	-0.011095901
193	0xba2b0470	-0.00065237936
194	0xbd1452df	-0.036211845
195	0xbb141498	-0.0022595283
196	0xbd97dec5	-0.07415537
197	0x3cbbe970	0.02293846
198	0x39aac0bb	0.00032568522
199	0x3c71a10b	0.014747868
200	0xbc9f1d63	-0.019423192
201	0xbbe5d520	-0.007013932
202	0xbbc80d90	-0.0061051324
203	0x3d36a1e9	0.044588003
204	0x3cb98e79	0.022650944
205	0xbbe5c189	-0.0070115966
206	0x3cc1f41c	0.02367597
207	0x3d08ef2c	0.033431217
208	0xba6ecbb2	-0.00091093325
209	0x3c02adfa	0.00797605
210	0x3c2a5cea	0.010398129
211	0xbbab6e54	-0.005231658
212	0x3d9b1dae	0.0757402
213	0x3c540b07	0.012942082
214	0xbd4232d9	-0.047411773
215	0x3c95778c	0.018245481
216	0xbd1e6880	-0.038673878
217	0x3cff092a	0.0311323
218	0xbb41ec14	-0.0029590176
219	0xbcf3091f	-0.029667435
220	0xbc8aa381	-0.016923668
221	0xbd36498d	-0.044503737
222	0x3c4227e3	0.01185033
223	0x3c4bd5dc	0.012441125
224	0xbc3a9690	-0.011388436
225	0x3cb1433b	0.021638503
226	0x3d48ca37	0.049020972
227	0x3c69d20a	0.014271269
228	0x3d5c7f60	0.05383241
229	0x3d21a04a	0.039459504
230	0x3d3b9766	0.04579868
231	0x3d7008e6	0.058602236
232	0x3ce77c83	0.028257614
233	0x3bdd1d6b	0.0067478917
234	0xbcdc8e7b	-0.026923409
235	0xbc2863c5	-0.010277693
236	0xbd8cbe0f	-0.06872188
237	0xbc2f2532	-0.01069002
238	0xbc6b47ca	-0.014360378
239	0x3d853b3c	0.06505439
240	0x3bf84fee	0.0075778877
241	0x3b0dfd44	0.002166585
242	0xbd5ceaef	-0.053934988
243	0xbc139f85	-0.0090102
244	0x3cc64aa0	0.024205506
245	0x3cb64b7f	0.022252796
246	0xbc25ca81	-0.0101190815
247	0x3d82e828	0.063919365
248	0xbcf58c2d	-0.029974068
249	0x3d06c4d4	0.032902554
250	0xbaa151ee	-0.0012307742
251	0x3cda4d5d	0.026648218
252	0xbc045605	-0.008077149
253	0x3d4cb3ac	0.049976036
254	0xbcdbef82	-0.026847605
255	0x3b995d13	0.0046802848

action_model._continuous_distribution.mu.weight f4 [1, 128]
0	0x3c9a4f86	0.018836748
1	0xbaa93c3a	-0.0012911626
2	0xbc0fd20b	-0.0087781055
3	0xbc9941c1	-0.018708112
4	0xbc73900f	-0.014865889
5	0x3ac7545a	0.0015207634
6	0xbd030237	-0.031984534
7	0xba8adc13	-0.0010594152
8	0x3bbbddb3	0.0057332157
9	0xbc4ef032	-0.012630509
10	0xbcd613cc	-0.026132487
11	0xbc590766	-0.013246393
12	0x3d0eaa0e	0.034830146
13	0x3a2ccea6	0.00065920723
14	0xbb0876bb	-0.0020822722
15	0xbc039556	-0.00803121
16	0xb9acdcff	-0.0003297105
17	0xba611400	-0.0008586049
18	0xbb867a55	-0.0041039386
19	0xbc46fe1b	-0.012145544
20	0x3ba57e40	0.0050504506
21	0x3c424416	0.011857053
22	0xbc8a7334	-0.016900636
23	0xbd03110f	-0.03199869
24	0xb9db8e39	-0.000418769
25	0x3d01e8d3	0.03171618
26	0xbaa71c39	-0.00127495
27	0x3afb444d	0.0019170135
28	0x3af1abd0	0.0018438045
29	0xbbc56ac3	-0.00602469
30	0xbc10b2de	-0.008831708
31	0x3c949e68	0.01814194
32	0xbcb6dcba	-0.022322048
33	0x3c85f746	0.01635326
34	0x3d29007c	0.041260228
35	0xbbdb5aaf	-0.00669416
36	0x3c81c6ed	0.015841926
37	0x3a1fa269	0.00060895697
38	0xbb531df2	-0.0032213894
39	0xbcd9f35d	-0.026605302
40	0x3bf1fd86	0.0073849587
41	0x3cf3ec93	0.029775893
42	0x3c858054	0.016296543
43	0x3c380344	0.011231247
44	0xbcdbfa5c	-0.02685278
45	0xbc8723a2	-0.016496483
46	0xbb197237	-0.0023414025
47	0xbc1eb220	-0.009686023
48	0x3bce0d06	0.0062881736
49	0xbc9af4ed	-0.018915618
50	0x3b6920da	0.003557256
51	0xbc781ca1	-0.015143544
52	0x3caf5eef	0.021407573
53	0xbbae2c32	-0.005315327
54	0x3bda4ef5	0.0066622444
55	0xbc826084	-0.015915163
56	0xbb08b347	-0.002085881
57	0x3d29a4d0	0.041416943
58	0xb9528fc8	-0.00020080723
59	0x3c10dd16	0.0088417735
60	0x3d113959	0.03545508
61	0x3cee5db1	0.02909741
62	0xb9a952b2	-0.00032295805
63	0xbd0a577f	-0.03377485
64	0x3c6380e2	0.0138857085
65	0x3c373826	0.01118282
66	0xbbe27e9b	-0.006912065
67	0x3cb7a10e	0.022415664
68	0xbc9f5c97	-0.01945333
69	0xbc91fa05	-0.017819414
70	0xbc60dd99	-0.013724708
71	0xbbf6b039	-0.0075283316
72	0xbc4010a1	-0.011722715
73	0xbc958335	-0.018251041
74	0xbbb03d9f	-0.0053784396
75	0xbd17a660	-0.037023902
76	0x3cac10a3	0.021004027
77	0x3ba5d113	0.005060324
78	0x3ab6ff75	0.001396163
79	0xbceccca0	-0.028906167
80	0x3b9ee6f8	0.004849311
81	0x3bf16e0a	0.007367854
82	0x3c5fde50	0.013663843
83	0xbcb0431a	-0.021516372
84	0x3c6473a6	0.013943588
85	0xbc211efc	-0.009834047
86	0xbb94a477	-0.0045362073
87	0x3b228a62	0.002480172
88	0x3cf9a42b	0.03047379
89	0x3d0a3867	0.033745196
90	0x3c3ac6e1	0.0113999555
91	0xbd44a1ed	-0.048005987
92	0x3cb5f92a	0.022213537
93	0xbc9507a8	-0.018192127
94	0xbc9a5bf8	-0.018842682
95	0xbc59b0da	-0.013286794
96	0xbc1ed67d	-0.009694693
97	0xbaad2cb0	-0.001321217
98	0x3b9c0807	0.004761699
99	0x3cade865	0.021228978
100	0xbbefa133	-0.0073129176
101	0xbd2e9bf7	-0.04262921
102	0xbc26f82c	-0.010191005
103	0x3bcecaec	0.0063108113
104	0xbc337ab2	-0.010954546
105	0xbbe389b8	-0.0069439076
106	0x3a86783a	0.0010259219
107	0x3b784551	0.0037883113
108	0x3ba0a5c5	0.004902574
109	0x3c4925b7	0.012277058
110	0xbcdb7cb6	-0.026792865
111	0x3ba60264	0.005066203
112	0x3c7bb69b	0.015363361
113	0xbc30c3bd	-0.010788855
114	0xbcdfc110	-0.027313739
115	0xba37229a	-0.0006986052
116	0x3cf87193	0.030327594
117	0xbc845482	-0.016153578
118	0x3c2a8bc5	0.0104093
119	0xbc4f3980	-0.012647986
120	0xba821c3f	-0.0009926631
121	0x3bc671e8	0.006056059
122	0x3cb5ec7f	0.022207497
123	0xbad0b6d0	-0.0015923623
124	0xbc89baf7	-0.016812785
125	0xbc0d21b1	-0.00861399
126	0xbc3eaf3b	-0.011638458
127	0x3d158b44	0.036509767

network_body._body_endoder.seq_layers.0.bias f4 [128]
0	0x3b24d7e4	0.0025153095
1	0x3b6cf5af	0.003615718
2	0xba51af2e	-0.0007998821
3	0xbbea5d6d	-0.0071522505
4	0xb94938a8	-0.0001918996
5	0x399de696	0.00030117173
6	0xbc09f452	-0.008420067
7	0x3af3b45a	0.0018593178
8	0xbae494bc	-0.0017439346
9	0xbb2a8d60	-0.0026024207
10	0x3aff33f6	0.0019470442
11	0xbbd867a2	-0.006604151
12	0xbb8a7c97	-0.004226278
13	0x39a394ae	0.00031200558
14	0xbb7fec6e	-0.0039050835
15	0x3c4a3540	0.012341797
16	0x3a3c82a4	0.0007191098
17	0xbc047e50	-0.008086756
18	0x39a90de8	0.00032244553
19	0xbb9f3a15	-0.004859219
20	0x3b42d2b4	0.002972764
21	0xbb7d242b	-0.0038626294
22	0xbb881dd7	-0.004153948
23	0x39c262e7	0.00037076251
24	0xbb5900ac	-0.0033111973
25	0xbb97b934	-0.004630232
26	0xbb747618	-0.0037301835
27	0xbc1ad120	-0.009449273
28	0xbb6976f0	-0.003562387
29	0xbaaa683b	-0.0013001034
30	0xba3f1586	-0.0007289279
31	0xbb68e581	-0.0035537186
32	0xbba60961	-0.005067036
33	0xbc124242	-0.00892693
34	0xbc144f5a	-0.009052122
35	0xbba3565f	-0.0049846615
36	0xbbc6729b	-0.0060561425
37	0x3b0548cb	0.0020337577
38	0x39825ec9	0.00024866153
39	0x3ae14267	0.0017185927
40	0xbc76ba4c	-0.015059065
41	0x3b13849f	0.0022509468
42	0xba1db983	-0.0006016718
43	0x38aaafbf	8.138967e-05
44	0xbb85f499	-0.004087996
45	0xbab1f8a6	-0.0013578131
46	0x3b9d4f8a	0.0048007416
47	0xbb41094d	-0.0029455007
48	0xbb38e555	-0.0028212864
49	0xbacf7a7a	-0.0015829348
50	0x3accb259	0.0015617117
51	0xbbd20455	-0.006409208
52	0xbba3b7bb	-0.0049962676
53	0xbaf09111	-0.001835378
54	0xbb021466	-0.0019848584
55	0x3aed6a53	0.0018113352
56	0xbb62c23a	-0.0034600631
57	0xbb4ec1af	-0.003154855
58	0x3ae879e7	0.0017736525
59	0xbad59990	-0.0016296376
60	0xba371b47	-0.00069849606
61	0xbb6a3782	-0.0035738652
62	0xbc0a8965	-0.008455609
63	0xbb3ad4b8	-0.0028508138
64	0x3b26ea58	0.002546927
65	0xba68731f	-0.0008867252
66	0xbb249c96	-0.0025117747
67	0x3b9c10e5	0.004762756
68	0x3aef29ce	0.0018246712
69	0x3b7c9929	0.003854344
70	0x3a264d5a	0.0006343924
71	0x3b0e70a2	0.0021734615
72	0x3b1ce576	0.002394048
73	0x3b13219d	0.0022450455
74	0xbbc329de	-0.0059559187
75	0xbb952c14	-0.0045523737
76	0xbbcab766	-0.0061864136
77	0xba935da9	-0.0011243123
78	0xbb2f95c0	-0.0026792139
79	0xbb96ca86	-0.0046017794
80	0x3b143c1e	0.002261884
81	0xbc31e187	-0.010856993
82	0x3b0acd09	0.002117934
83	0x3bc19966	0.005908179
84	0xbaa45b24	-0.0012539369
85	0xbb6dca05	-0.0036283743
86	0x3ba7a119	0.00511564
87	0x3add658d	0.0016891226
88	0xba24fdde	-0.00062939327
89	0x3b3f0245	0.002914564
90	0x395dc630	0.00021150033
91	0x3bd18624	0.0063941646
92	0x3b84b729	0.0040501547
93	0x3b883da5	0.004157739
94	0xbb8acc07	-0.0042357477
95	0xba3b30f6	-0.00071407796
96	0xbb251129	-0.002518723
97	0x3b26aa2b	0.0025431018
98	0xbb97234e	-0.004612363
99	0xbb1470e3	-0.0022650294
100	0x399fee35	0.0003050432
101	0xbb4fe675	-0.0031723056
102	0x3b439dc1	0.0029848667
103	0xbbb01fd2	-0.005374887
104	0x38f79d06	0.00011807126
105	0xba76b7a5	-0.00094115204
106	0xbbae9c68	-0.0053287037
107	0xbb767f47	-0.0037612484
108	0x38aae84c	8.1495e-05
109	0x3adfaf19	0.0017065733
110	0xbb9698bc	-0.004595844
111	0x3b85323f	0.0040648277
112	0xbc0c3541	-0.008557619
113	0xbb990a04	-0.0046703834
114	0x3b8eeb3d	0.0043615387
115	0x3b5e3220	0.0033904389
116	0xba07ab58	-0.00051753735
117	0xba96bea1	-0.0011500904
118	0xbad44df1	-0.0016197545
119	0xbb5b0135	-0.0033417467
120	0xbbdea18c	-0.00679416
121	0xbb3b4aaa	-0.0028578439
122	0x3b266b6b	0.0025393616
123	0xbb857656	-0.0040729446
124	0xbbf1826f	-0.007370285
125	0xbb0fe489	-0.0021956286
126	0xbba3d8db	-0.0050002164
127	0x3b34deb6	0.0027598566

network_body._body_endoder.seq_layers.0.weight f4 [128, 134]
0	0x3db8de41	0.090267666
1	0x3dc65351	0.0968386
2	0xbd97ac00	-0.07405853
3	0x3c7a09ce	0.015261127
4	0x3cade0e9	0.02122541
5	0x3dae0027	0.08496123
6	0xbd78813f	-0.060670134
7	0x3c692f67	0.014232493
8	0xbdf35a0a	-0.11882408
9	0x3da67332	0.081274405
10	0x3df9f2ff	0.12204551
11	0xbdeec6b6	-0.11658995
12	0xbcc11292	-0.023568425
13	0xbdab5806	-0.083663985
14	0xbd103da5	-0.03521504
15	0xbe1b9428	-0.15193236
16	0x3d77e06c	0.06051676
17	0xbb2a5856	-0.0025992594
18	0xbddf642e	-0.1090778
19	0x3ddab9d8	0.10679978
20	0xbbaef00f	-0.005338676
21	0x3cdbe2c7	0.026841534
22	0x3b0c89d9	0.0021444468
23	0xbe4b21c5	-0.19837101
24	0x3dee274e	0.116285905
25	0x3d53d56f	0.051717218
26	0x3a1ada95	0.0005907205
27	0xbd40fd68	-0.047116667
28	0x3d60dde5	0.054899115
29	0x3cb9be27	0.02267368
30	0xbd16d1ac	-0.036821052
31	0x3c91580a	0.017742176
32	0xbe99e3b5	-0.3005654
33	0xbd32a9a8	-0.043618828
34	0xbe009844	-0.12558085
35	0xbda34a46	-0.07973151
36	0x3e036710	0.12832284
37	0x3e1bc53d	0.15211959
38	0xbdc3e3e8	-0.09564954
39	0xbdfbd383	-0.12296202
40	0x3e0c8eb1	0.13726307
41	0xbdc1787e	-0.0944681
42	0xbd8fd6c6	-0.07023387
43	0x3d8f56a6	0.06998949
44	0xbd0450fe	-0.032303803
45	0xbe051a4e	-0.12998316
46	0x39ad2b89	0.00033029568
47	0x3ce3753a	0.027765859
48	0xbd2e0c8a	-0.042492427
49	0x3cfa4dc2	0.030554656
50	0x3d2ec5ff	0.042669293
51	0xbc049369	-0.008091786
52	0x3db7b4bd	0.0897002
53	0x3d774454	0.060367897
54	0x3d87248f	0.0659877
55	0xbd610129	-0.054932747
56	0xbe1f75f0	-0.15572333
57	0x3bba8e87	0.00569326
58	0xbcfe2c82	-0.031027082
59	0xbcb79d98	-0.022414014
60	0xbd460df5	-0.048353154
61	0xbe1173ce	-0.14204332
62	0x3e2df1bc	0.16986746
63	0xbe28f867	-0.16501008
64	0xbe48d687	-0.19613086
65	0x3d89d1d2	0.06729473
66	0x3b8bc40f	0.0042653154
67	0x3d5292ae	0.051409416
68	0x3d9379a5	0.07200936
69	0xbcd68d53	-0.026190436
70	0xbc64f695	-0.013974805
71	0x3b8cdc55	0.0042987266
72	0x3de48a88	0.11159235
73	0xbda33c17	-0.079704456
74	0xbe3831c4	-0.17987734
75	0x3d82856d	0.06373105
76	0xbd89fc14	-0.06737533
77	0xbc1ce694	-0.0095764585
78	0xba08485c	-0.00051987707
79	0xbcaeec29	-0.021352844
80	0xbd3ab174	-0.04557939
81	0xbd669e89	-0.056303535
82	0xbc89e385	-0.016832123
83	0xbdb51290	-0.08841431
84	0x3bdc6916	0.0067263944
85	0xbd08de61	-0.033415202
86	0x3df4ff45	0.11962751
87	0xbd9d0df6	-0.076686785
88	0xbdd65fc4	-0.104674846
89	0x3c96b663	0.018397516
90	0x3d48f263	0.049059283
91	0x3dc47090	0.09591782
92	0x3d1678b7	0.036736216
93	0x3ccfb1c2	0.025353316
94	0x3c007408	0.007840164
95	0xbbcfcc42	-0.006341488
96	0x3d812d99	0.06307525
97	0xbd901a5a	-0.07036276
98	0x3deecc5f	0.116600744
99	0x3dcd89d9	0.10036058
100	0x3dea00a5	0.11425904
101	0x3ca3f3b2	0.020013664
102	0xbdb830d6	-0.0899369
103	0x3cd392e2	0.025826875
104	0x3d5c7367	0.053820994
105	0xbcd2d956	-0.0257384
106	0x3cc68c4c	0.02423682
107	0x3d9384d7	0.072030716
108	0xbd2bfcfd	-0.041989315
109	0x3d0e5bd5	0.034755547
110	0xbe2818b8	-0.1641568
111	0xbe3c90eb	-0.18414657
112	0xbd8bfb92	-0.068350926
113	0x3d5d7c38	0.054073542
114	0x3d0c2e7d	0.034224022
115	0x3cc38e64	0.023871608
116	0x3dcfd4c9	0.101480074
117	0x3c8ad170	0.01694557
118	0x3c67f6b1	0.014157937
119	0x3d99ce7f	0.07510089
120	0x3daacc20	0.08339715
121	0xbde2e437	-0.11078685
122	0xbc2c9d79	-0.010535591
123	0xbcbf143e	-0.023325082
124	0xbc33ae82	-0.010966899
125	0x3c01e2b6	0.007927587
126	0x3e56cc28	0.20976317
127	0xbe0fb94b	-0.14035527
128	0x3d5f3c95	0.054501135
129	0x3cadefdc	0.021232538
130	0xbdc6b40b	-0.09702309
131	0x3dc46265	0.0958908
132	0x3d816fb7	0.06320136
133	0xbe5a7151	-0.2133229
134	0x3daca484	0.08429816
135	0x3b56acad	0.0032756731
136	0x3e2b5c62	0.1673446
137	0x3d47413c	0.048646197
138	0x3d5f31d5	0.054490883
139	0x3d927290	0.07150757
140	0x3c808bcf	0.015691666
141	0xbc86a5f6	-0.016436558
142	0xbe086efa	-0.13323584
143	0xbbffd596	-0.007807444
144	0x3e514403	0.204361
145	0xbd78a13d	-0.060700644
146	0xbe1b1e5b	-0.15148298
147	0xbd012f6c	-0.031539366
148	0x3dea1232	0.11429252
149	0x3b9f8d90	0.0048691705
150	0xbc3a6e72	-0.011378871
151	0xbc381e64	-0.011237714
152	0x3e0fd560	0.1404624
153	0x3defd942	0.117113605
154	0xbe3fce5e	-0.18731067
155	0xbd8f8ad3	-0.070089005
156	0xbd0823c7	-0.033237245
157	0x3d8ea301	0.06964684
158	0xbe72a77c	-0.23696703
159	0xbd1ceef5	-0.038313825
160	0x3d2bca58	0.041941017
161	0xbd8a32f9	-0.067480035
162	0x3df37f03	0.1188946
163	0x3e14e491	0.14540316
164	0x3e03f540	0.12886524
165	0xbdbcfdb0	-0.092280746
166	0x3e01e0db	0.12683432
167	0x3d494329	0.049136315
168	0x3d7243d0	0.059146702
169	0x3c7b2303	0.015328172
170	0xbdca47ba	-0.09876962
171	0xbcd99c4e	-0.02656379
172	0x3cf5a1f9	0.029984461
173	0x3bc133e0	0.0058960766
174	0xbcbc579a	-0.02299099
175	0xbda65ca1	-0.08123136
176	0xbd1f67c5	-0.03891732
177	0xbd08b5c8	-0.033376485
178	0x3de06d27	0.10958319
179	0x3d94659c	0.07245943
180	0x3d622b50	0.055217087
181	0x3d952fe5	0.07284526
182	0xbd6abadc	-0.05730711
183	0xbd96a03e	-0.073547825
184	0xbde2941b	-0.11063405
185	0xbc7f3b1c	-0.015578058
186	0xbdd75373	-0.105139636
187	0xbe0c4647	-0.13698684
188	0xbd81053e	-0.06299828
189	0x3d0b82e0	0.03406036
190	0xbc27fa74	-0.010252584
191	0x3cc96583	0.024584537
192	0xbd360b5b	-0.044444423
193	0xbdc9ee01	-0.09859849
194	0x3d14c364	0.03631915
195	0xbd7ce069	-0.06173745
196	0xbd5ec684	-0.054388538
197	0x3d7671a3	0.060166966
198	0x3c962821	0.018329682
199	0xba71b405	-0.00092202454
200	0xbcf248a1	-0.029575648
201	0xbdb5190f	-0.0884267
202	0xb9f0d305	-0.0004593359
203	0x3d3e2441	0.046421293
204	0xbda2ea8f	-0.07954895
205	0x3e1bf44f	0.15229915
206	0x3db86e0c	0.09005365
207	0x3e50038e	0.20313856
208	0x3cc70484	0.024294145
209	0xbd637b3e	-0.055537455
210	0xbd3a3345	-0.04545905
211	0x3e5e25df	0.21694134
212	0xbd8fe76f	-0.07026564
213	0xbe0c4aac	-0.1370036
214	0xbcb87873	-0.022518372
215	0xbda85a56	-0.08220355
216	0xbb963945	-0.004584464
217	0x3bb505b8	0.0055243634
218	0xbda9fff2	-0.08300771
219	0x3d881f34	0.066465765
220	0xbd79743a	-0.060901858
221	0x3e229ef9	0.15880956
222	0x3d248108	0.040162116
223	0xbdf847a8	-0.12123042
224	0x3e5c62cf	0.21522067
225	0xbd8fbed1	-0.07018817
226	0x3de11e24	0.10992077
227	0x3d06cc95	0.03290995
228	0xbd95c002	-0.07312013
229	0x3ddba794	0.10725322
230	0xbacd0f83	-0.0015644882
231	0x3d14ee6d	0.036360193
232	0x3ca3e17d	0.020004982
233	0xbcb82389	-0.022477882
234	0xbb0205a5	-0.001983979
235	0xbe39c8a3	-0.18142943
236	0xbd24b3ff	-0.04021072
237	0x3d63748f	0.05553108
238	0xbd58554b	-0.052815717
239	0x3e480e0c	0.19536608
240	0x3df1a82f	0.117996566
241	0x3c6022c8	0.0136801675
242	0x3d90c99b	0.07069703
243	0xbdb6344d	-0.08896694
244	0xbde27f55	-0.11059443
245	0xbd6f1dd2	-0.05837805
246	0x3c8a5512	0.016886268
247	0xbe5ca931	-0.21548916
248	0xbdf8d852	-0.12150635
249	0x3c65e990	0.014032736
250	0x3e2b2759	0.16714229
251	0xbcf50753	-0.029910719
252	0xbc34517e	-0.011005757
253	0xba9be900	-0.0011895001
254	0xbdd0dec0	-0.10198736
255	0x3da11c83	0.07866766
