Assets/Brain/MoveToGoal_02.onnx (onnx, 475557 bytes, 17 tensors)

155 f4 [132, 128]
000000 10 d9 8f bc 86 e8 a6 3c c0 ed 0d bc bd 7f 4f bd
       -0.017559558 0.020374548 -0.008662641 -0.05065893
000010 65 19 e3 bc f4 be 21 bd 79 6e 4e 3c 8c 52 74 3d
       -0.02772207 -0.039488748 0.012599581 0.059649035
000020 8d 66 bc 3b fa b4 8c bc 0d 83 3b bd 1c ce dd bc
       0.0057495297 -0.01717614 -0.045779277 -0.02707582
000030 4b f3 eb 3c 46 17 04 3c 7c a3 f1 3b 80 63 2b 3c
       0.028802535 0.008062189 0.007374225 0.010460734
000040 c5 ee 34 3d 02 a3 29 bd cf fa 69 bc f9 da 65 3d
       0.04417302 -0.041415222 -0.014280989 0.05611703
000050 23 c2 51 3b cf 47 8b bd 79 82 84 bd f8 56 6e bb
       0.0032006584 -0.06800806 -0.06470198 -0.0036367755
000060 8d a5 d6 3b d5 be 06 ba dd cf 32 3d bc 42 3d bc
       0.006550497 -0.00051401305 0.043655265 -0.011551555
000070 8a 17 05 bd 0b 03 43 bc 1b 2d 58 3c e8 0b 64 bb
       -0.03249315 -0.011902581 0.013194348 -0.0034797136
000080 9d 91 93 3c 15 6f 4b bc 80 7d c6 bc 03 b6 01 bd
       0.01801377 -0.012416621 -0.024229765 -0.03166772
000090 a5 51 9b bc b7 6c 9b 3c 8e a2 38 3d a6 3c 23 bc
       -0.01895983 0.018972738 0.0450769 -0.00996319
0000a0 ac ec 12 bd 0e cc 97 bc 46 a7 0b 3c 62 fc 71 3d
       -0.03587024 -0.018529918 0.008523768 0.05907858
0000b0 97 fa 98 bc 31 56 66 3d 55 f9 1c 3d 52 a3 24 3d
       -0.018674178 0.056234542 0.03832372 0.040194817
0000c0 93 7c 4c 3d e3 c8 ba 3c 5f 08 96 3c 6a a3 93 3d
       0.04992349 0.022800868 0.018314539 0.07208903
0000d0 78 84 d3 3c 17 92 53 bb d1 4e ae 3c 17 97 91 3d
       0.025820002 -0.0032283121 0.021277817 0.07108896
0000e0 9b 4a 2a 3d 8f 4f 64 3d 91 26 07 3d c7 00 d0 3b
       0.041575056 0.055739935 0.032995764 0.006347749
0000f0 b2 1c ff 3c 94 6f 60 bc 21 8a 9d bc 48 1e 5d 3d
       0.031141613 -0.013698477 -0.019230904 0.053983957
000100 6d a6 b1 bc dd 97 03 bd 0d 65 c2 bc 1e 2d c5 bc
       -0.021685803 -0.03212725 -0.023729825 -0.024069365
000110 1b f5 00 3c 64 b0 47 bc 3a 47 80 bc fe 11 0e 3d
       0.007870938 -0.012188051 -0.015658963 0.034685127
000120 fb 4c 1f 3c 38 5d 37 bd 80 ea 09 bd 54 8e 1c 3d
       0.009722943 -0.044766635 -0.033670902 0.038221672
000130 d9 fd 51 3c c5 a7 24 3d 6e 2d a3 ba 19 bb 80 3d
       0.01281687 0.04019906 -0.0012449452 0.06285686
000140 ff 9d 00 bd 7f 84 d9 3d 06 c3 ab 3b 1c 94 4b 3c
       -0.031400677 0.10620975 0.0052417545 0.012425449
000150 a1 d3 18 bd a1 05 c6 bc a9 36 82 bd 2b 47 66 3c
       -0.0373112 -0.024172606 -0.06358082 0.014055054
000160 93 76 15 bd 79 04 12 bc 82 a0 c4 bc c0 86 90 3c
       -0.036490034 -0.008912199 -0.024002317 0.017642379
000170 19 64 70 3b d7 16 d6 bc 59 22 f8 bc 3f 41 1a bd
       0.0036680757 -0.026133938 -0.030289816 -0.03765988
000180 96 68 c7 3c 1d 0b 96 3c d1 f2 3f 3c ff 01 87 3c
       0.024341863 0.018315846 0.011715607 0.016480444
000190 1e ec 21 bb 8e 42 cb bb d9 64 e4 3c 9b d5 8b 3b
       -0.0024707387 -0.0062030023 0.02788012 0.004267407
0001a0 39 55 36 bd ad e3 43 bb 66 db 0f bc 68 e5 05 3b
       -0.04451487 -0.0029890344 -0.008780336 0.0020430926
0001b0 ad 60 fb bc ad 16 19 3d e1 0d 9a bd 99 1c 97 3d
       -0.030685747 0.03737514 -0.075221784 0.073785014
0001c0 6d bd 96 3d 7b 48 6a 3c d9 d1 89 3c 13 24 11 3b
       0.07360349 0.014299507 0.016823696 0.0022146746
0001d0 70 8d 44 bd 2d 12 2a 3d e9 fc ab 3c 06 07 de bc
       -0.047986448 0.04152124 0.02099462 -0.027102958
0001e0 56 4b 55 bb 92 95 22 3c 84 43 55 3c 95 c7 af bc
       -0.0032546124 0.009923356 0.013016585 -0.021457473
0001f0 0f 5a 13 bd eb cc 10 3c 2f 01 50 bd 42 90 7e 3c
       -0.03597456 0.008837919 -0.05078238 0.015537323
000200 ae b0 c2 ba 07 36 06 3d 07 37 d5 bc 7e 7c 47 3c
       -0.001485368 0.03276637 -0.026027216 0.012175677
000210 3a ac c6 bc c6 e6 09 3c 74 ad 1e bd 03 42 bc bc
       -0.024252046 0.008416837 -0.038739637 -0.022980696
000220 ac 73 ac 3c df 12 c4 bb 18 02 33 bd b3 e5 8f 3b
       0.02105125 -0.005983695 -0.04370317 0.004391396
000230 80 04 31 3d ca 6c 68 3d 36 de c7 bc cd 08 8f 3c
       0.043217182 0.056744374 -0.02439795 0.017460251
000240 59 9e 73 3c f7 e0 4b 3d 20 30 39 bc ba 58 c7 bc
       0.014869296 0.04977509 -0.011302978 -0.0243343
000250 f0 f1 82 bc ec 48 08 bd 36 63 33 bd d1 8a a6 bc
       -0.015984505 -0.03327267 -0.043795787 -0.020329865
000260 bf 0a 39 3d 29 56 49 bc 99 15 92 bd eb 86 ba 3c
       0.045176264 -0.012288609 -0.07133026 0.022769412
000270 d1 c1 4a bc c8 0b 97 bc 08 10 4b bc 02 62 ca bc
       -0.012375311 -0.018438235 -0.012393959 -0.024704937
000280 ca b1 db bc 77 54 90 3c 9b e7 ab 3b aa c6 d1 bb
       -0.026818175 0.017618401 0.0052461154 -0.0064018564
000290 a4 c7 6e 3b 75 68 33 3d b2 45 53 3c 01 97 0a 3d
       0.0036434913 0.04380079 0.012895035 0.033835415
0002a0 61 1a 8c 3c 5e 76 6b 3d 14 97 1b 3d d9 72 6f 3c
       0.017102422 0.05748593 0.037985876 0.014614784
0002b0 f9 23 8b 3d 71 b6 3d bb cf 21 1e 3d 96 28 05 bd
       0.067939706 -0.0028947855 0.03860646 -0.03250941
0002c0 86 d5 b5 bb 82 89 20 bd 2d 18 4c bb 6c e7 81 bc
       -0.0055491356 -0.039193638 -0.003114234 -0.01585742
0002d0 eb cb d1 bc a9 b0 1e bd 98 e7 88 3d b2 6e 55 3c
       -0.025609931 -0.038742695 0.06684798 0.01302688
0002e0 32 c1 42 3c 27 02 b0 ba 9f d7 9c bb 9a 04 2d bc
       0.011886882 -0.0013428376 -0.004786446 -0.010560179
0002f0 27 dd 26 bc 3e bf a2 bc af 34 bd bd e1 f0 2a bd
       -0.010184563 -0.019866582 -0.09238564 -0.041733626
000300 5f 68 bf 3c ce a1 51 3d d8 83 ee bc fc a7 a9 bc
       0.023365198 0.0511797 -0.029115602 -0.020709984
000310 d0 ed cb bc d2 ab b3 bc ea 83 32 3d d2 0c 28 3d
       -0.024893671 -0.021932516 0.043582834 0.04102785
000320 49 93 a8 3c 41 9c 78 bc 18 e6 c3 bb 8f a1 05 3d
       0.020578044 -0.015173973 -0.005978357 0.032624777
000330 9a 56 a4 bc da 99 8b 3d fa 07 77 3d 4b 90 39 3c
       -0.020060826 0.06816454 0.06031034 0.011325906
000340 ad 0f 0e bd 97 9d d5 3c 1d 4d 88 bb a1 ce 23 bc
       -0.03468292 0.026076121 -0.0041595832 -0.009997995
000350 c8 bd aa 3c cc c0 26 bc 81 41 e1 3b b6 00 46 3c
       0.020842448 -0.010177802 0.0068742638 0.01208513
000360 28 8f 94 3c 25 2a 42 3d 5c 9b 93 39 97 d7 89 bd
       0.018134668 0.047403473 0.00028153777 -0.067305736
000370 a5 9c bb b9 15 1c 04 bd 7a 73 76 bc 64 b6 12 bc
       -0.0003578413 -0.032253344 -0.01504218 -0.008954618
000380 fd fb 68 3d 61 62 4a bd aa 29 74 bb ef b2 7a bc
       0.05688094 -0.049410228 -0.003725628 -0.01530145
000390 7e 79 d4 3c 14 83 01 bd d1 1c 5f bd 50 4e 35 bd
       0.025936838 -0.031619146 -0.05447084 -0.044264138
0003a0 be 5c 22 3c f8 c8 1d 3b 7f ba 21 3b 30 d9 af bc
       0.009909807 0.0024076086 0.002467781 -0.021465868
0003b0 55 dd 21 3c 14 01 3b bd c2 f4 26 3d cd 99 65 3d
       0.00987943 -0.045655325 0.040760763 0.05605488
0003c0 c3 45 c8 3c 02 35 70 3c 06 a3 9f 3c 55 96 c3 b9
       0.024447327 0.014661076 0.019486915 -0.00037305304
0003d0 76 2b c1 bc 5c f6 7a 3d 40 ac a8 ba c3 57 84 3d
       -0.023580294 0.061270103 -0.0012868717 0.06462052
0003e0 97 a8 8e bc fe 72 bc 3b 94 d2 28 bd 86 1e b4 3c
       -0.017414374 0.005751013 -0.041216448 0.021987211
0003f0 3e 98 0c bd 16 bd 60 3c df aa a9 bc 43 83 05 b9
       -0.034324877 0.013716957 -0.02071136 -0.00012732767

157 f4 [128, 128]
000000 f2 bf 4f bd 22 54 ea bc ee 1f 13 3c 33 b3 41 3c
       -0.050720163 -0.02860457 0.008979781 0.01182251
000010 8b ad 1f 3d 2a 81 cd 3c 8c 16 f8 3c 3c 3c 66 3c
       0.038983863 0.025086004 0.030284189 0.014052447
000020 3a 2d 8e bc b0 a6 3e bd 87 e3 c3 3c 16 ab 88 bc
       -0.01735555 -0.046545684 0.023912204 -0.016683143
000030 19 4c 5b bc 4e af 92 bc 84 b6 1c 3d f6 52 50 bd
       -0.013384842 -0.017905857 0.038259998 -0.050860368
000040 26 66 ae bc ac c0 04 3d c5 ab ad 3b 41 0c 64 3d
       -0.021288943 0.03241031 0.0053000175 0.05567575
000050 11 de 8c bd f3 5b db 3c b8 10 c7 3c 54 07 01 3d
       -0.06878293 0.026777243 0.024299964 0.03150113
000060 8b 24 3f 3d ae fb 66 bd 53 a3 e6 bc a9 2e 7d 3c
       0.04666571 -0.056392364 -0.028154051 0.015453019
000070 1e fe 64 3d 0d 98 f3 ba c9 8f 23 3d fc f2 c4 bd
       0.055906408 -0.0018584743 0.039932046 -0.09616658
000080 10 25 49 bc 87 66 0c bc 61 63 36 bd de 09 5b bd
       -0.012276903 -0.008569366 -0.04452837 -0.053476207
000090 d1 ef cc 3b a4 92 1a 3d 05 82 47 3b 41 10 e1 3c
       0.0062541743 0.037737504 0.0030442488 0.02747357
0000a0 02 ec d3 3b cf c8 cf bb 17 54 ab 3c 23 ef aa 3d
       0.0064673433 -0.006341077 0.02091412 0.08346393
0000b0 c4 5b 8c bc d7 75 58 bd a4 f5 b1 3c 67 92 12 3d
       -0.017133601 -0.052846756 0.021723576 0.03578415
0000c0 c5 77 a7 3b 46 83 b2 3c 74 73 c9 b9 45 ad 17 bc
       0.005110713 0.021791112 -0.00038423727 -0.009257619
0000d0 17 2f d1 bc 35 c6 dd 3b ef f7 60 3c 44 50 3b 3d
       -0.02553515 0.006768013 0.013730987 0.045730844
0000e0 be 02 81 bb c8 1c 21 bb 63 4f ac bc cc e4 0f 3b
       -0.0039370945 -0.0024583805 -0.021033948 0.0021956442
0000f0 59 ef 03 3c 5d 79 64 3a 60 24 43 bc 10 15 08 3d
       0.00805267 0.00087155943 -0.011910528 0.03322321
000100 0c 92 32 bc f8 fc 9d 3c 40 87 63 3c a3 4c bd 3c
       -0.010899078 0.019285664 0.013887227 0.023107832
000110 d7 a9 a1 bd a5 1c b9 3d 57 c5 20 3c ea 6f 0f bc
       -0.078937225 0.09038667 0.0098126745 -0.00875471
000120 7d 06 d8 bc 61 19 6c bc 2d b2 3c 3c 4d 7d 19 3d
       -0.026370281 -0.014410348 0.01151709 0.03747301
000130 83 04 08 bd 57 9f 0d 3d a1 52 fd bb 7a 85 d0 3b
       -0.033207428 0.034575786 -0.0077307974 0.006363568
000140 c0 74 a9 3c 26 dc 51 3c 1d 16 93 3d 9a f4 31 bd
       0.020685554 0.012808835 0.07181952 -0.04344616
000150 55 75 1a 3c 66 9f ec 3c 22 c0 d4 3b 86 94 a8 bb
       0.009427388 0.0288846 0.0064926306 -0.0051446585
000160 ee 5f 9b bb 84 63 5e 3d af 24 a8 bc fe e7 68 3c
       -0.0047416603 0.054294124 -0.020525305 0.0142154675
000170 98 e6 b3 3c 6c d6 59 3c ec 26 85 3c 79 89 0b 3d
       0.021960542 0.013295751 0.016253911 0.03406665
000180 d9 f6 a6 bd 5e c8 93 3b 3f 20 ed bb 2b 6d 89 bd
       -0.08152551 0.0045099696 -0.00723651 -0.06710275
000190 b8 03 06 3b e7 2e 12 bd e7 1d 4b bd dc 35 b3 3c
       0.0020448994 -0.03568926 -0.049589064 0.021876268
0001a0 df 27 8c bb 40 51 11 3d 4d 20 ee bb 58 06 aa bc
       -0.004277214 0.035477877 -0.007267034 -0.020754978
0001b0 01 e0 22 bb 83 46 12 bd fe c4 a2 3d 59 48 f6 3c
       -0.0024852755 -0.035711776 0.079477295 0.030063795
0001c0 b9 30 06 3d c4 21 88 bc 4d c6 ae 3c d5 ec 77 3c
       0.03276131 -0.016617663 0.021334792 0.015132149
0001d0 06 d1 93 3c 01 2b 42 bc 7d f2 9d ba 93 ed 2b 3a
       0.018044006 -0.011851073 -0.0012050417 0.00065585336
0001e0 74 bd 98 bc 40 3a c6 3c 20 8a ed bc 8a b5 84 3d
       -0.018645026 0.024197698 -0.028996527 0.06479938
0001f0 5e df de bc 1d cd fb 3c 2c 2f 47 bc 8e a4 25 bd
       -0.02720612 0.030737454 -0.012157243 -0.040440135
000200 05 5c 1a 3d 4f a3 ee bc 2a 46 bf 3a 2f 10 0a 3d
       0.037685413 -0.029130606 0.0014593054 0.03370684
000210 d7 63 11 bc 77 0b 8f 3c 58 1d 87 bc 76 55 79 bd
       -0.008873901 0.017461522 -0.016493484 -0.060872518
000220 68 22 2c 3d c0 3a cc bc f3 bd 0f bc c8 9d f5 3c
       0.042025 -0.024930358 -0.008773315 0.029982463
000230 8c d8 7e 3c cf a4 54 bd 3b 45 f5 bc 22 c9 94 bc
       0.0155545585 -0.051914986 -0.029940238 -0.018162314
000240 e0 e9 1c bc d5 e9 93 3d 96 94 d6 bc 02 cd 2c ba
       -0.0095772445 0.07222334 -0.026193898 -0.0006591828
000250 bd 94 de 3c 9a 76 51 bc ab bd 9c bd ae 67 19 bd
       0.027170533 -0.0127846245 -0.07653364 -0.037452392
000260 1d b8 75 3d 71 da db 3b e0 52 e2 3c b5 5c 7a 3c
       0.059990037 0.00670939 0.027627409 0.015280892
000270 77 57 aa 3c c5 00 71 bd d9 50 46 bb 31 4c f9 bc
       0.02079366 -0.058838625 -0.0030260591 -0.030431839
000280 0d 34 14 bd d6 54 38 bd c2 e3 9b 3b 5f 91 3b bc
       -0.036182452 -0.04500278 0.0047573755 -0.011448233
000290 35 55 11 3d 5d ee 4f bd 41 35 6b 3c 98 6a ac 3c
       0.03548165 -0.05076443 0.014355958 0.021046922
0002a0 79 d4 bd ba 70 40 83 bc fb 47 4a 3c ad ba 43 bd
       -0.0014482877 -0.016021937 0.012346263 -0.04778545
0002b0 cc d2 77 bc 83 6b 4e 3c 8e c9 fc bc 4e 01 ae 3d
       -0.0151259415 0.012598875 -0.030857828 0.084963426
0002c0 ac 7c 4b bd 8d bb 1e bd b3 56 23 3d 32 dd 7d bd
       -0.049679443 -0.03875308 0.039877605 -0.061978526
0002d0 df c1 d6 3c 34 fd 0b bd 42 fa 45 bd 6d 00 45 3d
       0.026215492 -0.03417702 -0.048334368 0.04809611
0002e0 e6 46 11 bc 6b 05 86 bc 3a 25 34 bc 91 07 1c 3d
       -0.008867001 -0.016360005 -0.010995204 0.038093153
0002f0 e1 d6 30 3c 97 c6 87 bd f0 73 01 3d 68 8f 49 3d
       0.010793419 -0.06629675 0.031604707 0.04920903
000300 06 8a 6f bd 44 6f 2e 3d 89 32 09 bd 37 70 9d 38
       -0.05848124 0.04258658 -0.03349546 7.507245e-05
000310 2d 65 46 bc 24 c4 d6 3d cd d6 77 3d 95 eb 0b bd
       -0.012109083 0.104866296 0.060507584 -0.034160215
000320 ee 0e 56 bc 4b d8 ae bd 4a bb 88 bc e7 02 c7 3c
       -0.013065083 -0.08537348 -0.016690869 0.024293376
000330 47 c2 55 bd cb e5 34 3d 77 5b cc 3c b2 ec 4a 3b
       -0.05218723 0.04416446 0.024945958 0.0030963835
000340 86 ce b9 bc 87 0f 63 bc 45 02 86 bb 95 be 3b bd
       -0.022681486 -0.0138586825 -0.004089626 -0.04583605
000350 c5 27 21 3d 52 25 02 3b 9a 4e 70 3d 6f a2 56 3c
       0.039344568 0.001985867 0.05866871 0.013100251
000360 47 b2 d3 3c 3c 30 60 3c 8c 64 f4 bb 92 51 18 bd
       0.025841845 0.013683375 -0.007458275 -0.037187167
000370 f6 4a dd 3b 83 de 88 3c 8b 28 40 3c 53 23 10 3d
       0.006753321 0.016707664 0.011728416 0.035189938
000380 04 fa 3b bc 57 88 09 bd 0e 46 dd 3c f9 c6 17 3d
       -0.011473183 -0.03357729 0.027010944 0.03705499
000390 5c 4b 3c bb 34 b4 be 3d bd 37 b3 3d b6 d4 df bc
       -0.002873144 0.09311715 0.087508656 -0.027323108
0003a0 de 82 2e bd ec 03 5a bc fe eb 0c bb aa 84 1c 3c
       -0.042605273 -0.013306599 -0.0021502967 0.009553114
0003b0 1b 63 8d bd 7e 1d bf 3c 6c 04 92 bc cb 21 86 3c
       -0.069036685 0.023329493 -0.017824374 0.016373536
0003c0 4c 45 87 3d 63 b7 8a bc 43 8a 14 bc 59 d0 13 3d
       0.06605014 -0.016933149 -0.009066167 0.036087368
0003d0 df 62 e7 3b b7 1e 73 bc ed 34 0c 3d cb 9b f6 3b
       0.007061347 -0.014838866 0.03423016 0.007525896
0003e0 35 96 6d 3d 93 cb f6 3c 9e cc 73 3d 86 f7 1f bd
       0.058004577 0.030126369 0.05952131 -0.039054416
0003f0 5e 58 4d bd d6 ad 2f 3d 7e da 29 bc a2 c4 2e bd
       -0.0501331 0.042890392 -0.010367034 -0.042667992

158 f4 [128, 128]
000000 19 61 0d 3d 04 57 32 bd 29 8b 63 3c 8d 25 3b bd
       0.034516428 -0.043540016 0.013888159 -0.045690108
000010 51 2d 8d bc 73 4f 82 bd 95 ab cd bc a9 80 e8 ba
       -0.017233523 -0.0636281 -0.02510623 -0.0017738539
000020 19 72 3a bd e4 dc 06 3d ed 2d fc bc a8 fb 30 3d
       -0.04551897 0.0329255 -0.030783618 0.043208748
000030 25 4f 5c 3c 0c 3e 15 bc 8a 36 d5 3c 99 0e 70 bc
       0.013446604 -0.009109031 0.026026983 -0.014651918
000040 03 68 25 3c 6d db 78 bc b6 f5 8c bd f1 84 bf bc
       0.010095599 -0.015189034 -0.06882803 -0.023378821
000050 8b 66 95 3a a2 b0 05 bc 0d 02 1e 3c 1f 94 55 3c
       0.0011398358 -0.008159788 0.009644044 0.013035803
000060 80 d4 3d 3b 62 43 67 bc f9 da c1 3c c9 3d 67 bd
       0.0028965771 -0.014115186 0.023663985 -0.056455407
000070 98 51 47 3d 98 13 13 bd 7e 4d bb bb 59 21 9b 3c
       0.0486618 -0.035907358 -0.005716025 0.0189368
000080 ce ba c5 bc 14 02 0f bc c5 12 6c bd 80 96 0b 3d
       -0.024136927 -0.008728523 -0.057635088 0.034079075
000090 5a 6b 6d 3c 91 4a 96 bb 4c 00 69 3c 0f a4 d0 bc
       0.014490927 -0.0045865257 0.014221262 -0.025468854
0000a0 44 7f 10 3d 5b d3 20 bd 37 69 1e 3d 65 1a e8 3b
       0.03527762 -0.039264064 0.03867456 0.0070832246
0000b0 79 40 87 3c e5 c0 d4 bc 2f 30 0b 3c c6 bd 12 3c
       0.016510235 -0.025970886 0.008495375 0.008956378
0000c0 4c 9d 4f ba 9b 29 66 bc 8e 82 0a bd 47 8e 6c 3c
       -0.00079198624 -0.014048005 -0.033815913 0.014438218
0000d0 ed 7b 05 bd f1 05 f8 bb fe 5a 0f bd ff 29 19 3b
       -0.032588888 -0.0075690676 -0.034998886 0.002337098
0000e0 d8 0c 11 bc b5 66 02 bd 3c 5d 75 bc 62 d9 14 3b
       -0.00885316 -0.03183623 -0.014975842 0.0022712578
0000f0 a4 bd 3d 3a 24 c9 14 3c f9 6a 05 bd f7 9b 46 bd
       0.00072380365 0.009081159 -0.03257272 -0.048488583
000100 9e d8 b1 3b a0 3d 18 bb 38 52 e5 3c 99 ee c6 bb
       0.005427434 -0.002323009 0.027993307 -0.0060709235
000110 e3 8f be bc e8 28 63 bd b8 85 4f 3d bf 5e 39 3d
       -0.02326197 -0.055458933 0.050664634 0.045256373
000120 56 3e 54 3d 8f 8b 17 3d bf d7 1d 3c 63 01 9b bc
       0.05181726 0.036998328 0.009633957 -0.01892156
000130 2a c4 2e ba 11 c1 03 3c c6 22 85 bc 83 6d 8e bd
       -0.0006666804 0.008041636 -0.016251933 -0.069544815
000140 4e 46 3e bc 99 83 5c bd e6 1b 54 3c 97 8c 98 3d
       -0.011613442 -0.05383644 0.012946105 0.074486904
000150 9d b3 84 bb 3a b8 8d bc e9 06 de bc e3 1c 0c 3d
       -0.004049732 -0.01729976 -0.027102904 0.034207236
000160 cd d2 8e b9 f1 85 41 bd a6 44 72 3d 06 23 03 bb
       -0.0002724141 -0.047246877 0.0591475 -0.002000989
000170 1b 6c 0b bc 21 73 37 bc 0f 46 0b 3b 69 3d a3 bd
       -0.008509661 -0.011196882 0.0021251475 -0.079706974
000180 5d da 8e 3c 74 22 8b bb ce b8 7c 3d 9d 1d 35 3c
       0.017438108 -0.0042460505 0.06169968 0.011054424
000190 90 a1 88 bc 82 27 01 3c e8 fa d2 bc 07 0c 45 bc
       -0.016678602 0.007882955 -0.025754407 -0.012026793
0001a0 18 1a d4 bc 3b 66 bf 3c a7 5d 84 bc 47 1b 17 3d
       -0.025891349 0.023364177 -0.016157938 0.036891248
0001b0 6e 98 ad bc 94 7f 90 3c 44 2b aa 3b 84 f4 f6 3b
       -0.021190848 0.017638959 0.005193146 0.0075364728
0001c0 92 f2 d6 3b 1a 38 3c bd f1 13 a8 bc 9d 47 47 bc
       0.0065596784 -0.04595194 -0.020517321 -0.01216307
0001d0 24 0f c9 3c 02 07 a8 bc 0b d3 50 bb de 34 e6 bc
       0.024543352 -0.020511154 -0.0031864073 -0.02810138
0001e0 e0 62 92 bc 66 53 e3 3c b2 d5 e4 3c 4a 39 05 3c
       -0.017869413 0.027749728 0.02793393 0.008131335
0001f0 1b 8d 97 bb 72 79 0d 3c 17 56 13 bc e8 3e a0 3c
       -0.0046249754 0.008634912 -0.008992693 0.019561246
000200 0e 9d 12 3d da 1a b2 3d 00 2c 9f 3c 90 d2 08 3d
       0.03579431 0.08696528 0.01943016 0.033403933
000210 65 9e 13 3d a3 5d 8c 3d 08 60 a9 bd b1 25 7a bd
       0.03603973 0.06853797 -0.0827027 -0.0610711
000220 6f 77 3d 3c ac e8 95 bd 14 cb 19 bd 72 a7 eb 3b
       0.01156412 -0.07319769 -0.037547186 0.007191592
000230 88 11 2d 3c b3 1d fd 3b 3d 3a 93 bd c6 60 d6 bd
       0.010563262 0.0077244877 -0.071888424 -0.10467677
000240 23 fe 61 bc f2 bd d1 3d 5c 59 b9 bc 98 13 26 bb
       -0.013793501 0.10241307 -0.022625618 -0.0025341269
000250 89 32 96 bc d9 ce f6 bc 25 ef 65 bc 1b 52 fa bc
       -0.018334644 -0.03012793 -0.014034067 -0.030556729
000260 63 cc 3d 3d 5f 2a be bb 56 bd 89 3c ae e7 0e 3d
       0.046337496 -0.005803391 0.016813915 0.034888916
000270 68 e2 9c 3c 4e 4d 83 3a e1 a2 8b 3d f8 e8 3d bd
       0.019150928 0.0010017545 0.06818176 -0.046364754
000280 79 5b 8e bb 85 7f 07 bd 63 36 12 3d e0 37 f9 3b
       -0.0043444005 -0.033080596 0.0356964 0.007605538
000290 c0 31 99 bb 7c 75 00 3c 71 5b b0 bc a4 b3 8f 3d
       -0.00467512 0.00784051 -0.021527978 0.070166856
0002a0 46 40 d2 3c 89 44 18 3d 15 5d 52 bb fa e2 f6 bc
       0.025665414 0.037174735 -0.0032098938 -0.030137528
0002b0 1d f9 ea bc 0f f5 f2 bb d9 e6 a6 3c 91 88 8c 3c
       -0.02868324 -0.007414467 0.020373749 0.017154964
0002c0 f8 12 1f 3c 33 19 9c bc ed b5 e3 bb 92 fa 8f bc
       0.009709112 -0.019054985 -0.0069491775 -0.017575536
0002d0 56 9d 8f bc 0c ed ab 3c 67 d8 f0 3b 8d 1c 8a 3c
       -0.017531078 0.020987056 0.007350016 0.016859317
0002e0 e7 19 a0 bd f4 20 34 3a 57 61 2f 3c 9e 78 65 bb
       -0.078174405 0.00068713655 0.01070436 -0.003501452
0002f0 49 c2 ee 3c c0 e5 94 3c 02 52 1e bd 4c cb 5f 3d
       0.029145377 0.01817596 -0.038652427 0.05463724
000300 98 e8 8b bd af ba 2f bd 37 c6 8c bc 5a ba 3d bd
       -0.06831473 -0.042902645 -0.01718436 -0.046320297
000310 fe 50 07 bb 0a 50 44 3d 69 34 2d 3d bb 03 56 bd
       -0.002064764 0.047927894 0.04228631 -0.05224965
000320 dd 5f 9a 3d 78 a0 9f bd 42 17 1a 3c f7 6d b1 3d
       0.07537816 -0.07794279 0.009404959 0.08663552
000330 7c 77 01 bd 8f 50 15 3d e5 71 81 3d f3 ed 0e 3d
       -0.03160809 0.03645378 0.06320552 0.034894895
000340 76 00 ac 3d 27 b9 cc bc ed 48 73 bc 07 50 82 bc
       0.083985254 -0.024990631 -0.01484893 -0.0159073
000350 d2 cd 9b bc a1 94 78 3c 00 71 60 3d fc 90 38 3d
       -0.019019041 0.015172155 0.054795265 0.045060143
000360 6e e3 85 3d 34 b5 2c 3b a4 de 46 bd ee bf fc bc
       0.065375194 0.0026353123 -0.04855217 -0.030853238
000370 7e 7f 35 3d 8f f0 c5 3c b5 43 08 3d 48 e3 1f bd
       0.04431104 0.024162559 0.033267695 -0.03903511
000380 f0 8b c5 bc 60 b5 39 bb 39 e5 4d bd 64 a4 f2 3c
       -0.024114579 -0.0028336868 -0.050267432 0.029619403
000390 81 bb 3a bc 33 f7 1e bc 22 ad d9 3c 50 26 17 3d
       -0.0113972435 -0.009702492 0.026571814 0.036901772
0003a0 df 96 35 bb f0 8c 7c 3d 96 b5 cd 3c b3 7f 47 bc
       -0.0027708334 0.061657846 0.025111001 -0.012176442
0003b0 fe 32 41 bd 83 b9 c3 bc 9c 1c 09 3d 3b 68 1f 3d
       -0.04716777 -0.02389217 0.03347455 0.03891776
0003c0 4f 78 4f 3b a3 03 81 bd 29 0f d6 bb 76 da 3b 3d
       0.0031657403 -0.06299522 -0.006532569 0.045862637
0003d0 72 ae de bc d3 be f8 bb 79 a3 f8 3c 99 b6 a1 bd
       -0.027182791 -0.0075911074 0.030351387 -0.07896156
0003e0 f6 bd cd bc 41 32 e1 3b dd 9b d2 3c 40 8b 14 3d
       -0.025114994 0.006872446 0.025709087 0.03626561
0003f0 8c cf 26 3c 0d 7a a8 bb d1 9d 31 3d 2c 3b 89 3d
       0.010181319 -0.0051415027 0.043363396 0.06700739

159 f4 [128, 128]
000000 bf 75 94 bc bb 88 02 3d 37 7d 6f 39 c0 65 ad 3c
       -0.018122552 0.031868678 0.00022839462 0.021166682
000010 03 e5 69 3c 23 48 92 3b 13 cf c1 bc d6 c3 b1 bc
       0.014275792 0.004464166 -0.023658311 -0.021699827
000020 f0 19 67 bc 1a ce 69 3d 96 fc c5 3c 82 81 ce 3c
       -0.014105305 0.05708132 0.024168294 0.025208239
000030 dd e4 c8 3b 68 26 5f bd 63 d7 d8 3c 07 cc dc 3b
       0.0061307983 -0.054479986 0.026469892 0.006738189
000040 df cd 13 bd e0 12 b1 3d 05 e8 e0 3a 74 d8 39 bd
       -0.036085006 0.08646178 0.0017158991 -0.04537244
000050 ca 1e 8a 3c 81 95 14 bd 61 86 11 bd 34 8e 09 3d
       0.016860384 -0.03627539 -0.035528544 0.03358288
000060 c6 3b 94 bc 48 5d 15 3c a3 62 9f bc ed 34 24 bd
       -0.018094908 0.009116478 -0.019456213 -0.040089536
000070 2f 84 f8 bc ce 67 8d 3b de a3 da 3b e2 83 4b 3d
       -0.030336468 0.004315353 0.0066723665 0.04968632
000080 d8 8b 68 3c 70 c5 03 bc a2 66 37 bd 49 03 42 3b
       0.014193498 -0.008042678 -0.044775613 0.002960401
000090 c4 2d 52 3b d5 0b bf 3b 04 90 a6 3c 77 3b 9b 3d
       0.0032070735 0.005830268 0.020332344 0.075797014
0000a0 a3 f2 81 bb 84 62 5e bc a6 8e 03 bd fe 5c 08 bd
       -0.003965692 -0.013573293 -0.032118462 -0.03329181
0000b0 0e f2 4e 3c 94 c3 82 ba 30 7c 3b 3c 2f 8a 24 bc
       0.0126309525 -0.00099765 0.011443183 -0.010042711
0000c0 27 07 23 bc 3a b9 3e 3b ae df 4a bb e7 90 b5 3c
       -0.009950436 0.0029102103 -0.0030956077 0.022163821
0000d0 8a 65 71 3d 6c bb e1 bc 45 3c 9e bc 80 24 11 3d
       0.058934726 -0.02755519 -0.019315848 0.0354352
0000e0 38 b1 7e bb ed f0 de 3b 0a d1 b5 3c 5e 8f 30 bd
       -0.0038862955 0.006803623 0.022194404 -0.043105476
0000f0 33 5b e6 bc 45 14 14 3c 9f 0c 19 bd 44 b0 3b bd
       -0.028119659 0.009038036 -0.037365552 -0.045822397
000100 cc 7a 7a 3c 6f 9b d2 bc ba a9 b4 3b 24 66 59 bc
       0.015288066 -0.025708882 0.005513397 -0.013268981
000110 a6 ed 2b 3b d6 3d e8 bc ee ff 2e bd d3 a8 ba bc
       0.0026234179 -0.028349798 -0.042724542 -0.02278558
000120 50 30 b4 bc 2b a4 33 bd aa ce d6 b9 9a 96 42 bd
       -0.021995693 -0.043857735 -0.00040971237 -0.047506906
000130 8a 8d af 3c 7e 98 bc 3c a1 bf 37 bc cf 2e 1c 3d
       0.021429796 0.023021933 -0.0112151215 0.038130578
000140 46 97 9f 3b 82 95 9b bd 9f f8 60 bc 36 56 c4 3b
       0.004870328 -0.07596876 -0.013731151 0.0059917225
000150 eb f0 28 3d 46 bd a5 bc 99 99 9b bd 4a df dc 3c
       0.041245382 -0.020231854 -0.07597656 0.026961941
000160 1d 04 fa bc 0b a4 32 3d e3 8f 37 bc da 41 47 bc
       -0.03051954 0.043613475 -0.011203739 -0.012161696
000170 3f db 93 bd 0e 14 4d bc 4f b5 00 bd dc c5 8f bd
       -0.07219552 -0.012516988 -0.03142291 -0.070201606
000180 19 9f 7a 3c 7f 5c 0e 3d 42 c0 1a bd 42 a5 77 ba
       0.015296721 0.03475618 -0.037781008 -0.00094469276
000190 f8 be 17 bc 5c 23 f8 bc 45 fa 5a bc 58 29 83 3c
       -0.009261839 -0.030290298 -0.013365333 0.016010925
0001a0 11 aa 9b 3b b5 c2 90 bb 67 1b a2 bc 5d b3 33 3d
       0.004750498 -0.004417742 -0.019788457 0.043872226
0001b0 69 7c d7 3b 8e c8 85 3c 74 ee 9d bc 1e fe 03 bd
       0.00657611 0.016330983 -0.019278742 -0.032224767
0001c0 5c f1 54 bc ca 87 8a 3d 44 7c 05 bc 57 d2 bd bb
       -0.012996998 0.06764181 -0.008147303 -0.0057928967
0001d0 5f db d8 3c fb ee 0f 3d c1 1d d8 3c 2a 36 4a 3c
       0.026471792 0.03514002 0.026381375 0.012342015
0001e0 20 e5 81 bc 56 1a bb 3b 1a 95 29 bd 60 66 1c bd
       -0.015856326 0.0057099266 -0.04140196 -0.03818357
0001f0 ff 8b 86 bc 9b a8 1f bd 93 9a 4d 3b 62 c4 3e 3c
       -0.016424177 -0.038979154 0.003137265 0.011643501
000200 28 59 02 3d 8c 4f 8b bc 1e 12 b2 bc cd 48 b1 bb
       0.031823307 -0.017005704 -0.021737155 -0.00541029
000210 f1 e9 c4 bb 58 f5 d2 bc a1 00 81 bc 55 01 3e 3d
       -0.0060093333 -0.025751755 -0.01574737 0.04638799
000220 9d 25 58 3d ad e0 e2 3c 6a 69 d6 bc de 1c f7 3b
       0.052770246 0.027695024 -0.026173312 0.007541283
000230 cc 4c ac 3c 53 d7 3c bd ab f4 27 3c c4 d8 86 3d
       0.021032713 -0.046103787 0.0102512045 0.065843135
000240 19 d8 95 3d 6e e3 92 3a f2 e3 a0 3c 42 fd 2b bd
       0.07316608 0.0011206695 0.019639943 -0.041989572
000250 42 b1 93 3b 44 be e5 bc f0 b3 a8 bc 96 b4 10 bc
       0.0045072148 -0.028044827 -0.020593613 -0.008832118
000260 4b 35 1b bd c5 0c e9 3c d1 f8 72 3c 9e 33 03 bd
       -0.03789262 0.028448472 0.01482983 -0.032031648
000270 b3 ca ef 3c 50 14 0a 3d 01 81 83 3c 92 95 2a bd
       0.02927146 0.033710778 0.016052725 -0.041646548
000280 4e 0b 62 bd e7 d7 98 3c 04 2e aa 3c 75 e8 2f 3d
       -0.055186562 0.018657638 0.020773895 0.042946298
000290 43 09 1c bd 74 14 e5 bc 0d 1b 32 bd 82 01 3b 3b
       -0.03809477 -0.027963854 -0.04348283 0.0028534834
0002a0 e5 79 19 3d af fe 95 bc e4 6f ab bc f5 99 39 3d
       0.037469763 -0.01830992 -0.020927377 0.04531284
0002b0 a3 98 fb 3c ae e1 c3 bb d3 c9 25 3d e4 22 e2 3c
       0.030712431 -0.005977831 0.040475678 0.027604528
0002c0 ef fb 0c bc 82 40 03 bd b8 d2 2e 3d 63 a3 c0 bc
       -0.0086049875 -0.03204394 0.042681426 -0.023515409
0002d0 ba 60 b6 bb a9 eb f9 bb 78 62 6d 3c 3f d5 81 3d
       -0.00556573 -0.00762697 0.014488809 0.063395016
0002e0 f9 31 6e 3c 46 b0 96 bb 75 f1 2c 3d ae 9e 04 bd
       0.014538282 -0.00459865 0.04222246 -0.03237789
0002f0 cc 0c 30 3b ed ce 15 3d 74 ff 95 3c 01 4b 6b 3d
       0.0026863096 0.036574293 0.018310286 0.057444576
000300 5f 68 83 bc 31 b2 12 ba 67 a2 f0 3c ea dd 5d 3c
       -0.016040979 -0.00055960106 0.029374314 0.013541678
000310 d2 d3 90 bc a4 28 63 bc a0 c9 4c bc f5 b3 ec 3b
       -0.017679129 -0.01386467 -0.012499243 0.007223601
000320 f7 49 02 3d 44 64 4f bd 26 86 37 3d 7a cb 3b 3d
       0.03180882 -0.05063273 0.04480567 0.045848347
000330 ff 82 c3 3c b6 8b 52 3b fd b8 e2 bc 6d f9 57 3d
       0.023866175 0.0032126731 -0.0276761 0.052728105
000340 97 28 41 3d 24 a9 49 3d aa 47 d3 bb 45 22 3a bc
       0.04715785 0.04923357 -0.006447752 -0.01136071
000350 4c 9c 4f bc 3e a4 70 bc 52 e2 86 bb c3 87 99 3d
       -0.012671541 -0.014687596 -0.004116335 0.074965976
000360 65 7c ca bc 1f 71 9c bc 66 d0 88 3d dc a3 27 3d
       -0.024717519 -0.01909691 0.06680374 0.040927753
000370 17 15 21 3c 99 f1 96 bd c9 dd 51 3d 3e 49 a4 3c
       0.009831688 -0.073703 0.0512369 0.020054456
000380 3f 11 32 bd d3 aa 03 3d 5c 78 c5 3b 47 64 55 bb
       -0.04347348 0.032145333 0.006026311 -0.003256099
000390 dc de 75 3c 78 cc e8 3c f6 fc 9f 3b 75 d1 15 3c
       0.015006747 0.02841781 0.00488245 0.009144177
0003a0 69 69 ef bc 82 bc 58 3d 72 8a 4b 3b 3d c8 0e 3d
       -0.029225068 0.05291415 0.0031057862 0.03485893
0003b0 cf 4e 13 bb db 20 e2 3c 3d 66 25 bd 41 79 7f bd
       -0.0022477394 0.027603557 -0.040380705 -0.062371496
0003c0 44 f2 b8 bc f6 ce 95 bc 33 d0 9c 3c 35 5b f4 3c
       -0.022576459 -0.018287163 0.019142246 0.029828647
0003d0 a8 b6 8b 3c b0 70 a6 bb 28 84 48 3d 76 fb 01 3d
       0.01705487 -0.0050793514 0.04895416 0.031733952
0003e0 09 4d 38 3d da 22 bd 3c a5 c0 64 3d 66 a4 1a 3d
       0.04499534 0.023087908 0.055847783 0.03775444
0003f0 46 98 91 bd d9 35 e8 bb b2 f5 10 3d 8e bc 31 3c
       -0.07109122 -0.0070864973 0.035390563 0.010848178

160 f4 [128, 128]
000000 85 12 54 bd 4b f8 c0 bc 74 9d 36 bd 11 52 99 3d
       -0.051775474 -0.023555895 -0.044583753 0.07486356
000010 ec b2 f9 bb 2a 0a cb 3b 4f 0e eb bc 35 51 fd bb
       -0.007620206 0.00619628 -0.028693346 -0.007730628
000020 dc ab 5a bd 69 ae 01 3c 4f 59 4a bd 03 65 17 3d
       -0.053386554 0.007915118 -0.049401578 0.036961567
000030 06 46 38 bd 14 74 85 bc c8 aa 47 bd 29 64 f5 3c
       -0.044988655 -0.016290702 -0.048746854 0.029954987
000040 c1 81 d5 3b 9e 7f 8f 3c cb bc 07 bd 9b 79 00 3d
       0.006515712 0.017516907 -0.03313903 0.031365972
000050 0c 0a 94 bb 84 ee 98 ba 6c 5c 1b 3d 0e 20 a5 bc
       -0.0045177992 -0.0011667763 0.037929937 -0.020156886
000060 46 84 6a bc 62 79 d8 3c 67 1a ac 3b 75 e1 bb 3c
       -0.014313763 0.026425067 0.005252171 0.022934655
000070 43 6d f6 3b 6c d2 61 3c 2e 60 70 3c 98 b5 1a 3c
       0.007520349 0.013783079 0.0146713685 0.009442709
000080 62 86 5a bd a2 66 15 3c d7 31 9a 3c 16 a5 c4 3c
       -0.053350814 0.009118708 0.018822594 0.0240045
000090 14 a4 32 3d 17 ad bd 3b 1a af 28 3d 68 ab 83 3c
       0.04361351 0.005788456 0.041182615 0.016072944
0000a0 df b2 4d bc 1d 48 d9 3a f9 ad 09 3d 61 9d 8a 3c
       -0.012554853 0.0016577278 0.03361318 0.016920747
0000b0 a2 84 41 3c 35 a0 7c 3c 01 d6 94 bc 19 39 32 bc
       0.011811407 0.015419056 -0.018168451 -0.010877871
0000c0 17 88 20 bd cc 1c 7e 3c b1 32 08 bd 51 be 5a bc
       -0.039192285 0.015509795 -0.033251468 -0.013351039
0000d0 54 99 73 3c c6 4d 8b 3c 23 90 f1 3c ff bd 76 bb
       0.014868099 0.017004859 0.029487675 -0.0037649868
0000e0 6e 16 ae bb 48 8c 5c 3c 45 af 88 3c 86 57 73 3d
       -0.0053127324 0.01346118 0.016685138 0.05940964
0000f0 46 31 1d 3d 6a 8c d6 3b d5 17 cb bc 4a 08 02 3d
       0.03837707 0.0065475004 -0.024791637 0.031746186
000100 61 a5 31 ba 97 50 95 ba 46 b9 91 bb 7b 47 7f bc
       -0.00067766575 -0.0011391815 -0.004447135 -0.015581007
000110 5d f3 82 bc 20 9d 31 bd 33 f6 76 3d 56 c7 e9 3c
       -0.015985185 -0.043362737 0.060293388 0.028537434
000120 ab dd 27 bc 05 e4 5a bd 16 3a 20 3d 67 81 24 3b
       -0.010245721 -0.053440113 0.039117895 0.0025101544
000130 5d ad a0 bb b5 82 ae b8 a3 24 f4 bc 29 b4 20 bc
       -0.004903479 -8.3213126e-05 -0.029802626 -0.0098085785
000140 1a f6 a6 bc fc 54 ac bc c5 33 5e 3b ee 81 41 3c
       -0.020381022 -0.021036617 0.0033905369 0.011810763
000150 0c b9 74 3d a4 60 8e bc 34 a0 48 3d e6 11 04 3c
       0.059746787 -0.017380066 0.048980907 0.008060908
000160 37 13 cc b7 69 ee 78 bc 83 1d c3 3c 2a d5 b1 bc
       -2.4327643e-05 -0.01519356 0.023817783 -0.02170809
000170 50 3f 8a 3d f7 fa 1f bc 7e 0f 8e 3c 40 7f 2c 3d
       0.06750357 -0.0097644245 0.017341372 0.042113543
000180 8c a8 68 3c 5e 15 93 bc 24 3b 3b 3b 57 d9 5e bb
       0.014200341 -0.017954525 0.0028569186 -0.0034004056
000190 c4 75 5e 3c 45 a8 1c bd d4 fd 58 3b 75 6a 61 3d
       0.013577882 -0.03824641 0.0033110278 0.055033166
0001a0 93 bb 35 3c 72 76 df bc b6 32 af 3b 4f 11 c3 3b
       0.011092084 -0.027278159 0.0053466214 0.005952991
0001b0 3b 2f f4 3c 72 69 95 3d 45 67 93 3c ce b6 71 bd
       0.029807677 0.07295503 0.017993579 -0.059012227
0001c0 c1 da 62 3c 5e d7 02 bd e9 98 0c bb 4b af 0d 3d
       0.0138461 -0.03194367 -0.0021453446 0.034591
0001d0 c4 8f 72 3c d3 f9 b2 3c 7f 7a a0 3d 97 10 87 3c
       0.014804784 0.021847641 0.07835864 0.016487403
0001e0 09 98 e1 3c 6d ec 6c 3d a4 04 c6 3d 97 c1 36 3b
       0.027538316 0.05784266 0.09668854 0.0027886385
0001f0 b1 0e b0 bc a3 25 5c 3c a8 db cb 3c b2 a7 89 bd
       -0.02149138 0.013436708 0.024885014 -0.067214385
000200 6f cd c1 bb a4 82 1a bc 93 f5 e2 3c f4 88 98 bc
       -0.005914382 -0.009430561 0.02770499 -0.018619992
000210 75 4c 3b bd 39 c1 cb bc 70 eb aa bb 24 8e ad bc
       -0.045727212 -0.02487241 -0.0052160546 -0.021185942
000220 2a 61 62 3d 3d 73 df 3a 6b 4b ab bc 7b 76 05 3d
       0.055268444 0.0017047893 -0.020909986 0.032583695
000230 89 53 e3 bc 51 85 4a bb 6e 83 d5 bc 7e fc 1c bd
       -0.027749794 -0.0030902217 -0.026063647 -0.038326733
000240 16 1e 0d bd 27 f7 47 bb 9d b4 b7 bc 3f 7c 16 bd
       -0.03445252 -0.0030512305 -0.02242499 -0.036739584
000250 d5 a0 43 bd 1a 19 83 bb 46 38 bc 3c c9 87 49 bc
       -0.047760803 -0.004000795 0.022976052 -0.01230044
000260 2e 5f a9 bc ed 8b 3a 3d e1 d3 8f 3c 16 f9 ee bc
       -0.020675268 0.0455436 0.017557086 -0.029171508
000270 db 8a 5b 3d 06 6c 5f 3c 33 8c 0d 3b 61 80 4e 3d
       0.05359922 0.013636595 0.0021598458 0.0504154
000280 52 01 43 3c c7 71 87 3d da cd 6a bd a5 77 6d bc
       0.01190217 0.06613498 -0.05732522 -0.0144938575
000290 45 0f 95 3c 87 89 d3 3c 3d 37 43 bd 4e e5 f9 3b
       0.018195758 0.025822414 -0.0476601 0.007626212
0002a0 53 6c 09 bd ab ce 23 3d da 17 87 bd ee 92 f7 3c
       -0.03355057 0.039992016 -0.06596346 0.030221429
0002b0 aa d1 78 3d 7c 2f 88 bc 68 95 af 3c 47 f0 ad 3b
       0.060746826 -0.016624205 0.021433547 0.0053081843
0002c0 86 63 81 bd b4 cf cf bc 2f f6 42 bd ba 42 23 39
       -0.06317811 -0.025367595 -0.04759806 0.00015569749
0002d0 68 b9 33 bc 46 d8 04 3c b4 4e 01 3d 46 c8 d0 bc
       -0.010969497 0.008108204 0.031569198 -0.025486123
0002e0 79 b8 1d 3d e1 93 95 bc 53 1f 1b bd 28 7a 7c bc
       0.038506005 -0.01825899 -0.03787167 -0.015409984
0002f0 42 e3 8e bd 7f 48 c9 bc 11 1a 95 bc e7 1d 15 3d
       -0.0697694 -0.024570702 -0.018200906 0.03640547
000300 ee 85 19 bd d3 84 b7 3c a0 21 84 3d fb fc 5f bd
       -0.03748124 0.022402203 0.06451726 -0.05468462
000310 c4 fe 0a bc ad ac 45 3d 5b dd 85 3c 17 91 03 ba
       -0.008483592 0.04826038 0.016340902 -0.00050188735
000320 52 41 9d bd 4a 91 bc bc ac 86 3e bc ad 4e dc 3c
       -0.076784745 -0.023018498 -0.011628788 0.026892984
000330 12 88 35 3c 67 56 35 bd 67 9b 87 3b f2 c7 59 bc
       0.011079805 -0.044271853 0.0041383984 -0.0132923
000340 38 d3 24 3c e6 e4 d0 3c e9 fc ef bb 06 84 c3 bc
       0.010060124 0.025499772 -0.0073238504 -0.023866665
000350 84 20 ab 3a 8e 60 56 bd a5 17 63 bd 6d 83 f9 3c
       0.0013055955 -0.052338175 -0.05544247 0.030458177
000360 53 77 dc 3c 73 ab 36 3d 6a 1d 5a bb 11 29 ee bc
       0.026912367 0.0445971 -0.0033281692 -0.029072316
000370 8c a5 fe ba 2d e0 12 3d 6c 8a 3b 3c be 97 9f bb
       -0.0019427999 0.035858322 0.011446577 -0.004870384
000380 f7 f4 82 bc a9 c0 62 bd e6 00 2f bd 77 65 b1 bc
       -0.015985949 -0.055359516 -0.042725466 -0.021654828
000390 de 84 0c 3a dd d5 09 bc ff d7 40 bc cc 48 03 bb
       0.0005360375 -0.008412805 -0.0117702475 -0.0020032404
0003a0 07 32 63 3d b9 3b 39 bc 06 05 3f bd 2f 1e 42 3d
       0.05546763 -0.011305743 -0.04663565 0.047392067
0003b0 b9 50 51 3c 97 8e a5 3b 44 61 01 3d 73 6a 56 3d
       0.012775593 0.0050523984 0.0315869 0.05234761
0003c0 72 08 f1 3b 0d 1c fb 3c 92 a4 20 bb c8 2c fe bb
       0.007355743 0.030653024 -0.0024512154 -0.007756803
0003d0 c8 79 02 bd 9d 4b 6d 3d 19 62 11 3d 3a 02 e7 3c
       -0.03185442 0.05793344 0.035493944 0.028199304
0003e0 29 6f a0 3c c5 90 5a 3c f3 04 a4 bc 8b f0 3f 3d
       0.019584255 0.01334018 -0.020021891 0.04686026
0003f0 7a bb 2c 3c 85 a4 5d 3c 29 94 18 3d d2 32 56 3d
       0.010542745 0.013527994 0.03725067 0.05229456

action_model._continuous_distribution.mu.weight f4 [1, 128]
000000 a8 d5 87 3c 3c e8 ff 3b 73 d7 2b 3c 17 2a d9 3b
       0.016581371 0.007809667 0.010488379 0.006627332
000010 4b dd 0b bb 28 6b 02 3c 37 d9 c7 bb d6 84 77 3c
       -0.0021341618 0.007960118 -0.006098892 0.015107354
000020 7d 7a 4c 3a 27 89 d4 3a 76 ef d4 ba ee 8e 81 3b
       0.00078002346 0.0016215191 -0.0016245681 0.003953806
000030 e7 1f b0 bc 68 88 e1 3a a8 1a a2 3c 1b d7 06 3c
       -0.021499587 0.001720679 0.019788101 0.008229996
000040 25 e8 45 3c 67 61 a2 bb 69 1b c3 bb a5 4c 05 3b
       0.012079273 -0.004955459 -0.0059541953 0.0020339873
000050 50 d1 a5 bc a5 6b 9e bc 64 f3 4f 3a 05 78 97 3c
       -0.02024141 -0.019338438 0.00079326914 0.018489847
000060 95 4c 37 bb 6a ac b3 3b 86 f5 a8 3b d5 aa 18 3c
       -0.002796923 0.0054832 0.005156222 0.009318073
000070 47 93 d4 bb f8 15 05 bd 29 f4 44 3c 2f 5a 38 3c
       -0.0064872834 -0.032491654 0.012021103 0.01125197
000080 2d e9 b5 3b f1 c5 9c bb e6 33 c6 3b 03 6c 91 3c
       0.0055514784 -0.0047843386 0.0060486672 0.0177517
000090 39 51 9b bc 7c a1 aa 3c b5 9e ad bb f0 8a 95 bc
       -0.018959628 0.020828955 -0.0052984604 -0.018254727
0000a0 17 56 cd bb a5 90 19 bb 8f ec da 3c 55 73 85 ba
       -0.006266366 -0.0023432162 0.026724128 -0.0010181466
0000b0 eb 29 09 3c f6 ac 95 3c 69 26 0c 3b 05 cb d1 3b
       0.00837181 0.01827095 0.00213852 0.0064023756
0000c0 22 28 06 3c 18 eb a5 3c bc d0 49 3b 8d db ae bc
       0.008188279 0.020253703 0.0030794581 -0.021344924
0000d0 41 ab f3 3a f6 ec 45 3b ca 5c 77 3c 94 6d 87 bc
       0.0018590466 0.0030201054 0.015097806 -0.016531743
0000e0 50 20 fe bb ee 2a 5b 3c 2c e7 a4 ba fb 55 1a 3c
       -0.007755317 0.013376934 -0.0012581102 0.009419913
0000f0 92 a8 9f 3c b9 2d d7 bc fe 36 a9 3b 36 c2 30 bb
       0.01948956 -0.02626692 0.0051640263 -0.0026971227
000100 40 6a 72 bc 98 04 5c bb 23 b1 05 bc 6d 12 02 3c
       -0.01479584 -0.0033572074 -0.0081599085 0.007938963
000110 51 67 6f bb 9c ba ee 3c bd 6a 10 3b 39 db 7f bc
       -0.0036530087 0.029141717 0.0022036277 -0.015616232
000120 e7 7d 0c 3b f6 7f 40 bc eb 9e cf bb 7c 39 4e 3a
       0.0021437348 -0.011749258 -0.006336083 0.0007866842
000130 ae 8e f5 36 92 a4 a8 bc cf 93 8b 3a 28 56 98 bc
       7.318179e-06 -0.020586286 0.0010648909 -0.01859577
000140 09 12 5c b9 d5 8b 10 bc 83 e4 c8 3c 73 88 46 bc
       -0.00020987554 -0.008822401 0.024523025 -0.012117493
000150 5f ed fc ba 1a e2 a2 bb f9 15 62 3c 56 74 f4 3c
       -0.0019296816 -0.004970801 0.013799184 0.02984063
000160 a3 15 39 3b b7 e4 fb bc b6 9e 07 3b de c1 c1 bc
       0.0028241656 -0.030748708 0.0020693964 -0.023652013
000170 87 ee 88 bc 21 36 b7 3b 24 bc d1 3c 1c c8 46 3b
       -0.016715301 0.0055911695 0.025602408 0.0030331677
000180 ea 47 96 bb 82 b0 b9 b9 72 76 a6 bc 75 04 52 bc
       -0.0045862095 -0.00035417458 -0.020320151 -0.012818445
000190 90 40 d1 3b 92 40 84 bb 71 80 08 3c c0 81 66 bc
       0.0063858703 -0.0040360177 0.008331404 -0.014069021
0001a0 d4 9a 0e bc f4 ce a0 3a c7 96 84 3c bb 5f 56 3c
       -0.008703906 0.0012268708 0.016185177 0.013084347
0001b0 e2 4b 5b 3b 3f 68 09 3c cf ae 4c 3c 9d bb 2b 3c
       0.0033461978 0.008386671 0.0124928495 0.010481742
0001c0 29 fc b6 3a 26 28 84 3a 43 cd 81 bc f1 9a 19 3c
       0.0013960648 0.0010082766 -0.015844947 0.00937532
0001d0 7d 78 99 bc 10 7f 14 bc fb ce 10 3d 96 23 8e bc
       -0.018734211 -0.009063497 0.035353642 -0.017350953
0001e0 c9 77 68 bc c2 10 98 3c 1e 82 d9 3b 1b a9 ce 3b
       -0.014188715 0.018562678 0.0066378256 0.00630678
0001f0 91 9d 75 3c 31 b3 e7 bb c7 09 76 38 f8 29 db 3b
       0.01499118 -0.007070922 5.8660076e-05 0.0066883527

network_body._body_endoder.seq_layers.0.bias f4 [128]
000000 9e ca 1a bc b1 03 a6 bb 33 d6 ed 3b 7a 2e a5 3b
       -0.009447722 -0.005066358 0.0072582006 0.005040941
000010 3d 87 e4 bb 02 5c 19 3c 0f 05 a6 bb f0 7e 97 3b
       -0.0069741295 0.009360315 -0.005066521 0.0046232864
000020 3e b2 b0 3b 4e e4 db bb 38 81 02 bc 01 8d d8 ba
       0.005392342 -0.0067105656 -0.007965378 -0.0016521515
000030 f2 38 a5 3b 38 0d 2a bb 1e 0c 46 bb 67 82 4c ba
       0.005042189 -0.002594782 -0.0030219625 -0.0007801414
000040 1a 91 3d bc 1e 3d 2b 3b f3 aa 3d 3b 5f 55 99 bb
       -0.011570239 0.0026128958 0.0028941005 -0.0046793665
000050 ae 04 5d bb b5 01 fe ba e7 6d 89 3b a2 2e 11 3c
       -0.0033724713 -0.0019379171 0.0041940096 0.008861216
000060 a5 9a d5 bb 23 fc eb 3a 84 c9 50 3a 44 05 e1 bb
       -0.006518679 0.001800422 0.00079645985 -0.006867083
000070 a9 ce 16 bb 34 29 09 3c c0 13 38 bb 73 e1 e7 3b
       -0.0023011363 0.00837164 -0.0028087944 0.007076436
000080 90 dd ca bb ab 73 ad bb 7b 1d da bb 26 74 eb 3b
       -0.006190963 -0.0052933297 -0.0066563464 0.007185477
000090 d1 a6 3e 3b 83 66 20 3b 00 ab a1 3b 3a 6e 98 bb
       0.002909113 0.0024475164 0.004933715 -0.004651812
0000a0 a3 2f ff bb dd ea 6b bb 87 8c ba 3a 1b df 94 bb
       -0.007787661 -0.0035998144 0.0014232554 -0.004543198
0000b0 43 e4 6f bb 01 9b e1 bb cf 6c 2e bc c9 1a 39 bb
       -0.003660456 -0.006884933 -0.010646059 -0.0028244725
0000c0 25 18 af ba f1 fd 0c 3b 1d b8 1c bb 45 65 b8 bb
       -0.0013358636 0.0021513666 -0.002391345 -0.0056273066
0000d0 7b 00 14 bb 41 82 37 3c e1 b8 b1 3b fa c5 a9 bb
       -0.0022583294 0.011200489 0.0054236506 -0.0051810713
0000e0 cd c4 4d 3c 8a c1 48 bc a3 5a 01 bc 0f 5b 26 3c
       0.012559128 -0.012253175 -0.007895145 0.010153546
0000f0 fa cf dc bb 92 0a 04 bc de 9e 88 3a ef 00 d3 ba
       -0.00673866 -0.008059161 0.0010423323 -0.0016098301
000100 8a a2 48 38 d2 90 25 3c 6b dd 88 bc 87 5c e1 bb
       4.7835092e-05 0.010105329 -0.016707143 -0.006877485
000110 60 cc f9 ba f1 8a e5 3a e8 2e 98 b9 f9 8a 23 3b
       -0.0019058101 0.0017512721 -0.00029026647 0.002495466
000120 da 52 f6 bb 56 ca b8 ba 77 1d 1f 3a 40 60 d9 39
       -0.007517201 -0.0014098387 0.0006069759 0.00041461177
000130 e8 d7 b2 bb 6e 30 88 3b db 86 8e bb 1e 20 bd bb
       -0.005457867 0.004156164 -0.004349572 -0.005771651
000140 17 8e d1 b8 c7 54 0e bb 08 17 cf 3b 60 c7 e0 bb
       -9.992363e-05 -0.0021718012 0.006319884 -0.006859705
000150 91 e3 ae ba ad d6 4f 3a 0b 86 2e 3b 72 04 95 3a
       -0.0013342967 0.00079284125 0.0026630189 0.0011369123
000160 26 6c 9c 3b c5 88 79 3a 98 7d c0 bb 65 24 c0 bb
       0.0047736345 0.00095189764 -0.005874347 -0.0058637136
000170 c4 a0 9d bb 54 0b c5 3b 54 79 b2 3b 4e c8 39 bc
       -0.0048104245 0.0060133133 0.0054465923 -0.01133926
000180 1f 07 95 bb d4 11 05 bc e6 57 81 3b f5 db 16 3c
       -0.004547968 -0.008121926 0.003947246 0.009207715
000190 e2 a3 33 3a 71 d7 ee bb 4d 9c 16 3c 38 c5 a7 bb
       0.00068527285 -0.007288866 0.009192538 -0.005119946
0001a0 ea 19 9a 3a 57 47 4f 3b aa ed 26 3b a6 80 b8 3b
       0.001175699 0.0031628215 0.0025471249 0.0056305705
0001b0 35 1b cf ba 7e bb 3f bb 06 5b ae 3b f7 1e 5c bc
       -0.0015800955 -0.002925604 0.0053209094 -0.013435117
0001c0 b0 50 5f bb be 02 a1 3a 8d 17 89 bb 62 04 89 38
       -0.0034075193 0.0012284142 -0.0041837157 6.5334854e-05
0001d0 23 bc dd bb 91 da 51 b9 13 9e 0d 3a 63 bb b5 bb
       -0.0067668124 -0.00020013216 0.0005402278 -0.00554602
0001e0 42 b3 f9 3b 22 f1 95 bb cc d9 cb 3a cd d2 12 bc
       0.007620246 -0.0045758644 0.001555258 -0.008961392
0001f0 a1 8e fd ba 5a 74 5e 3b 71 bf a5 3b 76 1d ca 3a
       -0.0019344875 0.0033943863 0.005058222 0.0015420157

network_body._body_endoder.seq_layers.0.weight f4 [128, 131]
000000 fc 3c 60 bc 51 62 f7 3c 31 83 24 bd 0c 63 65 bc
       -0.013686415 0.030198248 -0.040164176 -0.014000665
000010 46 a6 57 bd 37 a3 8b bd d4 3a b4 bd 80 a0 a2 ba
       -0.052648805 -0.0681824 -0.08800283 -0.0012407452
000020 f8 0f 8a bd 53 db 51 3e 19 7c ad bc 6c e9 28 3d
       -0.06741327 0.20493822 -0.021177338 0.041238233
000030 7e 17 b9 3a f5 06 bd bd 2c bc 89 bd 82 f0 40 3d
       0.0014121381 -0.092298426 -0.06725344 0.047104366
000040 55 9c d2 bd 60 d7 e4 3c 71 66 06 bd 00 3f 20 3d
       -0.10283724 0.02793473 -0.03281254 0.03912258
000050 fd 79 89 bb 1a 5c 00 bd 5e 39 6c bd be 47 75 3d
       -0.0041954503 -0.031337835 -0.057671897 0.05988287
000060 c6 b6 d0 bc b6 a6 7d bd 8a 97 d4 bd 37 27 40 be
       -0.025477778 -0.061926566 -0.10380466 -0.1876496
000070 30 f4 dc bd 6e 87 26 3d 95 6a c0 bd c0 95 e0 3d
       -0.107887626 0.0406565 -0.09395329 0.109660625
000080 a6 e0 27 bd a0 74 49 3d 37 84 04 bd d1 8e 6a 3d
       -0.040985726 0.049183488 -0.032352652 0.057265107
000090 18 a0 69 3d 21 30 1e 3e 28 d3 31 be 93 fe ae 3d
       0.057037443 0.15448047 -0.17365706 0.0854465
0000a0 c2 fa 6b bd 5a a9 f1 3d ea 17 18 bc b2 9f 58 3e
       -0.05761219 0.11799879 -0.009283045 0.21154669
0000b0 c8 da 1d 3c c4 7d 09 be 52 5a 6e 3d 9a 37 b4 3b
       0.009634681 -0.13426882 0.058191605 0.0054997923
0000c0 ea fe 3b be 51 a8 f3 bc 95 ca 59 3d af 9e 42 3d
       -0.18358961 -0.029743345 0.053171713 0.047514614
0000d0 74 c1 e8 3c 40 02 db 3c ba a4 10 bd 65 2b 16 bc
       0.028412558 0.026734471 -0.035313345 -0.0091656195
0000e0 61 b5 d1 3d 05 5e 04 3e fe d5 90 bd 0b 1f 8b bd
       0.102396734 0.1292649 -0.07072066 -0.0679303
0000f0 77 5c 9b bd ff 56 43 bd fd f5 5b bd 71 c4 97 3c
       -0.07585996 -0.047690388 -0.05370139 0.018526288
000100 0e d0 04 3e 8b de 83 3c 1e f7 b0 3c 8b 23 f7 bb
       0.12969992 0.016097328 0.02160221 -0.007542079
000110 a1 7a 96 bd bf 6e 0f 3e fb 0b 91 3d f0 47 a1 3d
       -0.07347608 0.1400709 0.07082363 0.07875049
000120 27 ff ff 3c d2 30 59 bd 6b c4 8b 3c 15 54 f5 bb
       0.031249596 -0.053025074 0.017061433 -0.00748683
000130 ee 53 11 3e d9 26 39 3c 55 32 91 bd 15 90 0f 3d
       0.14192173 0.011300766 -0.07089678 0.035049517
000140 6a d8 3c bd 6e 34 10 3b 49 47 5f bc 2f a0 0a bd
       -0.046104826 0.0022003907 -0.013627836 -0.03384417
000150 6f ed 60 3d d6 07 a5 bb 80 ee d0 bc 93 32 f8 3c
       0.054913934 -0.0050363345 -0.02550435 0.030297553
000160 50 c3 3f bd 4c 87 19 bc 60 01 e6 bd 54 59 60 3d
       -0.046817124 -0.009370636 -0.11230731 0.05477269
000170 81 92 dc bc 7e f1 80 bd 06 a1 85 bd d8 19 e2 3d
       -0.026925327 -0.06296061 -0.065248534 0.110400856
000180 7c 64 9a bd f6 33 f9 bc 50 64 16 3c ff ac e9 bc
       -0.07538697 -0.030420285 0.00917919 -0.028524874
000190 33 2a 03 bd 47 0d dd 3d 53 42 ea 3c ea d5 d0 3a
       -0.032022666 0.10793548 0.028596079 0.0015932892
0001a0 da 23 c7 bd 11 2f 04 3d 65 ae c6 3d c1 23 9d bd
       -0.09723635 0.03227145 0.09701232 -0.07672835
0001b0 77 b2 2b 3d be 0c 70 3c 2b 58 30 bd 24 ac 94 bd
       0.041918244 0.0146514755 -0.043052834 -0.07259396
0001c0 10 d7 74 bd d9 02 d6 bd d4 19 37 3d ef 4a 06 3e
       -0.059775412 -0.10449762 0.044702366 0.13114522
0001d0 b6 72 a9 bd 17 41 0b 3e 17 c8 fd 3c 0f d3 24 3e
       -0.082738325 0.13599049 0.0309792 0.16096137
0001e0 93 bd a4 3d 1a ae ec bd b6 52 76 3b a2 3d e7 bd
       0.08043971 -0.11556645 0.003758592 -0.112910524
0001f0 f9 da ae bd f7 75 03 3d 9d 27 d9 bb 8e 93 9b 3c
       -0.085378595 0.032094922 -0.0066270367 0.018991258
000200 d0 8c ba bd db d4 94 3c df d0 c3 bd 20 d9 92 3d
       -0.09108889 0.018167904 -0.095613234 0.071703196
000210 bb cf d0 3d b7 7a 10 3e 35 22 01 bd 9f e8 93 3d
       0.101958714 0.14109312 -0.031526763 0.07222103
000220 3c 11 7a 3d da 17 15 bb ed 99 bb bd bc ed b0 bd
       0.061051592 -0.0022749812 -0.091602184 -0.08639094
000230 d3 b8 99 bd 3d 20 93 bc 44 52 5e 3d cd 01 af 3d
       -0.075059555 -0.017959708 0.054277673 0.08545265
000240 37 c5 1a 3e f6 3a e4 bb cc 1d 2d 3c 4c f7 3d be
       0.15114294 -0.0069650365 0.010566186 -0.18551368
000250 c2 5d 36 bd 9b 4c a2 bc 0b 87 0a be bc 3d 1b 3d
       -0.04452301 -0.019811919 -0.13528077 0.03790067
000260 fa 2e 9b 3d 0b 63 27 bd 58 35 ed bc 8d 79 4b 3d
       0.075773194 -0.04086594 -0.0289561 0.049676467
000270 63 c1 d8 bc 8a 66 3a 3e 04 87 16 3d c2 46 91 3d
       -0.026459401 0.18203178 0.036749855 0.07093574
000280 a4 27 a8 bd 0f cc a1 3d ef 0f 44 bd 26 d4 b3 3d
       -0.08210686 0.07900249 -0.047866758 0.087806985
000290 a4 fc 83 bd 90 af 51 3c 67 d5 c0 bd d2 c0 60 bd
       -0.06444672 0.012798205 -0.09415703 -0.054871388
0002a0 d5 b6 32 3e 3f f4 bc bd ad 3f 1c 3d 80 0d d1 3d
       0.17452557 -0.09226274 0.038146663 0.10207653
0002b0 a1 f4 e2 bc 9c d6 48 be 3c 61 3b 3d 9e f2 47 3e
       -0.027704539 -0.19613117 0.045747027 0.19526145
0002c0 e7 87 17 3d 8b 0f eb 3c c1 63 4e bd 56 a4 22 bd
       0.03699484 0.028693935 -0.0503881 -0.039707504
0002d0 77 09 2b 3e 0b eb a6 bc d7 5b 33 3e 6c 23 22 3d
       0.1670283 -0.02037575 0.17515503 0.039584562
0002e0 f6 be f1 3c 22 ae 76 3a 99 24 a0 bd 1e 38 2c bc
       0.029510003 0.0009410103 -0.078194804 -0.010511426
0002f0 0c 9b 44 3d de c8 ad bd 5e d8 4c bc 8e b3 98 bd
       0.047999427 -0.08485578 -0.012502758 -0.07456122
000300 56 1e 24 be 66 e6 37 be 79 57 3d bc c3 cf 04 be
       -0.16027197 -0.17958984 -0.0115565 -0.1296988
000310 70 2c 35 3e a9 27 ca bd d5 70 0a bc 83 fe 84 3d
       0.17692733 -0.09870846 -0.008449753 0.06493857
000320 a0 64 7b bd c7 76 55 3d 02 51 a6 3b 4e a8 f8 3a
       -0.06137526 0.052115228 0.005075575 0.0018971057
000330 61 f8 a3 bd f7 b3 2e 3d 46 a3 6a 3d 4a 8d e2 bd
       -0.08006359 0.042652097 0.057284616 -0.11062105
000340 7a 84 85 3d 0a 11 75 3d d7 39 a4 bb 67 aa 5b bd
       0.065194085 0.059830703 -0.005011778 -0.053629305
000350 f7 87 54 bd 6c 7c 32 bd 90 f6 01 bd 32 46 6b ba
       -0.05188748 -0.04357569 -0.03172928 -0.00089749985
000360 f2 77 29 3d 56 2a ff bd f8 c6 17 be ed 5f 5a 3d
       0.041374154 -0.12459247 -0.14821994 0.05331414
000370 35 c4 0f 3c b0 3d 25 3e 14 d4 94 bc 7e f4 a6 bc
       0.008774807 0.16136813 -0.018167533 -0.020380255
000380 41 30 15 3e 30 5c 3d 3d a9 9f 17 3d d0 35 8d bd
       0.14569189 0.046230495 0.0370175 -0.068950295
000390 fe 85 43 3e 18 a0 34 be 58 66 ec 3c 6c 12 ad bd
       0.19094083 -0.17639196 0.028857395 -0.08450779
0003a0 65 65 1e be b1 35 70 3c 4f 5f c0 bd ad dd 2d 3d
       -0.15468366 0.0146612385 -0.09393179 0.042447735
0003b0 87 8f 90 3d c9 83 d8 bb 5c 64 f3 3c f1 27 a8 bd
       0.07058626 -0.006607507 0.029710941 -0.08210743
0003c0 b4 b4 fd bd 7f d2 eb bc 31 ae 48 3c a0 db ca 3d
       -0.12387982 -0.028786896 0.012248562 0.099051714
0003d0 27 91 06 3d 1c 10 10 3d 7d ac 91 3d 84 27 4e 3d
       0.03285327 0.035171613 0.07112978 0.050330654
0003e0 d2 b3 ee 3d 3f c2 27 3b 26 b9 85 be 0b 1e 57 3c
       0.11655392 0.0025597957 -0.2611782 0.013129721
0003f0 47 84 af bd 3f 04 98 3d f2 9c 02 3e bb 46 93 3d
       -0.08570152 0.07422685 0.12755182 0.07191225
