Assets/Brain/SpikeDodge_01.onnx (onnx, 475565 bytes, 17 tensors)

155 f4 [132, 128]
0.0033752962 0.02630407 -0.0153287705 0.041686125 0.007265622 -0.0016760653 0.00412303 -0.04617235
-0.02781254 -0.0024775385 -0.006295998 0.031587075 -0.0030169985 7.5220596e-05 -0.011821929 -0.049475476
-0.024598131 0.03529096 -0.032657687 -0.030484606 -0.012694784 -0.011801965 0.026357537 -0.02265575
-0.025383785 0.047967505 -0.0008763063 0.02758867 -0.009683917 0.022211386 0.05550327 -0.02419144
0.011893394 0.07629201 -0.054744143 0.021071708 0.04063269 0.023756912 -0.011492217 0.029571338
-0.021655051 -0.0014755562 -0.05110387 0.011656177 0.027481996 -0.034918275 -0.012109584 -0.0499541
-0.0034008508 -0.044613805 -0.057925854 -0.0077037225 -0.052249 0.007582758 0.04589519 -0.001968316
0.020188557 0.05929317 0.017880421 0.055848874 -0.02348188 -0.0027041496 0.017528508 0.01647766
-0.012352504 -0.008258193 0.022614088 -0.008532776 0.054982755 0.032792747 0.028717946 -0.00062943355
0.028018532 -0.021636289 -0.010764351 -0.016937824 0.03935107 -0.03316113 -0.025611632 -0.029578246
-0.02384707 -0.0017806295 -0.049609553 0.033340897 -0.01891483 -0.028896797 0.026822362 0.062686875
0.004175218 0.042140853 0.013100552 0.011925448 -0.045452707 0.0540284 -0.073797695 -0.015119573
0.03775885 -0.010963572 0.028732033 0.002346943 -0.01570663 0.013349067 -0.010064893 0.012817935
0.0043142047 -0.029951008 0.013999352 0.005892379 0.010497067 0.004641942 0.049301885 0.031370733
-0.004322012 -0.04378618 -0.004242119 -0.012369126 -0.011750819 -0.018510684 0.075393766 -0.045555025
-0.02113828 0.084205136 -0.03120933 -0.053207107 -0.017906627 0.050332665 0.026578505 0.01865673
0.022493025 0.00455563 -0.032756973 0.019227887 0.037539393 -0.032798264 -0.057384178 0.06333578
-0.028747374 0.016813008 -0.0147024775 -0.025381373 0.03462699 -0.099826574 -0.09309036 0.0005264431
-0.06590003 -0.052263916 0.0039527034 -0.030842386 -0.046909735 -0.02529729 -0.011287572 0.044768926
0.036528226 0.07383887 0.007606958 0.009904879 -0.008925286 -0.015395175 0.006760006 -0.016027944
0.022576934 -0.002523509 0.03198895 -0.04404191 -0.023895092 0.025786294 -0.00072044437 -0.01513293
0.030123608 -0.006242987 -0.039886504 -0.0009867244 0.01998123 0.01873685 -0.052903384 -0.039246645
0.06499006 -0.05070948 -0.0078060296 0.08915175 0.0012207248 0.0039346553 0.051070463 -0.060638458
0.027672207 0.040442284 0.010417799 0.0047367434 -0.007488562 0.019580333 0.015780646 0.0010739645
-0.044813305 -0.025103005 -0.021158746 -0.027615625 -0.029635714 0.0040017283 -0.01721759 -0.014433394
0.038600095 -0.0016758915 -0.016928077 -0.03930688 0.045360275 0.0042931526 0.022298967 -0.018346118
-0.008585347 -0.043898713 -0.046343602 0.024297135 0.028896738 -0.0924685 -0.02130264 -0.0011730747
-0.020768363 -0.0318819 -0.009673253 0.045014057 -0.071111366 -0.029669255 -0.0033144774 0.051296443
-0.009987973 0.0020322881 0.039527193 -0.017583536 -0.03817796 -0.012792171 0.04097241 -0.03981594
0.0181485 0.0043562884 -0.08137643 -0.019625498 0.012340382 -0.016571356 0.06097625 0.06335844
0.055155355 0.043621432 -0.026741318 -0.026314445 0.0073267613 0.0120092 -0.01230735 0.035730466
-0.08032196 -0.048619453 0.003258731 0.015564579 -0.019825788 -0.019740501 -0.017039623 -0.01618303
00000000: 1334 5d3b a27b d73c 8625 7bbc 12bf 2a3d
00000010: 7414 ee3b 6baf dbba 7c1a 873b 381f 3dbd
00000020: 20d7 e3bc 335e 22bb a94e cebb 7361 013d
00000030: d6b8 45bb c0bf 9d38 c4b0 41bc cca6 4abd
00000040: 0582 c9bc 418d 103d 11c4 05bd daba f9bc
00000050: c9fd 4fbc 075d 41bc c3eb d73c 8d98 b9bc
00000060: a8f1 cfbc 9379 443d ecb7 65ba a201 e23c
00000070: 4ba9 1ebc a7f4 b53c 6657 633d 202d c6bc
00000080: 83dc 423c fc3e 9c3d 653b 60bd 939e ac3c
00000090: 776e 263d db9d c23c da49 3cbc 973f f23c
000000a0: ef65 b1bc 7367 c1ba 4b52 51bd 8df9 3e3c
000000b0: ec21 e13c 7706 0fbd 4767 46bc ac9c 4cbd
000000c0: cfe0 5ebb f7bc 36bd a943 6dbd 826f fcbb
000000d0: 0c03 56bd c978 f83b 98fc 3b3d ddfe 00bb
000000e0: 7962 a53c 65dd 723d f679 923c cac1 643d
000000f0: 125d c0bc 1a38 31bb f297 8f3c 28fc 863c
00000100: 2862 4abc 5f4d 07bc 2e41 b93c 0ecd 0bbc
00000110: 9935 613d b051 063d e641 eb3c 9200 25ba
00000120: 1f87 e53c 963e b1bc f65c 30bc 31c1 8abc
00000130: 962e 213d f7d3 07bd 7ccf d1bc 144e f2bc
00000140: ee5a c3bc 0364 e9ba 6333 4bbd 7790 083d
00000150: 46f3 9abc fab8 ecbc 92ba db3c fa61 803d
00000160: 44d0 883b e39b 2c3d b3a3 563c f462 433c
00000170: 9e2c 3abd e24c 5d3d 3f23 97bd 16b8 77bc
00000180: 06a9 1a3d 8ea0 33bc 715f eb3c 2bcf 193b
00000190: 31ab 80bc 0cb6 5a3c 39e7 24bc 5102 523c
000001a0: 2c5e 8d3b d15b f5bc 8a5d 653c dc14 c13b
000001b0: e4fb 2b3c 6f1b 983b c6f0 493d 997e 003d
000001c0: aa9f 8dbb 2359 33bd 7901 8bbb e0a7 4abc
000001d0: 8286 40bc b8a3 97bc 0c68 9a3d e897 3abd
000001e0: 302a adbc be73 ac3d b5aa ffbc b2ef 59bd
000001f0: ebb0 92bc a029 4e3d 2abb d93c 00d6 983c
00000200: 4b43 b83c 6547 953b 2d2c 06bd cd83 9d3c
00000210: e8c2 193d 7957 06bd ac0b 6bbd 30b6 813d
00000220: 9d7f ebbc 6fbb 893c a9e2 70bc 99ec cfbc
00000230: 08d5 0d3d e071 ccbd 29a6 bebd 0001 0a3a
00000240: 98f6 86bd b012 56bd ae85 813b 2ca9 fcbc
00000250: 6c24 40bd 433c cfbc 82ef 38bc 9f5f 373d
00000260: 9f9e 153d d538 973d ca43 f93b 1348 223c
00000270: 5d3b 12bc 0b3c 7cbc 0a83 dd3b 094d 83bc
00000280: 43f3 b83c 7561 25bb d806 033d 4a65 34bd
00000290: a4bf c3bc c73d d33c 34dc 3cba 1cf0 77bc
000002a0: c9c5 f63c f891 ccbb 0860 23bd fa54 81ba
000002b0: adaf a33c 067e 993c 38b1 58bd 17c1 20bd
000002c0: 8219 853d beb4 4fbd b9c9 ffbb 3195 b63d
000002d0: ba00 a03a 48ee 803b 432f 513d 0860 78bd
000002e0: d3b0 e23c cfa6 253d 6baf 2a3c af36 9b3b
000002f0: 9c62 f5bb ef66 a03c 6a46 813c 45c4 8c3a
00000300: 288e 37bd d1a4 cdbc 1b55 adbc 2a3a e2bc
00000310: 99c6 f2bc ee20 833b e70b 8dbc 0b7a 6cbc
00000320: 221b 1e3d 96a9 dbba c0ac 8abc 4000 21bd
00000330: b2cb 393d 93ad 8c3b 53ac b63c 994a 96bc
00000340: 8ea9 0cbc 23cf 33bd cad2 3dbd c90a c73c
00000350: dab8 ec3c 2060 bdbd e082 aebc dbc1 99ba
00000360: 6a22 aabc 9896 02bd 907c 1ebc a960 383d
00000370: d6a2 91bd f00c f3bc b437 59bb 381c 523d
00000380: 98a4 23bc 2330 053b 44e7 213d 590b 90bc
00000390: 7e60 1cbd 4196 51bc b0d2 273d 0a16 23bd
000003a0: 2aac 943c 32bf 8e3b b0a8 a6bd a7c5 a0bc
000003b0: 502f 4a3c a7c0 87bc 3bc2 793d 12c2 813d
000003c0: 95ea 613d 63ac 323d 9c10 dbbc 6491 d7bc
000003d0: 5415 f03b 3cc2 443c c4a4 49bc 1c5a 123d
000003e0: d77f a4bd 3125 47bd 6f90 553b 9302 7f3c
000003f0: b169 a2bc d5b6 a1bc ae96 8bbc 4692 84bc

157 f4 [128, 128]
0.028412096 0.011862515 -0.019674636 0.037013285 -0.0103568705 -0.054739688 0.006877493 0.005697297
0.0011149498 -0.035714056 0.027724314 -0.02376027 0.013051557 0.010516921 -0.011351978 0.03737142
0.0688117 0.027425222 -0.01962498 -0.016770026 0.062540054 0.023405928 -0.015724143 -0.016821088
-0.050987314 -0.0038266669 -0.002867234 -0.036783185 -0.048640694 -0.017572796 -0.025856119 0.014452875
0.02943485 0.015133716 0.026493764 -0.024779478 0.029926179 -0.019671876 -0.012818999 0.018052535
-0.023883354 0.01722867 0.026597656 -0.01558682 -0.005901236 0.08506092 0.0014403485 0.007201514
0.014012868 -0.021283772 -0.0011492176 -0.04264405 -0.031655986 0.023434833 -0.0055762148 -0.05497392
-0.011457763 -0.033562 0.029377826 0.017891256 -0.010578299 -0.0003920012 -0.04595532 0.007590512
-0.019724384 -0.016244164 0.00755561 0.019883445 -0.017946802 -0.008028907 -0.03017352 -0.00013688613
-0.016732348 -0.027617315 -0.0909856 -0.035172343 0.029623108 0.029919917 -0.018952215 0.06219501
0.039438963 -0.04386866 -0.0198433 0.013386902 -0.030037386 -0.108148724 0.045209743 -0.020634135
0.020958127 0.0052929344 -0.025073025 -0.0011279038 -0.049263068 -0.015770024 -0.016560737 -0.011814688
-0.021747155 -0.016008222 -0.039486207 0.0015194194 -0.041251715 -0.032836072 0.005828571 -0.013679763
-0.027812036 0.03721821 -0.006950596 0.0016007633 -0.04529563 0.022297388 0.050716072 -0.003883062
-0.0032907894 0.013647977 -0.028506849 0.017656583 -0.046946034 0.024523031 -0.038854606 -0.01189225
0.021987831 0.026700389 -0.0054456173 -0.006513101 0.011583549 -0.05024561 -0.023379978 -0.025075044
0.004691098 0.026903395 0.023034202 0.0073768254 0.012347068 0.0545723 -0.009997898 -0.040285993
0.003826147 0.003951276 -0.01699766 -0.042070962 0.0041947993 0.02751329 0.04204183 0.0020202924
-0.0073080165 -0.027677229 0.02800348 0.013062573 0.0019011114 0.034741387 -0.02812914 0.005824383
0.014517441 0.038915228 -0.0024809327 -0.041025925 0.018791007 -0.035458732 0.04661973 -0.028288128
0.0197257 -0.03571304 -0.0013370689 0.027986722 -0.013854965 -0.015329924 0.016781947 0.03146678
-0.0066039213 -0.06593275 -0.018220913 -0.03480837 0.0050578117 0.046854194 -0.0236993 -0.03422839
-0.01185253 0.015088833 0.010160945 -0.011428255 -0.0074409256 -0.0032292227 -0.019828323 -0.039298378
0.016108975 -0.021048345 0.035505716 -0.031205103 0.031306148 0.06585503 -0.009929766 0.012515268
0.021039715 -0.050605983 -0.008935897 0.0015643782 0.04520528 0.01804409 -0.042773176 0.036476023
0.051334657 0.0045997817 0.051672462 -0.010697267 0.035429765 -0.02431252 0.0068326485 0.03339316
0.0126327295 0.036537085 -0.008747178 -0.0021604374 0.017416175 0.0063513573 0.039810356 0.06867592
0.050846484 0.01416388 0.06298539 -0.0027764963 0.016108546 0.03053652 0.018460777 0.0019461196
0.037836302 -0.024646157 -0.019766035 -0.009120662 0.0006434798 -0.036040995 -0.006988027 -0.09577329
0.057737824 -0.0051517007 0.102206 -0.025724147 0.024984824 -0.0039873766 -0.018126816 0.009344372
-0.020231871 -0.06065006 -0.014891318 0.022633975 0.017690282 -0.03736451 0.062150203 -0.01735714
-0.023719944 0.045066886 -0.005017725 0.013330723 -0.033094276 -0.04109402 -0.05356321 -0.0055740173
00000000: 7cc0 e83c fe5a 423c b42c a1bc 3e9b 173d
00000010: ddaf 29bc b936 60bd 985c e13b 64b0 ba3b
00000020: 8223 923a e748 12bd 1a1e e33c e6a4 c2bc
00000030: 33d6 553c 2a4f 2c3c a6fd 39bc c612 193d
00000040: 26ed 8c3d dcaa e03c 91c4 a0bc 4b61 89bc
00000050: 0015 803d cabd bf3c ebcf 80bc 61cc 89bc
00000060: 13d8 50bd d1c8 7abb 34e8 3bbb f7a9 16bd
00000070: 773b 47bd d3f4 8fbc 36d0 d3bc c0cb 6c3c
00000080: 5b21 f13c 68f3 773c 7309 d93c 55fe cabc
00000090: bf27 f53c ea26 a1bc c706 52bc e9e2 933c
000000a0: 06a7 c3bc 2423 8d3c 54e3 d93c dd5f 7fbc
000000b0: 285f c1bb 6b34 ae3d 13ca bc3a aefa eb3b
000000c0: 3a96 653c 4e5b aebc 58a1 96ba 87ab 2ebd
000000d0: b5a9 01bd 68fa bf3c aeb8 b6bb 552c 61bd
000000e0: 57b9 3bbc 4f78 09bd c4a9 f03c af90 923c
000000f0: 9a50 2dbc 8385 cdb9 a53b 3cbd d4b9 f83b
00000100: 0895 a1bc 7b12 85bc 0d95 f73b 9be2 a23c
00000110: 2c05 93bc ad8b 03bc 752e f7bc 1789 0fb9
00000120: 4712 89bc b53d e2bc a956 babd e010 10bd
00000130: 29ac f23c 9d1a f53c ad41 9bbc 32c0 7e3d
00000140: c08a 213d a0af 33bd 6b8e a2bc bd54 5b3c
00000150: f710 f6bc 147d ddbd da2d 393d eb08 a9bc
00000160: 61b0 ab3c 5a70 ad3b f265 cdbc 2cd6 93ba
00000170: 12c8 49bd 2330 81bc 62aa 87bc 6592 41bc
00000180: 1727 b2bc ad23 83bc 4abc 21bd 4127 c73a
00000190: 8ff7 28bd 1e7f 06bd 99fd be3b 1621 60bc
000001a0: 11d6 e3bc 1f72 183d d3c1 e3bb b4d0 d13a
000001b0: e987 39bd 03a9 b63c a8bb 4f3d f87a 7ebb
000001c0: 49aa 57bb c49b 5f3c 3287 e9bc 8aa4 903c
000001d0: 7c4a 40bd 86e4 c83c 0226 1fbd b6d7 42bc
000001e0: d31f b43c c6ba da3c 2671 b2bb da6b d5bb
000001f0: edc8 3d3c 57ce 4dbd 5e87 bfbc 2e6a cdbc
00000200: c8b7 993b 8264 dc3c 39b2 bc3c 4cb9 f13b
00000210: 5b4b 4a3c 3487 5f3d 39ce 23bc ed02 25bd
00000220: 18c0 7a3b b579 813b ad3e 8bbc 9a52 2cbd
00000230: 8774 893b 8d63 e13c 0e34 2c3d e266 043b
00000240: 1678 efbb 5bbb e2bc 8e67 e53c 6704 563c
00000250: b72e f93a fc4c 0e3d 156f e6bc 77da be3b
00000260: 90da 6d3c 9365 1f3d 2597 22bb cd0a 28bd
00000270: 99ef 993c 2d3d 11bd 54f4 3e3d 81bc e7bc
00000280: cb97 a13c d647 12bd 9640 afba 6944 e53c
00000290: efff 62bc 5d2a 7bbc 4b7a 893c 4fe3 003d
000002a0: b565 d8bb c007 87bd 0644 95bc 3993 0ebd
000002b0: 00bc a53b 2fea 3f3d 0925 c2bc 1133 0cbd
000002c0: 1d31 42bc 2737 773c 187a 263c 933d 3bbc
000002d0: 02d3 f3bb 5ea1 53bb 026f a2bc 56f7 20bd
000002e0: f8f6 833c 946d acbc 716e 113d d8a1 ffbc
000002f0: e03a 003d 01df 863d 75b0 22bc d70c 4d3c
00000300: 7b5b ac3c 3848 4fbd de67 12bc d20b cd3a
00000310: 2c29 393d 33d1 933c ed32 2fbd e267 153d
00000320: 4a44 523d c4b9 963b 81a6 533d 9743 2fbc
00000330: cd1e 113d 0d2b c7bc 69e4 df3b 44c7 083d
00000340: 82f9 4e3c e9a7 153d 5350 0fbc 2096 0dbb
00000350: 5eac 8e3c 0c1f d03b 2f10 233d f6a5 8c3d
00000360: 6744 503d 9e0f 683c 7cfe 803d e1f5 35bb
00000370: 12f6 833c b927 fa3c 0e3b 973c f014 ff3a
00000380: 3dfa 1a3d bde6 c9bc 61ec a1bc d46e 15bc
00000390: 33af 283a b99f 13bd d2fb e4bb c924 c4bd
000003a0: 7f7e 6c3d 99cf a8bb 6151 d13d 72bb d2bc
000003b0: f9ac cc3c 8aa8 82bb b07e 94bc 2319 193c
000003c0: 4fbd a5bc 336c 78bd b7fa 73bc e36a b93c
000003d0: 36eb 903c 870b 19bd 3691 7e3d 9030 8ebc
000003e0: 5450 c2bc 0e98 383d ba6b a4bb 1b69 5a3c
000003f0: dd8d 07bd 3452 28bd 1965 5bbd 3fa6 b6bb

158 f4 [128, 128]
-0.008868499 0.0040437737 -0.04096032 -0.026297664 -0.048653904 -0.0114877345 0.02190355 -0.029918505
-0.03799639 0.008295254 -0.035363603 -0.06854194 -0.046487156 0.051313885 -0.03429348 -0.017883727
-0.063820764 -0.054472633 0.025870694 0.01600357 0.019917013 0.010568894 -0.007645429 0.010114658
0.060591415 0.0065919277 0.01035158 0.09771948 0.008498797 0.08827736 0.023160938 -0.025687275
-0.014293331 -0.036488578 -0.02809422 0.0026546542 0.026910832 -0.013587183 -0.020647952 -0.02397166
-0.013114845 -0.023869136 0.013664145 -0.0076732747 -0.011284249 -0.036495943 -0.03219472 -0.0765954
-0.004096305 0.013548213 -0.033405025 -0.008079036 0.007936491 0.002229281 -0.009525515 0.008536653
0.093203135 -0.019365942 -0.05543526 0.00060959376 0.007868192 -0.027302306 0.033511158 0.028834729
-0.015378676 0.02309123 0.007834519 0.03696359 0.04706767 0.03560389 0.003747903 -0.0031904646
-0.027110286 -0.020915736 0.03565845 -0.060615107 0.02288101 0.007758985 -0.005861588 0.030901922
0.06696368 -0.037499648 0.030901397 -0.019020995 0.055776816 0.10594099 -0.015100536 -0.034517657
-0.039526213 -0.0017588092 -0.04874075 0.014737642 0.019949287 -0.014576933 -0.04529977 0.011701968
-0.017044678 0.0041456195 -0.013291085 0.047397796 0.026064117 -0.022173593 0.009950424 0.023030931
0.034925718 0.013099502 0.035402395 -0.02053055 0.019465081 0.008782362 -0.017606273 0.042324685
-0.03097052 0.009529399 0.0033012233 0.03970809 -0.012396214 0.02977846 0.015451951 0.0087731285
0.011382596 0.0025590202 -0.05187048 -0.017785084 0.025655547 -0.02255483 0.019997379 0.008156451
0.0071282717 -0.029502727 -0.057501145 -0.02213322 0.025621569 -0.004216138 -0.024906738 -0.038820114
-0.03383117 -0.0335641 -0.034838617 0.023994507 0.04177974 0.0018250706 0.0468903 -0.042453833
-0.03138884 0.0017041 -0.0084932055 0.024578976 -0.014426999 -0.06395792 -0.10896397 0.015585395
0.015363733 -0.02415547 -0.03717497 -0.012100955 0.0030594396 -0.009988378 0.030587086 -0.010509632
-0.0068706316 -0.037646245 -0.017489756 -0.007816568 -0.05015536 -0.0033607355 -0.0034433627 -0.018313987
-0.03024305 0.043901216 0.0068294266 -0.01420775 -0.051745377 -0.016887741 0.01418694 0.028399566
-0.07925676 -0.029277502 0.06884634 -0.038711708 -0.007839232 0.054541603 0.01834684 -0.0026335479
0.008440449 -0.022132177 0.0124997515 0.023715956 -0.05327413 0.0767237 0.038563892 -0.021666104
-0.027236843 0.021643601 0.01526257 -0.031791337 -0.046330906 -0.013761859 -0.009783563 0.027755715
0.00468328 -0.007890165 -0.0010851643 -0.04202722 0.0059593692 -0.03622805 -0.0049100136 -0.013917625
0.052759293 -0.023434555 0.04972756 -0.028236285 0.04540956 0.047545604 0.04118498 -0.017701106
0.0032749 -0.02316963 0.0044306605 0.059040487 0.0568332 0.03635453 -0.03595205 -0.0440903
0.018070243 0.023456581 0.024791436 0.0034663896 -0.008485652 0.010454099 -0.05104948 0.028380873
0.045776688 0.004354485 0.09137944 0.017353663 0.019427473 0.0010808184 0.017524766 -0.013984453
-0.038662575 0.009270877 -0.0014888926 0.05335648 -0.0036331848 0.013971213 0.013125968 0.0048875934
-0.02936951 0.016683267 0.033184852 0.052838605 0.03340585 -0.030566327 0.0511216 0.0016076165
00000000: 2e4d 11bc a281 843b 02c6 27bd 336e d7bc
00000010: 5149 47bd 0d37 3cbc 136f b33c a717 f5bc
00000020: 1aa2 1bbd d1e8 073c 6dd9 10bd b75f 8cbd
00000030: 5169 3ebd 822e 523d 5277 0cbd e580 92bc
00000040: 76b4 82bd b21e 5fbd c7ee d33c eb19 833c
00000050: 0129 a33c 2829 2d3c 8286 fabb f3b7 253c
00000060: b42e 783d 1901 d83b ac99 293c 2721 c83d
00000070: 8a3e 0b3c c3ca b43d 02bc bd3c 1f6e d2bc
00000080: 932e 6abc 0c75 15bd da25 e6bc b5f9 2d3b
00000090: 1b74 dc3c c79c 5ebc e525 a9bc 3760 c4bc
000000a0: a6df 56bc 3589 c3bc 94df 5f3c 1870 fbbb
000000b0: 92e1 38bc c57c 15bd 9cde 03bd 0dde 9cbd
000000c0: 4c3a 86bb 53f9 5d3c b5d3 08bd ef5d 04bc
000000d0: 0e08 023c 2119 123b e810 1cbc 51dd 0b3c
000000e0: 49e1 be3d 53a5 9ebc 1510 63bd 25cd 1f3a
000000f0: 97e9 003c 16a9 dfbc ff42 093d cf36 ec3c
00000100: d8f6 7bbc d229 bd3c 5b5c 003c 2267 173d
00000110: 07ca 403d 62d5 113d 619f 753b 1d17 51bb
00000120: 6416 debc 7a57 abbc 980e 123d 8c47 78bd
00000130: f570 bb3c 153f fe3b 9012 c0bb 0726 fd3c
00000140: 4124 893d 3b99 19bd ed24 fd3c ebd1 9bbc
00000150: 3b76 643d 97f7 d83d 3d68 77bc 6362 0dbd
00000160: 3de6 21bd d887 e6ba 61a4 47bd 2776 713c
00000170: b06c a33c 17d4 6ebc 408c 39bd 9cb9 3f3c
00000180: 48a1 8bbc fad7 873b dac2 59bc 3124 423d
00000190: 6a84 d53c 65a5 b5bc 1a07 233c 5dab bc3c
000001a0: 450e 0f3d 4b9f 563c 1a02 113d af2f a8bc
000001b0: 3c75 9f3c e5e3 0f3c 083b 90bc a65c 2d3d
000001c0: e3b5 fdbc 3221 1c3c 5659 583b f3a4 223d
000001d0: 7d19 4bbc f5f1 f33c 2e2a 7d3c 2bbd 0f3c
000001e0: 117e 3a3c 3cb5 273b 2476 54bd 06b2 91bc
000001f0: 952b d23c e8c4 b8bc 8bd1 a33c a3a2 053c
00000200: 4794 e93b b4af f1bc 5286 6bbd ba50 b5bc
00000210: 53e4 d13c 8727 8abb 3709 ccbc d701 1fbd
00000220: 8e92 0abd 827a 09bd f0b2 0ebd 2190 c43c
00000230: 3c21 2b3d 3537 ef3a 0b10 403d 12e4 2dbd
00000240: 9691 00bd 1c5c df3a 1627 0bbc d959 c93c
00000250: 385f 6cbc 5ffc 82bd 8028 dfbd e259 7f3c
00000260: 2bb8 7b3c b1e1 c5bc c844 18bd 1543 46bc
00000270: e180 483b 4ba6 23bc c591 fa3c 9730 2cbc
00000280: 0923 e1bb f332 1abd ad46 8fbc 1011 00bc
00000290: b56f 4dbd c93f 5cbb 0aaa 61bb 3707 96bc
000002a0: 46c0 f7bc c3d1 333d 62c9 df3b 9fc7 68bc
000002b0: f6f2 53bd 2958 8abc 5770 683c 35a6 e83c
000002c0: 5e51 a2bd 5fd7 efbc 4fff 8c3d 2b90 1ebd
000002d0: 1f70 00bc 0467 5f3d 1d4c 963c 9a97 2cbb
000002e0: cf49 0a3c 8a4e b5bc c2cb 4c3c f747 c23c
000002f0: f935 5abd 5121 9d3d 2cf5 1d3d 1d7d b1bc
00000300: cd1f dfbc ec4d b13c dc0f 7a3c a237 02bd
00000310: 7ac5 3dbd 6c79 61bc 3d4b 20bc f45f e33c
00000320: 3376 993b c045 01bc 123c 8eba bc24 2cbd
00000330: d046 c33b dd63 14bd 2ee4 a0bb c006 64bc
00000340: 211a 583d d3f9 bfbc 20af 4b3d c84f e7bc
00000350: 60ff 393d 2ebf 423d 95b1 283d e901 91bc
00000360: b49f 563b 3cce bdbc 132f 913b 70d4 713d
00000370: eec9 683d 7de8 143d 7542 13bd 0898 34bd
00000380: 0c08 943c 0428 c03c 6917 cb3c 5e2c 633b
00000390: 6707 0bbc ab47 2b3c 4219 51bd 017f e83c
000003a0: 5680 3b3d 11b0 8e3b 2525 bb3d 4529 8e3c
000003b0: 5d26 9f3c 3faa 8d3a 1990 8f3c 0c1f 65bc
000003c0: a65c 1ebd e0e4 173c f226 c3ba 538c 5a3d
000003d0: ba1a 6ebb 84e7 643c 4d0e 573c 1b28 a03b
000003e0: 5498 f0bc 59ab 883c d7ec 073d 4b6d 583d
000003f0: 93d4 083d 3c66 fabc e264 513d a9b6 d23a

159 f4 [128, 128]
-0.040262878 0.038872037 -0.008945211 -0.014719175 0.025049554 0.018284986 -0.0145381 0.020627612
0.007841884 0.032965023 -0.014522306 -0.014919843 0.02719057 0.0098990565 0.016480096 -0.0036217659
0.03187125 0.022663139 -0.02406653 -0.00684592 0.023711728 0.004870388 0.006360032 0.0125351
0.017126812 -0.016270198 -0.021994619 0.050716635 -0.020932697 -0.022503559 -0.026740925 0.032802958
0.052652344 -0.066721074 -0.03602711 0.022246532 0.056824252 -0.018817728 -0.061794057 0.057541247
0.023649883 -0.014914781 -0.022411868 0.019573709 0.018949833 0.011995995 -0.03236841 -0.013897241
0.039530646 -0.02530202 0.039977543 0.016592206 0.015335092 -0.007582904 0.011788995 0.007099762
-0.086217664 0.04128974 -0.06324491 -0.0063055274 0.010236949 -0.0059752096 0.0073006293 0.04936804
-0.033291575 -0.026965354 -0.0058223684 -0.015435331 -0.049649008 0.03668652 0.0020832873 0.0041478258
0.038516827 -0.030035244 0.0138675915 -0.021139996 -0.019960878 0.032883096 0.019441862 0.013453888
-0.013953708 -0.05126305 -0.005395981 -0.014586575 0.005089936 0.0114053665 -0.0042864066 -0.026969181
0.025820576 -0.007762139 0.013153858 -0.018553164 0.042513635 -0.00716182 0.012782784 0.048294842
0.044610072 -0.0020418693 0.0027677328 -0.0003725852 0.041792862 0.004747767 -0.006882835 -0.021564696
0.009119054 -0.009852725 0.06963256 -0.00051763956 -0.0032289329 -0.027357263 0.03824531 -0.030896308
-0.00045334134 0.018490454 -0.014848313 0.02419263 0.026584104 0.017814592 -0.023974748 -0.029663885
-0.029834634 -0.0046478524 -0.015065398 0.010285485 0.0144822765 -0.019372813 -0.012406573 0.05035886
0.011565195 0.017441234 0.017414084 -0.07948508 0.014730819 0.031510737 0.029441247 -0.00092488003
-0.02652201 0.02139691 -0.012374956 -0.018975504 0.047073074 -0.019092655 0.038412303 0.036227796
0.060676973 -0.0034617449 -0.033429287 0.017964695 0.048390366 0.019911623 0.016169172 0.00943934
-0.04016595 -0.0096188905 0.016011374 0.023057504 -0.010829981 -0.024808794 -0.024921788 0.02036661
0.021153403 -0.024842702 -0.012501538 0.033213373 -0.011671284 -0.023420705 0.012331352 0.011303005
-0.0062664337 -0.036115576 -0.051725436 0.03049531 -0.041589838 -0.006031043 -0.06303033 -0.03428222
0.030416837 0.047274567 -0.024846923 -0.017561153 -0.027616253 0.013239205 -0.0052885427 0.0276006
0.026421545 -0.009370038 -0.015702143 -0.014440445 -0.011582776 -0.009947931 0.011555468 -0.001483322
-0.04620189 0.021869611 -0.0069913226 -0.04502508 0.017007416 -0.06864638 -0.008432215 0.02521433
0.03533341 0.018579291 -0.004482097 -0.050515298 -0.027710203 0.0098087825 0.022622693 -0.039233454
-0.009318859 0.006641741 0.058897555 0.0078048394 -0.0010138212 -0.0411038 -0.049600177 -0.008809829
0.044260763 0.028678922 -0.015000032 0.020188326 -0.035456944 -0.05536715 0.016246729 -0.07427403
0.046282884 -0.016731365 -0.022458855 -0.03085821 -0.027577352 -0.025722649 -0.025311008 -0.00075389957
-0.0537646 -0.013688772 0.013423206 0.06130675 -0.015882479 -0.004193027 0.03713078 -0.043516427
0.035343383 0.008360552 -0.03977258 0.0025570295 -4.0833933e-05 0.013095093 0.00086522195 0.048219915
0.017607674 0.037303243 -0.0091308 0.0017012305 0.047215648 0.040383615 0.02899079 -0.020288
00000000: b0ea 24bd 4938 1f3d ef8e 12bc b228 71bc
00000010: b934 cd3c 65ca 953c 3631 6ebc 3dfb a83c
00000020: 3f7b 003c 5506 073d f7ee 6dbc 5b72 74bc
00000030: c2be de3c a72f 223c 4401 873c 265b 6dbb
00000040: 6e8b 023d 0ca8 b93c 2c27 c5bc bd53 e0bb
00000050: 193f c23c c797 9f3b d167 d03b 0560 4d3c
00000060: 874d 8c3c 1449 85bc 0f2e b4bc 3fbc 4f3d
00000070: 0c7b abbc 6259 b8bc c90f dbbc 655c 063d
00000080: fca9 573d 0fa5 88bd 2a91 13bd 5c3e b63c
00000090: 8cc0 683d a327 9abc c41b 7dbd 5fb0 6b3d
000000a0: 66bd c13c 205d 74bc 1899 b7bc 0b59 a03c
000000b0: ae3c 9b3c da8a 443c bd94 04bd 41b1 63bc
000000c0: e3ea 213d 2f46 cfbc 7ebf 233d 61ec 873c
000000d0: 0a40 7b3c 027a f8bb a126 413c 1fa5 e83b
000000e0: e392 b0bd 6e1f 293d 8c86 81bd 999e cebb
000000f0: e0b8 273c b1cb c3bb 1e3a ef3b 2436 4a3d
00000100: bf5c 08bd 72e6 dcbc 91c9 bebb 78e4 7cbc
00000110: c25c 4bbd 9b44 163d c387 083b 7cea 873b
00000120: d2c3 1d3d 790c f6bc e534 633c c92d adbc
00000130: ff84 a3bc 6db0 063d 8a44 9f3c b26d 5c3c
00000140: 189e 64bc 34f9 51bd c5d0 b0bb 88fc 6ebc
00000150: 7ac9 a63b 93dd 3a3c fc74 8cbb 79ee dcbc
00000160: ac85 d33c 8b59 febb 4783 573c cefc 97bc
00000170: c722 2e3d b3ad eabb e26e 513c d0d0 453d
00000180: 0db9 363d e2d0 05bb da62 353b 8a57 c3b9
00000190: fe2e 2b3d 2893 9b3b 6889 e1bb 72a8 b0bc
000001a0: 1668 153c 536d 21bc 849b 8e3d 34b2 07ba
000001b0: 819c 53bb 571c e0bc 1da7 1c3d 411a fdbc
000001c0: 72ae edb9 4b79 973c 5746 73bc 9f2f c63c
000001d0: e8c6 d93c e8ef 913c b166 c4bc ad01 f3bc
000001e0: c367 f4bc 034d 98bb dcd4 76bc 7384 283c
000001f0: 1247 6d3c bcb3 9ebc f044 4bbc 1845 4e3d
00000200: f27b 3d3c ebe0 8e3c fba7 8e3c 13c9 a2bd
00000210: 8859 713c 6711 013d c52e f13c a673 72ba
00000220: b044 d9bc 9348 af3c 54c0 4abc 8472 9bbc
00000230: b2cf 403d 3368 9cbc 3856 1d3d 9963 143d
00000240: 6b88 783d 71de 62bb 26ed 08bd b22a 933c
00000250: fa34 463d b31d a33c 3675 843c 76a7 1a3c
00000260: 0d85 24bd 8d98 1dbc 492a 833c 17e3 bc3c
00000270: 3c70 31bc d03b cbbc c728 ccbc e0d7 a63c
00000280: e749 ad3c ec82 cbbc 40d3 4cbc bf0a 083d
00000290: ea38 3fbc c7dc bfbc 7009 4a3c 3d30 393c
000002a0: a856 cdbb eded 13bd 0dde 53bd 4dd1 f93c
000002b0: 1b5a 2abd 0ea0 c5bb 0c16 81bd 836b 0cbd
000002c0: bb2c f93c faa2 413d c68b cbbc 68dc 8fbc
000002d0: 7b3b e2bc 40e9 583c 834b adbb a71a e23c
000002e0: ff71 d83c ca84 19bc c8a1 80bc 9e97 6cbc
000002f0: afc5 3dbc a6fc 22bc 2553 3d3c 076c c2ba
00000300: 313e 3dbd e627 b33c 7717 e5bb 386c 38bd
00000310: 2353 8b3c 7996 8cbd 4627 0abc 488e ce3c
00000320: c4b9 103d 9933 983c 8ede 92bb 21e9 4ebd
00000330: 8200 e3bc 04b5 203c 3a53 b93c 42b3 20bd
00000340: 21ae 18bc f6a2 d93b 903e 713d bdbf ff3b
00000350: 32e2 84ba 755c 28bd 8e29 4bbd 1a57 10bc
00000360: c64a 353d 0ff0 ea3c b2c2 75bc fd61 a53c
00000370: 4d3b 11bd aac8 62bd dc17 853c fc1c 98bd
00000380: 1f93 3d3d 3710 89bc a2fb b7bc 5bca fcbc
00000390: e6e9 e1bc 4eb8 d2bc 0859 cfbc 58a1 45ba
000003a0: 4538 5cbd df46 60bc 02ed 5b3c c91c 7b3d
000003b0: f91b 82bc a965 89bb 7216 183d 483e 32bd
000003c0: 39c4 103d b2fa 083c 93e8 22bd d693 273b
000003d0: 1a45 2bb8 cd8c 563c 10d0 623a 3f82 453d
000003e0: f83d 903c 49cb 183d 5a99 15bc d3fb de3a
000003f0: 3265 413d 4a69 253d 187e ed3c 0533 a6bc

160 f4 [128, 128]
0.0011235992 0.055379257 -0.012791073 -0.018755639 0.07035324 -0.032424588 -0.039705474 0.032054752
-0.017158262 -0.057448793 -0.032572076 -0.026313288 0.009649892 -0.020912353 0.013362725 0.041785672
-0.0009774425 -0.022551512 -0.0029732354 -0.004111273 0.008171946 -0.052531492 0.002836636 -0.064785175
-0.021189027 -0.019499226 -0.047686946 -0.037834417 -0.02656 -0.064419754 -0.042088028 -0.019493168
0.034395207 -0.0032570246 -0.010975893 0.005898611 0.008793156 0.027061025 -0.04365127 0.02700794
0.0003785652 0.028138425 -0.049960062 0.037908312 -0.030320652 -0.016644802 -0.002624664 -0.0028140736
0.012350445 0.06950628 -0.017778663 0.021487204 0.04227363 -0.022451108 -0.022650873 0.03186051
-0.060875818 -0.010979917 0.04006131 0.00039607444 0.03929745 0.0073024323 -0.00781848 -0.014627186
0.035226755 0.009411378 0.014629481 -0.019769147 -0.012960708 -0.0422402 -0.061519872 0.007075062
-0.0767487 0.042146653 0.03432226 0.021749826 0.036822055 -0.042789813 0.05855789 0.015278584
-0.0023454314 -0.029182198 -0.0064048725 0.033662137 -0.01912632 -0.0063881334 -0.050578043 0.007859299
0.020836107 0.007902735 0.008235313 -0.049011253 0.008501962 -0.03253328 -0.0015789759 0.048827488
0.0064062965 0.024098279 -0.015271769 -0.040384322 -0.043491997 0.00854845 -0.02460086 -0.0048630047
0.019868879 0.026912978 0.00023245766 0.04723845 0.025987003 -0.0034668487 0.02587256 -0.017764503
0.050876338 -0.051271886 -0.015390844 -0.008504677 0.0110165505 0.033856288 0.063437216 -0.010045434
-0.0337003 0.008701448 -0.042931203 -0.01509162 -0.008424659 -0.04325783 -0.02373086 -0.009436766
-0.021597108 0.046589322 -0.051428597 -0.058719534 -0.0052749612 -0.008718867 -0.059116036 -0.0043608644
-0.03202039 -0.042637717 -0.03511219 0.013420666 -0.015236367 -0.039250467 0.0153153725 0.009915787
0.04480966 0.031541176 0.04749939 -0.02369665 0.020536127 -0.02686675 -0.018123534 0.009221221
0.030487487 0.006736561 0.011773264 0.03756638 0.05180126 -0.019813495 -0.026754418 0.0356892
0.00036123136 0.00084171153 -0.015380676 -0.01622885 0.0068996237 0.06833291 0.0058298116 0.03944979
-0.006196877 -0.0043822154 0.050274238 -0.0407101 -0.02053497 0.015760873 -0.021565272 0.01619146
-0.062111747 0.00038403014 0.021440918 -0.06019753 0.081056476 -0.0020348374 0.017860863 0.048943877
0.020728458 -0.015245975 0.00053579547 0.03304422 -0.038709976 0.015002446 -0.03292061 0.07212565
-0.04590122 0.0141398 0.00662052 9.79433e-06 0.0009053006 -0.047094587 0.061821952 -0.0052943877
0.057363898 -0.04688121 -0.050074313 0.024671653 0.05261219 -0.014409772 -0.056952916 0.027018929
-0.020638077 -0.006953015 0.0680583 -0.0031078788 0.019051088 0.015678043 0.017371897 0.034104418
-0.018652325 -0.041752372 0.009882808 0.0014389304 -0.0017002278 0.03386879 -0.010680305 -0.046802904
-0.018826904 0.017776018 -0.036966175 -0.021437053 -0.014540543 0.030128036 -0.013776793 -0.02649803
0.0049167005 -0.030873565 0.01854639 -0.058709312 0.005261376 0.040962458 0.007859848 -0.0028030758
0.006303271 -0.008444886 0.010999097 -0.010124875 0.022123484 -0.025540842 0.005272645 0.0025059534
0.005665212 -0.04058678 -0.0062358547 -0.013201756 0.06957349 -0.029400375 0.0012784483 0.060243025
00000000: bc45 933a 5cd5 623d a691 51bc 6da5 99bc
00000010: 5c15 903d a5cf 04bd 35a2 22bd d84b 033d
00000020: 7c8f 8cbc 6d4f 6bbd 4c6a 05bd f78e d7bc
00000030: 951a 1e3c 6250 abbc 55ef 5a3c 7427 2b3d
00000040: 871d 80ba f3bd b8bc 9dda 42bb dcb7 86bb
00000050: a0e3 053c 432b 57bd dbe6 393b 17ae 84bd
00000060: 9c94 adbc d7bc 9fbc 6353 43bd 43f8 1abd
00000070: 5b94 d9bc 81ee 83bd 7f64 2cbd 23b0 9fbc
00000080: fde1 0c3d ce73 55bb 3bd4 33bc 2349 c13b
00000090: 2b11 103c 15af dd3c adcb 32bd c13f dd3c
000000a0: 297a c639 8e82 e63c eca2 4cbd bf45 1b3d
000000b0: 0463 f8bc ae5a 88bc 8e02 2cbb 526c 38bb
000000c0: 8559 4a3c 4f59 8e3d 8fa4 91bc ef05 b03c
000000d0: 1d27 2d3d 63eb b7bc 538e b9bc 2b80 023d
000000e0: ec58 79bd 1ce5 33bc 5417 243d 36a8 cf39
000000f0: 5df6 203d 3e49 ef3b 1519 00bc dda6 6fbc
00000100: ee49 103d 2e32 1a3c 7eb0 6f3c e8f2 a1bc
00000110: 2659 54bc 0f04 2dbd 43fc 7bbd ecd5 e73b
00000120: 6c2e 9dbd f8a1 2c3d 8095 0c3d b12c b23c
00000130: b9d2 163d 5f44 2fbd 66da 6f3d 0753 7a3c
00000140: cfb5 19bb 810f efbc f7df d1bb 4fe1 093d
00000150: cdae 9cbc 8c53 d1bb ec2a 4fbd 4ac4 003c
00000160: 7cb0 aa3c 797a 013c 68ed 063c 06c0 48bd
00000170: d04b 0b3c 9e41 05bd a4f5 ceba 55ff 473d
00000180: e9eb d13b c169 c53c 7136 7abc 086a 25bd
00000190: aa24 32bd cc0e 0c3c be87 c9bc d759 9fbb
000001a0: 0fc4 a23c 9b78 dc3c e1bf 7339 1b7d 413d
000001b0: b2e2 d43c 1234 63bb b1f2 d33c dd86 91bc
000001c0: b563 503d 7802 52bd e129 7cbc 3357 0bbc
000001d0: c37e 343c e4ac 0a3d 5feb 813d 9b95 24bc
000001e0: 5309 0abd 8590 0e3c a1d8 2fbd d842 77bc
000001f0: 9507 0abc 1f2f 31bd 3867 c2bc aa9c 1abc
00000200: 6bec b0bc 72d4 3e3d cba6 52bd e583 70bd
00000210: 95d9 acbb 94d9 0ebc a823 72bd 95e5 8ebb
00000220: d027 03bd e3a4 2ebd cdd1 0fbd 5ae2 5b3c
00000230: f4a1 79bc 19c5 20bd 54ed 7a3c d375 223c
00000240: 568a 373d 5231 013d b88e 423d 7a1f c2bc
00000250: 613b a83c a917 dcbc ce77 94bc 9b14 173c
00000260: e5c0 f93c 5fbe dc3b a6e4 403c 34df 193d
00000270: 8f2d 543d e94f a2bc 152c dbbc d72e 123d
00000280: a763 bd39 4ea6 5c3a 3bff 7bbc 5ef2 84bc
00000290: 3d16 e23b 20f2 8b3d 0108 bf3b 1a96 213d
000002a0: 2c0f cbbb b098 8fbb 5cec 4d3d a2bf 26bd
000002b0: f438 a8bc f21c 813c a7a9 b0bc f4a3 843c
000002c0: e368 7ebd a757 c939 dda4 af3c af91 76bd
000002d0: f000 a63d e85a 05bb f250 923c 6079 483d
000002e0: bace a93c 41ca 79bc a074 0c3a 6059 073d
000002f0: 5a8e 1ebd d2cc 753c c3d7 06bd 9db6 933d
00000300: eb02 3cbd 9faa 673c f2f0 d83b 5452 2437
00000310: b251 6d3a 41e6 40bd 0439 7d3d 8b7c adbb
00000320: 68f6 6a3d 8306 40bd b91a 4dbd 351c ca3c
00000330: e17f 573d f716 6cbc 7647 69bd cd56 dd3c
00000340: 2f11 a9bc 1ed6 e3bb 2662 8b3d 8ead 4bbb
00000350: 0711 9c3c 3d6f 803c 824f 8e3c 13b1 0b3d
00000360: c3cc 98bc 8904 2bbd 80eb 213c 7e9a bc3a
00000370: 2eda deba 00ba 0a3d 72fc 2ebc 67b4 3fbd
00000380: e13a 9abc 039f 913c d869 17bd c29c afbc
00000390: 753b 6ebc 12cf f63c 0fb8 61bc 6612 d9bc
000003a0: 461c a13b 8fea fcbc 99ee 973c 2d79 70bd
000003b0: 9f67 ac3b 40c8 273d 98c6 003c cfb3 37bb
000003c0: ab8b ce3b 6b5c 0abc 8e35 343c cee2 25bc
000003d0: 4f3c b53c 073b d1bc 27c6 ac3b ec3a 243b
000003e0: 3ea3 b93b 533e 26bd 2456 ccbb 2e4c 58bc
000003f0: 8c7c 8e3d 0ed9 f0bc 9b91 a73a 64c1 763d

action_model._continuous_distribution.mu.weight f4 [1, 128]
-0.0017796009 -0.004028225 0.004276347 -0.00780511 -0.009924839 -0.0055563003 -0.012673018 0.0002516284
-0.0064123734 -0.008595935 0.0076330444 -0.0035252015 -0.053058047 -0.014023013 -0.00014077162 -0.010708792
0.01598612 0.028912503 0.01188013 0.00022872601 0.029569315 0.0057165036 -0.009689493 -0.005000482
-0.010379321 -0.013886967 -0.0063720513 0.00607784 -0.010265894 -0.0002715738 0.0011452495 0.0103927255
0.028642187 0.011581055 0.0016147761 0.0042709536 0.022380326 0.014677297 0.010528016 -0.00070697395
-0.03595239 0.006427571 -0.0029860046 -0.00969369 -0.0040099756 0.0013563597 0.0393896 -0.004801518
-0.010463575 -0.0047707553 0.00082011294 -0.00401719 -0.005383164 0.027753117 -0.026100138 -0.017447332
0.016411869 -0.008198519 -0.018325225 0.0076992814 -0.0006463481 -0.013501258 0.009697788 -0.023677655
-0.007791858 0.01838141 -0.00630331 0.01276502 0.026158212 0.0067153135 0.017063802 -0.012589436
-0.0023732008 0.028699532 0.01387636 -0.008375179 0.011808187 0.008457203 0.014500901 -0.0024143741
-0.025083605 -0.005570357 0.00022528892 0.023182414 0.028705377 0.01217754 0.007844011 0.007506042
0.00030759908 0.012754463 0.019803137 0.016193727 0.008480857 0.009739034 -0.0067132744 0.0010412902
0.0044605415 0.0011130561 -0.003161658 -0.02141313 -0.030594237 0.01567271 0.0041137515 0.0054607294
-0.014098014 -0.0056822696 0.005555941 0.027209362 0.0046114526 0.015045934 -0.019317485 0.016283177
-0.017564645 -0.014110781 0.021061322 -0.0028561787 0.034715068 0.0061440747 0.03240935 -0.0019355227
0.007660282 -0.00020831452 0.012818598 0.018977528 -0.008932502 0.02252929 -0.0070859017 0.007003704
00000000: 7f41 e9ba 33ff 83bb 9920 8c3b 02c2 ffbb
00000010: cb9b 22bc a011 b6bb 7da2 4fbc feec 8339
00000020: e31e d2bb f7d5 0cbc 9e1e fa3b 1107 67bb
00000030: 6553 59bd c8c0 65bc 189c 13b9 ee73 2fbc
00000040: 53f5 823c ead9 ec3c e0a4 423c 2cd6 6f39
00000050: 593b f23c 8251 bb3b aec0 1ebc 15db a3bb
00000060: 070e 2abc 2986 63bc a4cc d0bb 9e28 c73b
00000070: 4832 28bc 0562 8eb9 321c 963a 4046 2a3c
00000080: 05a3 ea3c 77be 3d3c e5a6 d33a 5bf3 8b3b
00000090: f256 b73c 0c79 703c b37d 2c3c 3854 39ba
000000a0: d042 13bd 609e d23b d8b0 43bb 48d2 1ebc
000000b0: 1d66 83bb e1c7 b13a fd56 213d 0d56 9dbb
000000c0: 6a6f 2bbc ff53 9cbb d9fc 563a a2a2 83bb
000000d0: 4165 b0bb 815a e33c f5cf d5bc b5ed 8ebc
000000e0: 2f72 863c 1553 06bc c81e 96bc 414a fc3b
000000f0: b06f 29ba 6134 5dbc 79e3 1e3c a4f7 c1bc
00000100: d852 ffbb 9c94 963c ff8b cebb 6024 513c
00000110: bf49 d63c 220c dc3b 63c9 8b3c ec43 4ebc
00000120: b487 1bbb 481b eb3c ac59 633c 0c38 09bc
00000130: 2077 413c 1590 0a3c 3095 6d3c 7a3a 1ebb
00000140: 227c cdbc 8b87 b6bb 893b 6c39 0ce9 bd3c
00000150: 8a27 eb3c 4e84 473c 2b84 003c 3ef5 f53b
00000160: 4045 a139 18f8 503c 303a a23c b5a8 843c
00000170: 4bf3 0a3c 7890 1f3c 07fb dbbb e77b 883a
00000180: bc29 923b f7e3 913a d233 4fbb 976a afbc
00000190: c4a0 fabc 0e64 803c a6cc 863b ebef b23b
000001a0: 5bfb 66bc 5532 babb 9c0e b63b 2be6 de3c
000001b0: ab1b 973b 3983 763c b43f 9ebc 4c64 853c
000001c0: bbe3 8fbc e830 67bc cb88 ac3c ba2e 3bbb
000001d0: 6331 0e3d 3c54 c93b abbf 043d 5db1 fdba
000001e0: 1a03 fb3b 016f 5ab9 1905 523c c376 9b3c
000001f0: a159 12bc 588f b83c da30 e8bb 547f e53b

network_body._body_endoder.seq_layers.0.bias f4 [128]
0.00049725943 -0.0040806183 -0.001875883 0.0037051893 -0.006479869 -0.0046394574 -0.00018340297 -0.004147538
0.01093796 0.0014472533 -0.0033353262 -0.0021917603 -0.0023579756 -0.0065481905 0.00040891988 0.00037502515
-0.0049556396 -0.008974508 0.00057606015 0.0077765733 -0.0026460886 -0.0027275889 0.010535493 -0.006978932
-0.009259127 0.0011334934 -0.006609324 -0.0051540607 -0.0006210998 0.0037119377 0.00080539053 -0.0071944757
0.0033459868 -0.005453245 0.0046553263 -0.004840535 0.0029340107 0.0037416487 0.0033689593 -0.003152462
0.0118918065 -0.00377936 -0.003954862 -0.005351614 -0.006760766 0.00064035313 -0.0015630875 -0.0022625679
0.0041599846 0.0015106004 -0.00054360897 -0.00775711 0.0021512723 -0.0021528963 -0.0010122965 0.00028549152
-0.0077973297 0.012762597 0.00039752375 0.0013244395 0.0015995883 0.011391428 -0.0071672276 -0.017109359
-0.000269137 -0.0029358435 -0.0017232092 -0.0022041446 -0.00012919665 -0.0054991944 0.00025668275 0.002321962
-0.0044939653 -0.008139343 -0.004532385 0.0043291203 0.00036315338 0.0053795935 -0.0036111707 -0.005486592
0.00088776415 0.0042465236 0.005136412 -0.0034076346 -0.0022524798 -0.00038571743 0.005326458 -0.013253806
0.0029372002 -0.0005590135 0.00077620504 0.006275343 -0.0010315523 -0.0014566657 -0.0006263827 0.0037511452
-0.006365948 -0.0031015407 -0.00032994722 0.012876124 -0.0021183544 0.0016395381 -0.004087362 -0.0015772264
-5.771945e-05 -0.0018444445 -0.007936724 -0.007639785 0.0033017823 -0.00813138 -0.0036375478 -0.00379214
-0.009602605 -0.00086025154 -0.0060673095 0.0032451581 -0.002607065 0.0010552562 -0.0041747596 -0.0009032645
0.0010544222 -0.002463101 0.00017851073 -0.006103105 0.0127156135 -0.0042727543 0.0074304156 0.00042349234
00000000: 845a 023a b5b6 85bb 30e0 f5ba c3d2 723b
00000010: 1555 d4bb 9706 98bb dc4f 40b9 12e8 87bb
00000020: 2135 333c c3b1 bd3a 7d95 5abb a3a3 0fbb
00000030: 4488 1abb 3492 d6bb 4c64 d639 069f c439
00000040: eb62 a2bb d109 13bc be02 173a a0d2 fe3b
00000050: 006a 2dbb 59c1 32bb 0f9d 2c3c 86af e4bb
00000060: 98b3 17bc ba91 943a 0793 d8bb 65e3 a8bb
00000070: 4dd1 22ba fb43 733b d820 533a a3bf ebbb
00000080: 5848 5b3b 22b1 b2bb b58b 983b 5a9d 9ebb
00000090: 8848 403b 7336 753b c2c9 5c3b 8999 4ebb
000000a0: dad5 423c 24af 77bb c997 81bb 985c afbb
000000b0: 6a89 ddbb 5fdd 273a 83e0 ccba 9747 14bb
000000c0: 7b50 883b 57ff c53a fb80 0eba 5b2f febb
000000d0: 5cfc 0c3b 9b17 0dbb 09af 84ba 06ae 9539
000000e0: be80 ffbb 361a 513c bc6a d039 d198 ad3a
000000f0: 47a9 d13a 1da3 3a3c 10db eabb ed28 8cbc
00000100: f51a 8db9 4867 40bb 4edd e1ba 6973 10bb
00000110: f678 07b9 9632 b4bb 6093 8639 0f2c 183b
00000120: 1d42 93bb e15a 05bc 6784 94bb 4bdb 8d3b
00000130: 9f65 be39 4d47 b03b 64a9 6cbb dfc8 b3bb
00000140: d8b8 683a 6c26 8b3b 594f a83b 9f52 5fbb
00000150: 579e 13bb 1e3a cab9 9189 ae3b 7e26 59bc
00000160: 0b7e 403b c38a 12ba 3d7a 4b3a 64a1 cd3b
00000170: 2735 87ba 97ed beba d533 24ba c6d5 753b
00000180: 7199 d0bb 3843 4bbb c4fc acb9 61f6 523c
00000190: 17d4 0abb c5e5 d63a 47ef 85bb f0ba ceba
000001a0: ca17 72b8 4ac1 f1ba 0909 02bc 2957 fabb
000001b0: b762 583b 7b39 05bc ed63 6ebb 8d85 78bb
000001c0: 3f54 1dbc 8182 61ba 48d0 c6bb b8ac 543b
000001d0: 4bdb 2abb 8650 8a3a 6ccc 88bb 0ec9 6cba
000001e0: 8a34 8a3a fa6b 21bb 9c2e 3b39 8efc c7bb
000001f0: 2655 503c 7602 8cbb d87a f33b 2e08 de39

network_body._body_endoder.seq_layers.0.weight f4 [128, 131]
0.06738981 0.06084089 -0.03591282 0.07190636 -0.0633866 -0.07646778 0.079855055 0.042709425
0.11337419 -0.06790252 0.11812234 0.031499837 0.020742035 0.058582228 0.1564811 0.084226914
0.101991 -0.09312082 0.18931623 0.051689863 0.03978455 0.06845273 0.1586206 -0.016714443
-0.04118307 0.13576974 0.01100375 -0.016419372 0.035241663 -0.07675814 -0.06680758 0.0057193656
0.05713876 -0.0013773772 0.15408471 0.095309965 0.0063131726 0.01149848 0.019795423 -0.045066338
-0.10157078 -0.19216447 0.07608029 0.053012673 0.07110915 -0.08432895 0.10364249 -0.00040632024
0.050766274 -0.02130525 0.02403513 0.042557277 -0.02921391 0.10677914 0.084293164 -0.029023005
-0.08951099 0.06210727 -0.058940396 0.10254537 -0.005423199 -0.14419751 0.055830125 -0.00016797117
-0.11430215 -0.0021372156 -0.11396241 0.0130173685 0.14466555 -0.027432777 0.015420105 0.11987758
0.008921222 0.06659701 0.03334681 -0.024709068 -0.11901186 -0.11153034 0.11153617 0.08633559
0.10172266 0.116545446 -0.102329165 0.013879652 -0.21070889 -0.046917107 0.051550727 -0.058582902
-0.18858647 0.11631456 0.076640025 -0.05254062 0.019556085 0.1683885 -0.045076586 -0.04161742
-0.14794189 0.08683435 -0.101339065 -0.086618125 0.18773547 -0.007816211 -0.036302686 0.08973851
0.10275344 -0.07228644 0.05235529 0.003301174 0.0970892 -0.049488246 -0.017719967 0.12305307
0.014648471 0.028392462 0.027562521 -0.1469757 -0.06258788 0.011070584 -0.0628617 0.080630444
-0.035079323 0.09776788 0.14845736 0.17086625 -0.090631254 0.031071978 -0.07814751 0.2735035
-0.022211526 0.021516064 -0.018134244 -0.060613845 -0.07373289 -0.12279425 0.017697535 0.0511058
0.049837787 0.01466186 -0.16655336 -0.04171856 -0.1361576 -0.0049994513 0.019186584 0.036842227
-0.12924695 -0.14238396 0.024254903 -0.067758076 -0.08290445 0.009343032 0.06100886 -0.13905051
0.260617 0.044246566 0.041873984 -0.065811396 -0.092151865 0.030370893 -0.050092835 0.011349174
0.040618576 -0.049470205 -0.036319386 -0.08527139 -0.014469454 -0.016044509 -0.042668365 0.004841759
0.027796112 -0.06845439 0.038280725 -0.049624227 -0.03285283 -0.14821173 -0.13569768 -0.044374477
0.056023654 -0.056934424 0.016786886 0.06903175 -0.14374226 0.10149209 0.039151736 -0.054692417
0.04208324 0.037710976 -0.050634716 0.04395617 0.055148434 0.06891892 0.14186595 0.068298265
-0.07663725 -0.052401457 -0.07698651 -0.027328907 0.121279135 -0.12622121 -0.008320087 0.023543391
0.019055406 -0.026629115 0.10565994 0.0031239453 -0.029312864 0.051942952 -0.021292929 0.01014793
-0.05847518 -0.10305112 -0.041321877 -0.019673683 -0.08533446 0.011743895 -0.11404832 0.04760816
0.052739426 -0.14148551 0.14353493 -0.009736425 0.04037438 -0.014577163 -0.042068996 0.27545643
-0.0123976385 -0.047321197 0.027795013 0.16878511 0.15456587 -0.17690387 0.1247091 0.12228557
0.07779736 -0.032119412 -0.023139102 0.014435329 0.08531384 -0.026812183 -0.11730022 -0.088073604
-0.04398332 0.13531789 -0.105747126 -0.06988981 -0.09853277 0.15896004 0.06795137 -0.05029567
-0.09374056 0.034331992 -0.07850555 -0.0025066598 0.01928456 -0.10666245 0.022324905 0.007471074
00000000: ab03 8a3d 4c34 793d 5219 13bd a443 933d
00000010: d5d0 81bd 249b 9cbd 0c8b a33d 14f0 2e3d
00000020: ba30 e83d 7a10 8bbd 20ea f13d f905 013d
00000030: 33eb a93c ebf3 6f3d 953c 203e 297f ac3d
00000040: a8e0 d03d 21b6 bebd 1ddc 413e c0b8 533d
00000050: 20f5 223d f230 8c3d 706d 223e baec 88bc
00000060: 94af 28bd 3907 0b3e 1349 343c eb81 86bc
00000070: 9059 103d 5f33 9dbd 6ad2 88bd 8469 bb3b
00000080: 550a 6a3d 1c89 b4ba 62c8 1d3e df31 c33d
00000090: bbde ce3b 1f64 3c3c 032a a23c 7b97 38bd
000000a0: 5704 d0bd c3c6 44be fccf 9b3d d123 593d
000000b0: ada1 913d a8b4 acbd 8442 d43d 6107 d5b9
000000c0: 4cf0 4f3d 5988 aebc 52e5 c43c 8a50 2e3d
000000d0: 0352 efbc 06af da3d e5a1 ac3d a7c1 edbc
000000e0: 8a51 b7bd 3164 7e3d 7c6b 71bd 4f03 d23d
000000f0: 17b5 b1bb 83a8 13be 21ae 643d 6b21 30b9
00000100: 3f17 eabd 8710 0cbb 2065 e9bd cd46 553c
00000110: 3523 143e b4ba e0bc 9ca4 7c3c 6082 f53d
00000120: 512a 123c 0364 883d aa96 083d ac6a cabc
00000130: 7dbc f3bd 056a e4bd 136d e43d b7d0 b03d
00000140: f853 d03d 61af ee3d f491 d1bd 7b67 633c
00000150: 12c4 57be 272c 40bd db26 533d a0f4 6fbd
00000160: d01c 41be 5436 ee3d 72f5 9c3d d534 57bd
00000170: 1534 a03c 096e 2c3e 3aa2 38bd 0777 2abd
00000180: 147e 17be 35d6 b13d db8a cfbd d864 b1bd
00000190: ba3d 403e 910f 00bc 20b2 14bd d3c8 b73d
000001a0: 6570 d23d ea0a 94bd 8072 563d 8258 583b
000001b0: b4d6 c63d 30b4 4abd 7729 91bc 3f03 fc3d
000001c0: 2400 703c 4f97 e83c ccca e13c cc80 16be
000001d0: 132e 80bd 6561 353c a3bd 80bd 9321 a53d
000001e0: 56af 0fbd 873a c83d 3505 183e 90f7 2e3e
000001f0: e19c b9bd a98a fe3c cd0b a0bd a708 8c3e
00000200: f2f4 b5bc 7542 b03c 448e 94bc 3946 78bd
00000210: 4501 97bd 8d7b fbbd 6cfa 903c 5154 513d
00000220: b522 4c3d 4c38 703c f78c 2abe 15e1 2abd
00000230: e66c 0bbe 70d2 a3bb 2f2d 9d3c e0e7 163d
00000240: 5059 04be 1acd 11be 38b2 c63c bfc4 8abd
00000250: cfc9 a9bd 8413 193c 6de4 793d 4263 0ebe
00000260: 976f 853e e33b 353d 0e84 2b3d 20c8 86bd
00000270: 1eba bcbd 61cc f83c 252e 4dbd e3f1 393c
00000280: aa5f 263d 45a1 4abd a3c3 14bd c4a2 aebd
00000290: 4a11 6dbc c66f 83bc 06c5 2ebd 9ea7 9e3b
000002a0: acb4 e33c d131 8cbd 40cc 1c3d c642 4bbd
000002b0: b090 06bd d1c4 17be 55f4 0abe 03c2 35bd
000002c0: 0f79 653d 1234 69bd a784 893c 8560 8d3d
000002d0: 2c31 13be 16db cf3d 925d 203d 2805 60bd
000002e0: 7a5f 2c3d d376 1a3d 5966 4fbd 630b 343d
000002f0: 53e3 613d 5d25 8d3d 4f45 113e f6df 8b3d
00000300: fef3 9cbd e9a2 56bd 1aab 9dbd dfe0 dfbc
00000310: 3261 f83d 2240 01be f950 08bc 12de c03c
00000320: 151a 9c3c 4d25 dabc 3d64 d83d 1bbb 4c3b
00000330: 8821 f0bc 22c2 543d 826e aebc 8143 263c
00000340: ac83 6fbd 770c d3bd 2141 29bd b42a a1bc
00000350: d5c3 aebd 7769 403c 2a92 e9bd c600 433d
00000360: 4c05 583d 94e1 10be d2fa 123e 8785 1fbc
00000370: 9b5f 253d 0ed5 6ebc 8a50 2cbd a008 8d3e
00000380: 771f 4bbc dfd3 41bd 5eb2 e33c 01d6 2c3e
00000390: 8446 1e3e 4a26 35be 7c67 ff3d db70 fa3d
000003a0: 3954 9f3d a58f 03bd 378e bdbc 2882 6c3c
000003b0: 06b9 ae3d 39a5 dbbc 193b f0bd ef5f b4bd
000003c0: db27 34bd c690 0a3e f391 d8bd 6422 8fbd
000003d0: 8dcb c9bd 6cc6 223e 162a 8b3d d502 4ebd
000003e0: 0dfb bfbd b49f 0c3d 85c7 a0bd c646 24bb
000003f0: a7fa 9d3c d871 dabd b8e2 b63c e9cf f43b

network_body._body_endoder.seq_layers.2.bias f4 [128]
-0.001416132 0.00073932705 -0.0050298152 -0.0018134667 0.0010344712 0.00059729564 -0.00020309183 0.007481069
0.001032492 0.0025938433 -0.001742385 0.003278183 0.0008268589 -0.00027047968 0.00025633746 0.00064151076
-0.003544805 -0.0018012107 -0.0041157347 -0.0012719565 -0.006371849 -0.005170016 0.00047180106 0.0026829846
0.0019422696 0.0042215455 -0.000302807 -0.0037217145 0.0035145204 0.0015559217 -0.00815787 -0.0056215026
-0.004068657 -0.0059845475 0.0035330118 -0.0034576447 -0.002583411 -0.004488434 -0.0045621484 -0.007726545
0.0025322535 -0.0028397096 -0.0044019246 0.0035546417 0.0019303252 -0.0055813943 -0.0052482313 -0.00053447054
0.002701864 0.0003364086 0.008993206 0.0020064486 -0.0032609303 -0.0030033328 0.0035895696 0.003439916
-0.0060940655 0.0022494246 0.0016951427 -0.0033635776 -0.004323461 0.0045062667 -0.002893046 0.002650877
0.0028913291 -0.00351158 0.0033006398 -0.0043302816 -0.004235617 -0.005174671 -0.0061616283 0.0014932901
-0.0044690697 -0.002230657 -0.003850688 0.004229762 -0.0012022514 -0.0044108042 -0.0027207995 -0.0014668424
0.0016151959 0.003113351 -0.001753235 -0.0036172643 -0.0038221597 -0.010489547 -0.0045789625 -0.0033061423
-0.0016877779 -0.0039764172 -0.004804858 -0.003482103 -0.0036096235 -0.0050690663 0.0009325188 -0.006741069
-0.002678522 -0.009067371 0.0018440804 0.0005958999 0.006354588 -0.0053134235 -0.004098131 -0.0051080734
0.0024928758 0.0013456504 -0.0061983136 -0.006986078 -0.0052557494 -0.006185666 0.0046278983 -0.0025212995
0.0034180982 0.0016233493 -0.0045674904 0.0019029104 -0.004317842 -0.0036677571 -0.0061492366 0.0021887962
-0.004895676 0.0024732805 -0.0021731441 -0.0024320767 0.0011179942 -0.003462873 0.0018880209 -0.0069928756
00000000: 819d b9ba 66cf 413a 26d1 a4bb d8b1 edba
00000010: 1897 873a d593 1c3a 0cf5 54b9 c123 f53b
00000020: af54 873a 78fd 293b bd60 e4ba c9d6 563b
00000030: 90c1 583a 2bcf 8db9 0865 8639 0f2b 283a
00000040: f64f 68bb 9a16 ecba 49dd 86bb c7b7 a6ba
00000050: f2ca d0bb 3d69 a9bb 115c f739 03d5 2f3b
00000060: c193 fe3a e454 8a3b 11c2 9eb9 02e8 73bb
00000070: de53 663b 12f0 cb3a 96a8 05bc 9534 b8bb
00000080: 5e52 85bb 061a c4bb 1a8a 673b a799 62bb
00000090: 724e 29bb b713 93bb 137e 95bb f52e fdbb
000000a0: 2af4 253b 6c1a 3abb 053e 90bb fef4 683b
000000b0: f702 fd3a 21e4 b6bb 5bf9 abbb b61b 0cba
000000c0: c211 313b ff5f b039 3d58 133c 9f7e 033b
000000d0: 55b5 55bb 90d3 44bb fc3e 6b3b 3770 613b
000000e0: bab0 c7bb 156b 133b 8d2f de3a 786f 5cbb
000000f0: d2ab 8dbb 4ea9 933b 4299 3dbb 56ba 2d3b
00000100: 747c 3d3b 8922 66bb 8c4f 583b 09e5 8dbb
00000110: eeca 8abb 4990 a9bb 7ce7 c9bb 80ba c33a
00000120: 4671 92bb 3730 12bb d35b 7cbb d199 8a3b
00000130: dd94 9dba 8288 90bb 714f 32bb 1043 c0ba
00000140: fbb4 d33a 5d09 4c3b cecc e5ba a00f 6dbb
00000150: 337d 7abb 59dc 2bbc 1f0b 96bb ddab 58bb
00000160: 6e38 ddba 9b4c 82bb 1272 9dbb ff33 64bb
00000170: 6f8f 6cbb 691a a6bb 4774 743a 2fe4 dcbb
00000180: 248a 2fbb 4f8f 14bc 12b5 f13a 2a36 1c3a
00000190: 263a d03b 3a1c aebb 9d49 86bb a061 a7bb
000001a0: 845f 233b 8960 b03a 391b cbbb 78eb e4bb
000001b0: 6c38 acbb 21b1 cabb a0a5 973b 633c 25bb
000001c0: 2c02 603b 90c6 d43a e3aa 95bb 146b f93a
000001d0: af7c 8dbb c15e 70bb 897f c9bb e871 0f3b
000001e0: e86b a0bb c316 223b 4f6b 0ebb 7a63 1fbb
000001f0: a989 923a 5ef1 62bb 7877 f73a 7e24 e5bb
